model/add2_test.tflite (tflite, 5824 bytes, 4 tensors)

model/quant_conv2/Conv2D;model/quant_conv2/LastValueQuant/FakeQuantWithMinMaxVarsPerChannel i1 [4, 3, 3, 3]
0	0x6a	106
1	0xc1	-63
2	0x31	49
3	0x1b	27
4	0xe8	-24
5	0x0c	12
6	0x1f	31
7	0xd2	-46
8	0x40	64
9	0x45	69
10	0xcf	-49
11	0x40	64
12	0x59	89
13	0xfa	-6
14	0x48	72
15	0xe6	-26
16	0x16	22
17	0x6b	107
18	0xe1	-31
19	0xca	-54
20	0x7f	127
21	0x49	73
22	0xe4	-28
23	0x66	102
24	0x25	37
25	0x29	41
26	0x31	49
27	0xe4	-28
28	0x92	-110
29	0x58	88
30	0x2b	43
31	0x4d	77
32	0xd3	-45
33	0x3e	62
34	0x8e	-114
35	0x91	-111
36	0x1c	28
37	0x73	115
38	0x18	24
39	0x90	-112
40	0x52	82
41	0x9f	-97
42	0xeb	-21
43	0x81	-127
44	0x1a	26
45	0xc2	-62
46	0xbd	-67
47	0x01	1
48	0xa6	-90
49	0xd5	-43
50	0xf2	-14
51	0x35	53
52	0xd0	-48
53	0x1c	28
54	0x81	-127
55	0xb0	-80
56	0x8e	-114
57	0x9f	-97
58	0x3a	58
59	0x38	56
60	0x27	39
61	0xc4	-60
62	0x71	113
63	0x53	83
64	0x8a	-118
65	0xea	-22
66	0xac	-84
67	0xe6	-26
68	0x82	-126
69	0x37	55
70	0xc0	-64
71	0xe0	-32
72	0xa7	-89
73	0x3e	62
74	0x97	-105
75	0x4d	77
76	0xd7	-41
77	0xb3	-77
78	0x66	102
79	0x1e	30
80	0x53	83
81	0x2e	46
82	0xb1	-79
83	0x3d	61
84	0xdb	-37
85	0x82	-126
86	0xd2	-46
87	0x31	49
88	0x24	36
89	0xcc	-52
90	0xe9	-23
91	0xcf	-49
92	0xaa	-86
93	0xb9	-71
94	0xbc	-68
95	0x56	86
96	0xeb	-21
97	0x9d	-99
98	0xab	-85
99	0xd4	-44
100	0x87	-121
101	0xd5	-43
102	0x81	-127
103	0x35	53
104	0x2c	44
105	0x29	41
106	0x53	83
107	0x10	16

model/quant_conv1/Conv2D;model/quant_conv1/LastValueQuant/FakeQuantWithMinMaxVarsPerChannel i1 [4, 3, 3, 3]
0	0x55	85
1	0xbd	-67
2	0x6e	110
3	0x76	118
4	0xc9	-55
5	0xc1	-63
6	0x7f	127
7	0x89	-119
8	0xa4	-92
9	0xa0	-96
10	0xe9	-23
11	0xfb	-5
12	0x42	66
13	0xfd	-3
14	0x3e	62
15	0xd0	-48
16	0x1f	31
17	0x4a	74
18	0x65	101
19	0x4f	79
20	0xc3	-61
21	0xdc	-36
22	0x1f	31
23	0x72	114
24	0x36	54
25	0x05	5
26	0x27	39
27	0x14	20
28	0xda	-38
29	0x3b	59
30	0xdf	-33
31	0xea	-22
32	0xe3	-29
33	0x57	87
34	0xb8	-72
35	0x2c	44
36	0x1b	27
37	0x8b	-117
38	0x83	-125
39	0x4b	75
40	0xb4	-76
41	0xd9	-39
42	0x2b	43
43	0x86	-122
44	0xa7	-89
45	0xdd	-35
46	0xa7	-89
47	0xbf	-65
48	0xcc	-52
49	0x16	22
50	0x8f	-113
51	0xfa	-6
52	0x35	53
53	0x81	-127
54	0x05	5
55	0x3e	62
56	0x34	52
57	0xf3	-13
58	0x67	103
59	0x52	82
60	0x0a	10
61	0x40	64
62	0x35	53
63	0x64	100
64	0x7f	127
65	0xd9	-39
66	0x4e	78
67	0x78	120
68	0x0c	12
69	0x05	5
70	0x64	100
71	0x30	48
72	0x42	66
73	0x61	97
74	0xdc	-36
75	0xe5	-27
76	0x66	102
77	0x3a	58
78	0x28	40
79	0x45	69
80	0x3d	61
81	0xb2	-78
82	0xdf	-33
83	0x70	112
84	0x05	5
85	0x3d	61
86	0xe5	-27
87	0x2e	46
88	0x1c	28
89	0x73	115
90	0xf7	-9
91	0x01	1
92	0x75	117
93	0x05	5
94	0xe9	-23
95	0x20	32
96	0xbc	-68
97	0xe1	-31
98	0x31	49
99	0xf4	-12
100	0x2b	43
101	0x7f	127
102	0x1f	31
103	0x24	36
104	0x7f	127
105	0xc1	-63
106	0xa1	-95
107	0x37	55

model/quant_conv3/Conv2D;model/quant_conv3/LastValueQuant/FakeQuantWithMinMaxVarsPerChannel i1 [4, 2, 2, 4]
0	0x64	100
1	0xea	-22
2	0xdc	-36
3	0xff	-1
4	0xda	-38
5	0x1a	26
6	0x0f	15
7	0x7f	127
8	0xe5	-27
9	0x0f	15
10	0x35	53
11	0x66	102
12	0x70	112
13	0xd7	-41
14	0xd7	-41
15	0x71	113
16	0x76	118
17	0xb7	-73
18	0xc3	-61
19	0x3c	60
20	0x6d	109
21	0x02	2
22	0xea	-22
23	0x27	39
24	0x7f	127
25	0x2f	47
26	0x82	-126
27	0x22	34
28	0xd8	-40
29	0xed	-19
30	0xec	-20
31	0xf6	-10
32	0x81	-127
33	0x5a	90
34	0x86	-122
35	0xc9	-55
36	0xba	-70
37	0xe0	-32
38	0xd3	-45
39	0x45	69
40	0x31	49
41	0x3c	60
42	0xaf	-81
43	0x71	113
44	0xf2	-14
45	0x08	8
46	0x2f	47
47	0x81	-127
48	0x04	4
49	0x40	64
50	0x7f	127
51	0xef	-17
52	0xaf	-81
53	0x47	71
54	0x30	48
55	0x1d	29
56	0xb8	-72
57	0xa5	-91
58	0x63	99
59	0xe2	-30
60	0xfb	-5
61	0x1c	28
62	0x10	16
63	0xe6	-26

model/quant_dense/MatMul;model/quant_dense/LastValueQuant/FakeQuantWithMinMaxVars i1 [3, 8] scale=0.008084844 zero_point=0
0	0x15	0.16978171
1	0x5a	0.7276359
2	0xcc	-0.42041188
3	0x19	0.2021211
4	0x35	0.42849672
5	0x29	0.3314786
6	0x53	0.671042
7	0x93	-0.881248
8	0xe8	-0.19403625
9	0xff	-0.008084844
10	0xb9	-0.5740239
11	0xdc	-0.29105437
12	0xdd	-0.28296953
13	0xd6	-0.33956343
14	0x23	0.28296953
15	0x7f	1.0267751
16	0x64	0.8084844
17	0x93	-0.881248
18	0x39	0.4608361
19	0x0d	0.10510297
20	0x1f	0.25063017
21	0xc0	-0.51743
22	0xdf	-0.26679984
23	0xff	-0.008084844
