model/add_test.tflite (tflite, 5824 bytes, 4 tensors)

model/quant_conv2/Conv2D;model/quant_conv2/LastValueQuant/FakeQuantWithMinMaxVarsPerChannel i1 [4, 3, 3, 3]
000000 7f 79 73 6d 68 62 5c 56 50 4a 45 3f 39 33 2d 27
       127 121 115 109 104 98 92 86 80 74 69 63 57 51 45 39
000010 22 1c 16 10 0a 04 ff f9 f3 ed e7 7f 79 73 6d 67
       34 28 22 16 10 4 -1 -7 -13 -19 -25 127 121 115 109 103
000020 61 5b 56 50 4a 44 3e 38 32 2c 26 20 1b 15 0f 09
       97 91 86 80 74 68 62 56 50 44 38 32 27 21 15 9
000030 03 fd f7 f1 eb e5 7f 79 73 6d 67 61 5b 55 4f 49
       3 -3 -9 -15 -21 -27 127 121 115 109 103 97 91 85 79 73
000040 43 3d 37 31 2b 25 1f 19 13 0d 07 02 fc f6 f0 ea
       67 61 55 49 43 37 31 25 19 13 7 2 -4 -10 -16 -22
000050 e4 7f 79 73 6d 67 61 5b 55 4f 49 42 3c 36 30 2a
       -28 127 121 115 109 103 97 91 85 79 73 66 60 54 48 42
000060 24 1e 18 12 0c 06 00 fa f4 ee e8 e2
       36 30 24 18 12 6 0 -6 -12 -18 -24 -30

model/quant_conv1/Conv2D;model/quant_conv1/LastValueQuant/FakeQuantWithMinMaxVarsPerChannel i1 [4, 3, 3, 3]
000000 b1 b9 c1 c9 d0 d8 e0 e8 f0 f8 00 08 10 18 20 28
       -79 -71 -63 -55 -48 -40 -32 -24 -16 -8 0 8 16 24 32 40
000010 30 38 3f 47 4f 57 5f 67 6f 77 7f b4 bc c4 cb d3
       48 56 63 71 79 87 95 103 111 119 127 -76 -68 -60 -53 -45
000020 db e3 eb f2 fa 02 0a 12 19 21 29 31 39 40 48 50
       -37 -29 -21 -14 -6 2 10 18 25 33 41 49 57 64 72 80
000030 58 60 67 6f 77 7f b7 bf c6 ce d6 dd e5 ed f4 fc
       88 96 103 111 119 127 -73 -65 -58 -50 -42 -35 -27 -19 -12 -4
000040 04 0c 13 1b 23 2a 32 3a 41 49 51 58 60 68 6f 77
       4 12 19 27 35 42 50 58 65 73 81 88 96 104 111 119
000050 7f ba c2 c9 d1 d8 e0 e7 ef f7 fe 06 0d 15 1d 24
       127 -70 -62 -55 -47 -40 -32 -25 -17 -9 -2 6 13 21 29 36
000060 2c 33 3b 42 4a 52 59 61 68 70 77 7f
       44 51 59 66 74 82 89 97 104 112 119 127

model/quant_conv3/Conv2D;model/quant_conv3/LastValueQuant/FakeQuantWithMinMaxVarsPerChannel i1 [4, 2, 2, 4]
000000 7f 74 69 5e 52 47 3c 31 26 1a 0f 04 f9 ed e2 d7
       127 116 105 94 82 71 60 49 38 26 15 4 -7 -19 -30 -41
000010 7f 73 67 5b 4d 42 36 2a 1f 13 07 fc f0 e4 d8 cc
       127 115 103 91 77 66 54 42 31 19 7 -4 -16 -28 -40 -52
000020 7e 72 65 59 4c 3f 33 26 19 0d 00 f4 e7 da ce c1
       126 114 101 89 76 63 51 38 25 13 0 -12 -25 -38 -50 -63
000030 7e 71 65 58 4b 3e 31 24 17 0a fd f0 e3 d6 c9 bc
       126 113 101 88 75 62 49 36 23 10 -3 -16 -29 -42 -55 -68

model/quant_dense/MatMul;model/quant_dense/LastValueQuant/FakeQuantWithMinMaxVars i1 [3, 8] scale=0.09448819 zero_point=0
000000 81 a1 c1 e0 00 20 40 5f 8c ab cb eb 0b 2a 4a 6a
       -12.0 -8.9763775 -5.952756 -3.023622 0.0 3.023622 6.047244 8.9763775 -10.960629 -8.031496 -5.007874 -1.984252 1.0393701 3.968504 6.992126 10.015748
000010 96 b6 d6 f5 15 35 55 74
       -10.015748 -6.992126 -3.968504 -1.0393701 1.984252 5.007874 8.031496 10.960629
