model/tflite_ep3_2023-07-02_13-26-55.tflite (tflite, 118768 bytes, 4 tensors)

model/quant_conv2d/Conv2D;model/quant_conv2d/LastValueQuant/FakeQuantWithMinMaxVarsPerChannel i1 [32, 5, 5, 1]
000000 df 07 2d bc 81 b3 03 38 12 b0 06 29 e8 ea 23 32
       -33 7 45 -68 -127 -77 3 56 18 -80 6 41 -24 -22 35 50
000010 ec 01 e6 ff 2d 12 f2 02 0b e4 81 d2 5c 22 0b 8e
       -20 1 -26 -1 45 18 -14 2 11 -28 -127 -46 92 34 11 -114
000020 10 3b 33 3d 00 24 da 15 2b f4 2c ef cf 0e ff 02
       16 59 51 61 0 36 -38 21 43 -12 44 -17 -49 14 -1 2
000030 e7 d8 3c 47 f0 2d 1c 34 02 e8 1c ea 07 2b e5 f2
       -25 -40 60 71 -16 45 28 52 2 -24 28 -22 7 43 -27 -14
000040 fd 2d 23 bf 22 f7 0c 35 12 d4 81 f4 3e 34 b3 81
       -3 45 35 -65 34 -9 12 53 18 -44 -127 -12 62 52 -77 -127
000050 f3 63 3f fe 83 08 5c d7 0e e7 4a f8 ef 0f 08 33
       -13 99 63 -2 -125 8 92 -41 14 -25 74 -8 -17 15 8 51
000060 fe ec e2 cd 18 f0 3b e5 13 dc 16 ee 05 2f 13 ca
       -2 -20 -30 -51 24 -16 59 -27 19 -36 22 -18 5 47 19 -54
000070 d3 31 2a b0 a2 33 7f ef 98 f2 27 3c fc df fb 2d
       -45 49 42 -80 -94 51 127 -17 -104 -14 39 60 -4 -33 -5 45
000080 94 1a 07 81 fb 05 2b 20 28 58 b5 c3 5a 11 88 aa
       -108 26 7 -127 -5 5 43 32 40 88 -75 -61 90 17 -120 -86
000090 43 5b 28 37 bf 5e 0e 2f 4f 90 fa f1 09 7f a0 db
       67 91 40 55 -65 94 14 47 79 -112 -6 -15 9 127 -96 -37
0000a0 fb e9 38 a4 32 0f 15 59 a8 ee d1 05 4c f4 ed b0
       -5 -23 56 -92 50 15 21 89 -88 -18 -47 5 76 -12 -19 -80
0000b0 a9 4c 26 43 cd a1 41 1f 39 21 81 42 f0 3e b9 a7
       -87 76 38 67 -51 -95 65 31 57 33 -127 66 -16 62 -71 -89
0000c0 30 11 75 0a b0 a4 d3 fd fd fd 51 45 71 1b 3e 46
       48 17 117 10 -80 -92 -45 -3 -3 -3 81 69 113 27 62 70
0000d0 17 1b 17 35 17 c6 e2 0c e3 12 c1 c4 ea dc a4 81
       23 27 23 53 23 -58 -30 12 -29 18 -63 -60 -22 -36 -92 -127
0000e0 e1 c2 17 28 03 09 d0 17 2a e1 d1 db 6e f2 18 14
       -31 -62 23 40 3 9 -48 23 42 -31 -47 -37 110 -14 24 20
0000f0 8c 74 db ea f3 81 6e 11 07 12 ef 9d e0 f6 10 a9
       -116 116 -37 -22 -13 -127 110 17 7 18 -17 -99 -32 -10 16 -87

model/quant_conv2d_1/Conv2D;model/quant_conv2d_1/LastValueQuant/FakeQuantWithMinMaxVarsPerChannel i1 [64, 5, 5, 32]
000000 ef ee f0 06 ec 06 0f cd 15 15 0b cc ef ec 47 e8
       -17 -18 -16 6 -20 6 15 -51 21 21 11 -52 -17 -20 71 -24
000010 d4 13 f6 cd 07 01 d0 11 ed f2 ed b1 fc dc f5 f5
       -44 19 -10 -51 7 1 -48 17 -19 -14 -19 -79 -4 -36 -11 -11
000020 d7 d5 01 c1 da 05 b0 fd 0a cd 1c c1 f0 15 5f f4
       -41 -43 1 -63 -38 5 -80 -3 10 -51 28 -63 -16 21 95 -12
000030 e5 1e dc 16 d0 cd 2b e6 cd 2e e9 f8 f1 fb 05 be
       -27 30 -36 22 -48 -51 43 -26 -51 46 -23 -8 -15 -5 5 -66
000040 dd f4 e3 f8 fe e1 38 f7 ff d9 34 f6 e5 01 19 34
       -35 -12 -29 -8 -2 -31 56 -9 -1 -39 52 -10 -27 1 25 52
000050 f1 02 03 12 1f 17 04 c2 a8 08 e5 ee d0 0d 31 c9
       -15 2 3 18 31 23 4 -62 -88 8 -27 -18 -48 13 49 -55
000060 01 f4 0a 1f f8 0b 11 11 0c 04 03 ff ee 09 14 cf
       1 -12 10 31 -8 11 17 17 12 4 3 -1 -18 9 20 -49
000070 ed 04 e9 20 f3 e2 18 18 07 10 fc 01 31 08 06 de
       -19 4 -23 32 -13 -30 24 24 7 16 -4 1 49 8 6 -34
000080 f9 fb fa e0 1b b0 fc f9 01 f0 d0 29 fc 0c 2a 0d
       -7 -5 -6 -32 27 -80 -4 -7 1 -16 -48 41 -4 12 42 13
000090 f5 12 e3 02 06 01 c7 e6 ed f6 e3 e7 d6 fa 0e 0e
       -11 18 -29 2 6 1 -57 -26 -19 -10 -29 -25 -42 -6 14 14
0000a0 09 04 e8 0a ef f5 1d c0 18 11 fe ed e5 e5 4d dc
       9 4 -24 10 -17 -11 29 -64 24 17 -2 -19 -27 -27 77 -36
0000b0 e2 fa ea c5 fc 10 d9 20 dc 08 cd a5 f6 e5 02 e1
       -30 -6 -22 -59 -4 16 -39 32 -36 8 -51 -91 -10 -27 2 -31
0000c0 e6 c9 f2 de 04 1e 88 ed 11 b5 21 eb fe 1a 50 04
       -26 -55 -14 -34 4 30 -120 -19 17 -75 33 -21 -2 26 80 4
0000d0 07 1a 06 12 9e e5 0e 2c 06 2e ca 08 1a ef 0d f9
       7 26 6 18 -98 -27 14 44 6 46 -54 8 26 -17 13 -7
0000e0 cf 00 da ce f9 e8 41 f4 17 10 44 0f fb f6 50 02
       -49 0 -38 -50 -7 -24 65 -12 23 16 68 15 -5 -10 80 2
0000f0 f8 36 11 e7 22 14 03 d5 f7 1f cb e0 b4 e4 22 06
       -8 54 17 -25 34 20 3 -43 -9 31 -53 -32 -76 -28 34 6

model/quant_conv2d_2/Conv2D;model/quant_conv2d_2/LastValueQuant/FakeQuantWithMinMaxVarsPerChannel i1 [96, 3, 3, 64]
000000 45 ea e6 31 f9 46 a8 96 f2 c5 ab b3 ee 30 e4 c8
       69 -22 -26 49 -7 70 -88 -106 -14 -59 -85 -77 -18 48 -28 -56
000010 d2 c8 ad 1a fb c6 1e 01 dd a6 87 b4 ee 21 d0 a7
       -46 -56 -83 26 -5 -58 30 1 -35 -90 -121 -76 -18 33 -48 -89
000020 50 c1 13 bb f1 ca c9 9e a0 ec cf 25 d7 eb c0 85
       80 -63 19 -69 -15 -54 -55 -98 -96 -20 -49 37 -41 -21 -64 -123
000030 93 3e dd d6 47 b0 ee e7 17 f7 95 48 1f 11 1f e8
       -109 62 -35 -42 71 -80 -18 -25 23 -9 -107 72 31 17 31 -24
000040 33 b1 d1 c5 c1 ae ad ab 33 b3 fc d0 bd f1 48 13
       51 -79 -47 -59 -63 -82 -83 -85 51 -77 -4 -48 -67 -15 72 19
000050 04 50 00 e0 e6 fb fb df 0e da e3 1d c1 fb d1 ba
       4 80 0 -32 -26 -5 -5 -33 14 -38 -29 29 -63 -5 -47 -70
000060 d2 ec bf 1f f2 cf 8e a3 97 c4 39 e5 94 bd ed c5
       -46 -20 -65 31 -14 -49 -114 -93 -105 -60 57 -27 -108 -67 -19 -59
000070 e1 91 d6 c7 e8 0b d4 da af 97 bc 39 0f 8a f3 b6
       -31 -111 -42 -57 -24 11 -44 -38 -81 -105 -68 57 15 -118 -13 -74
000080 fe 1b d1 a7 41 b9 e2 1f ac 38 ff d6 e5 3c cd e3
       -2 27 -47 -89 65 -71 -30 31 -84 56 -1 -42 -27 60 -51 -29
000090 c8 18 e7 11 0f 31 a6 d5 bc 12 b6 bb c7 e7 25 e0
       -56 24 -25 17 15 49 -90 -43 -68 18 -74 -69 -57 -25 37 -32
0000a0 1c 8c be cc 1f 2b a4 08 db 0e 01 bf f4 23 2b d4
       28 -116 -66 -52 31 43 -92 8 -37 14 1 -65 -12 35 43 -44
0000b0 f5 a0 9f c5 ca 9d 9e e8 18 34 ec a7 b5 fd 40 b7
       -11 -96 -97 -59 -54 -99 -98 -24 24 52 -20 -89 -75 -3 64 -73
0000c0 02 9d 2f 33 fa f2 a7 29 9e 1d 1e e8 b9 de 3a bb
       2 -99 47 51 -6 -14 -89 41 -98 29 30 -24 -71 -34 58 -69
0000d0 08 08 28 0b 3c c0 b9 4a c8 fd 18 9e 15 2f 2f 9d
       8 8 40 11 60 -64 -71 74 -56 -3 24 -98 21 47 47 -99
0000e0 2f 20 2c 15 94 cd f0 c0 f0 d7 df f9 9a 04 1e 96
       47 32 44 21 -108 -51 -16 -64 -16 -41 -33 -7 -102 4 30 -106
0000f0 f0 cd 05 0e e0 a7 27 3a 21 ba e2 fc 1e 37 f3 29
       -16 -51 5 14 -32 -89 39 58 33 -70 -30 -4 30 55 -13 41

model/quant_dense_last/MatMul;model/quant_dense_last/LastValueQuant/FakeQuantWithMinMaxVars i1 [10, 96] scale=0.01034793 zero_point=0
000000 04 01 fb 07 f9 f6 eb 15 ed f8 ff fc e1 f3 fc 0b
       0.04139172 0.01034793 -0.051739648 0.072435506 -0.072435506 -0.103479296 -0.21730652 0.21730652 -0.19661066 -0.08278344 -0.01034793 -0.04139172 -0.32078582 -0.1345231 -0.04139172 0.11382723
000010 0e 06 d8 f4 e7 ee 0a 06 fe e5 15 0f ca e8 14 d3
       0.14487101 0.06208758 -0.41391718 -0.12417516 -0.25869825 -0.18626274 0.103479296 0.06208758 -0.02069586 -0.2793941 0.21730652 0.15521894 -0.5587882 -0.24835032 0.20695859 -0.46565685
000020 14 0b 0b fd 0c f8 00 12 fa 0d ff 0d 06 f6 0c 1d
       0.20695859 0.11382723 0.11382723 -0.03104379 0.12417516 -0.08278344 0.0 0.18626274 -0.06208758 0.1345231 -0.01034793 0.1345231 0.06208758 -0.103479296 0.12417516 0.30008996
000030 05 ff fa fa f4 0d e2 e6 f8 06 14 06 eb e5 21 0f
       0.051739648 -0.01034793 -0.06208758 -0.06208758 -0.12417516 0.1345231 -0.3104379 -0.2690462 -0.08278344 0.06208758 0.20695859 0.06208758 -0.21730652 -0.2793941 0.3414817 0.15521894
000040 da f2 00 1f f9 e4 0a 16 0e 0f f5 07 e9 e6 f0 13
       -0.39322132 -0.14487101 0.0 0.32078582 -0.072435506 -0.28974202 0.103479296 0.22765446 0.14487101 0.15521894 -0.11382723 0.072435506 -0.23800239 -0.2690462 -0.16556688 0.19661066
000050 06 1c 1a 0c 09 25 06 e3 e6 f0 d2 f1 fc 06 ed 0a
       0.06208758 0.28974202 0.2690462 0.12417516 0.09313137 0.38287342 0.06208758 -0.30008996 -0.2690462 -0.16556688 -0.47600478 -0.15521894 -0.04139172 0.06208758 -0.19661066 0.103479296
000060 f8 f4 1b 1e f1 b6 bc f2 10 c1 17 16 de f0 1f e6
       -0.08278344 -0.12417516 0.2793941 0.3104379 -0.15521894 -0.76574683 -0.70365924 -0.14487101 0.16556688 -0.6519196 0.23800239 0.22765446 -0.35182962 -0.16556688 0.32078582 -0.2690462
000070 2e e3 26 eb c6 e7 03 b3 ec e9 d5 15 04 f2 f7 21
       0.47600478 -0.30008996 0.39322132 -0.21730652 -0.6001799 -0.25869825 0.03104379 -0.7967906 -0.20695859 -0.23800239 -0.44496098 0.21730652 0.04139172 -0.14487101 -0.09313137 0.3414817
000080 e8 bf 0f 29 10 d7 bc f9 0f e5 fd f6 de e9 fc ec
       -0.24835032 -0.6726154 0.15521894 0.42426512 0.16556688 -0.42426512 -0.70365924 -0.072435506 0.15521894 -0.2793941 -0.03104379 -0.103479296 -0.35182962 -0.23800239 -0.04139172 -0.20695859
000090 0b 1b f9 c4 19 11 f8 0b 0b 29 2c 02 dd e2 02 ef
       0.11382723 0.2793941 -0.072435506 -0.6208758 0.25869825 0.17591481 -0.08278344 0.11382723 0.11382723 0.42426512 0.4553089 0.02069586 -0.36217755 -0.3104379 0.02069586 -0.17591481
0000a0 fe d7 09 ea 04 10 f5 ef 0e d5 0b ee c8 21 1f ec
       -0.02069586 -0.42426512 0.09313137 -0.22765446 0.04139172 0.16556688 -0.11382723 -0.17591481 0.14487101 -0.44496098 0.11382723 -0.18626274 -0.57948405 0.3414817 0.32078582 -0.20695859
0000b0 01 e6 fe 11 c9 0c cf dd 0d ec eb dc 18 fd f0 bd
       0.01034793 -0.2690462 -0.02069586 0.17591481 -0.56913614 0.12417516 -0.50704855 -0.36217755 0.1345231 -0.20695859 -0.21730652 -0.37252548 0.24835032 -0.03104379 -0.16556688 -0.6933113
0000c0 08 05 ef f6 1c 0b 08 e9 0f 00 00 f2 e1 ea d1 e3
       0.08278344 0.051739648 -0.17591481 -0.103479296 0.28974202 0.11382723 0.08278344 -0.23800239 0.15521894 0.0 0.0 -0.14487101 -0.32078582 -0.22765446 -0.4863527 -0.30008996
0000d0 e7 12 15 d7 15 fa f0 0c e0 07 04 09 12 fe 20 0a
       -0.25869825 0.18626274 0.21730652 -0.42426512 0.21730652 -0.06208758 -0.16556688 0.12417516 -0.33113375 0.072435506 0.04139172 0.09313137 0.18626274 -0.02069586 0.33113375 0.103479296
0000e0 fa f7 15 f9 eb 14 d4 fd fa 1a 1d eb 12 08 e0 ee
       -0.06208758 -0.09313137 0.21730652 -0.072435506 -0.21730652 0.20695859 -0.4553089 -0.03104379 -0.06208758 0.2690462 0.30008996 -0.21730652 0.18626274 0.08278344 -0.33113375 -0.18626274
0000f0 fe 06 f7 0d e9 13 1e ee df 0a 04 24 12 1d ee fa
       -0.02069586 0.06208758 -0.09313137 0.1345231 -0.23800239 0.19661066 0.3104379 -0.18626274 -0.3414817 0.103479296 0.04139172 0.37252548 0.18626274 0.30008996 -0.18626274 -0.06208758
