model/tflite_ep2_2023-07-02_13-24-04.tflite (tflite, 118768 bytes, 4 tensors)

model/quant_conv2d/Conv2D;model/quant_conv2d/LastValueQuant/FakeQuantWithMinMaxVarsPerChannel i1 [32, 5, 5, 1]
00000000: de0a 28bf 81b9 0333 15b6 0625 e7ee 212c
00000010: eafe e6fd 270f f003 0ce2 81d2 5b24 0a8d
00000020: 0f3d 363c 0323 dc16 2cf2 28f0 cf10 ffff
00000030: e7d6 424c f031 2238 05ea 21ed 0930 e4f2
00000040: 012f 27bb 23f8 0b39 11d5 81f2 4235 b881
00000050: f165 3c01 8208 5ed7 11e6 4bf7 f012 0736
00000060: ffe9 e3cc 19ee 36e0 0dd7 14eb 032c 12c5
00000070: d22d 28ae a034 7feb 97ee 263a f8da 012e
00000080: 9321 0581 fc05 341d 295c b2c7 5d16 86a5
00000090: 4b60 2e40 b760 0d30 4e92 fcef 097f a2db
000000a0: faea 36a6 3210 1659 a9ed d303 4bf4 ebab
000000b0: a24a 2544 c58f 4624 3328 814c f83f b99d
000000c0: 3418 7909 ab9f d8f7 fdfe 5447 711d 3d47
000000d0: 181c 1b34 1bc7 e210 e210 c1c5 ecdc a381
000000e0: e5c6 162c 070c d418 29df d1df 72f1 1717
000000f0: 8e75 dcec f881 7210 0414 ef9d e1f6 10a8
-34 10 40 -65 -127 -71 3 51
21 -74 6 37 -25 -18 33 44
-22 -2 -26 -3 39 15 -16 3
12 -30 -127 -46 91 36 10 -115
15 61 54 60 3 35 -36 22
44 -14 40 -16 -49 16 -1 -1
-25 -42 66 76 -16 49 34 56
5 -22 33 -19 9 48 -28 -14
1 47 39 -69 35 -8 11 57
17 -43 -127 -14 66 53 -72 -127
-15 101 60 1 -126 8 94 -41
17 -26 75 -9 -16 18 7 54
-1 -23 -29 -52 25 -18 54 -32
13 -41 20 -21 3 44 18 -59
-46 45 40 -82 -96 52 127 -21
-105 -18 38 58 -8 -38 1 46
-109 33 5 -127 -4 5 52 29
41 92 -78 -57 93 22 -122 -91
75 96 46 64 -73 96 13 48
78 -110 -4 -17 9 127 -94 -37
-6 -22 54 -90 50 16 22 89
-87 -19 -45 3 75 -12 -21 -85
-94 74 37 68 -59 -113 70 36
51 40 -127 76 -8 63 -71 -99
52 24 121 9 -85 -97 -40 -9
-3 -2 84 71 113 29 61 71
24 28 27 52 27 -57 -30 16
-30 16 -63 -59 -20 -36 -93 -127
-27 -58 22 44 7 12 -44 24
41 -33 -47 -33 114 -15 23 23
-114 117 -36 -20 -8 -127 114 16
4 20 -17 -99 -31 -10 16 -88

model/quant_conv2d_1/Conv2D;model/quant_conv2d_1/LastValueQuant/FakeQuantWithMinMaxVarsPerChannel i1 [64, 5, 5, 32]
00000000: f5ef e704 eb00 0cd2 0f11 09d6 f0eb 40e7
00000010: dc0a f7cd 02ff d20a f9ec ebb8 fed8 f3fb
00000020: dcd5 fbbf d9fe b3fb 05c9 19c0 f110 54ed
00000030: ef13 df12 cecb 23e6 d328 e4f5 eff5 fbc6
00000040: e4f9 e0f8 fee2 2efa ffd9 31f4 e601 152e
00000050: f2fa 040d 1f15 fac5 af02 e4f1 cc09 26cf
00000060: 05f2 0420 f90b 1511 0a03 03ff fa09 10d6
00000070: f101 ea1b f1e2 1514 070d fa01 2c04 07e5
00000080: f800 f6e1 17bd fbf8 fbf4 d926 0008 2807
00000090: f60b e4fe 0904 ccec ecf2 e2e5 def2 070c
000000a0: 0a05 e308 edf1 14c6 140b fbf5 e5e8 4ad6
000000b0: e1fb e8cd f901 d61a e105 d1ad f8e7 02e3
000000c0: e0c9 ede0 0218 8eec 10b3 1fe8 fe18 4c01
000000d0: 0417 040b a1e9 052b 042a cd05 13ef 0af5
000000e0: d807 dad2 f9ea 3bf5 170c 3e0c fcf9 4dfd
000000f0: f633 0ee7 2211 ffd9 f21d cce2 bce7 1d03
-11 -17 -25 4 -21 0 12 -46
15 17 9 -42 -16 -21 64 -25
-36 10 -9 -51 2 -1 -46 10
-7 -20 -21 -72 -2 -40 -13 -5
-36 -43 -5 -65 -39 -2 -77 -5
5 -55 25 -64 -15 16 84 -19
-17 19 -33 18 -50 -53 35 -26
-45 40 -28 -11 -17 -11 -5 -58
-28 -7 -32 -8 -2 -30 46 -6
-1 -39 49 -12 -26 1 21 46
-14 -6 4 13 31 21 -6 -59
-81 2 -28 -15 -52 9 38 -49
5 -14 4 32 -7 11 21 17
10 3 3 -1 -6 9 16 -42
-15 1 -22 27 -15 -30 21 20
7 13 -6 1 44 4 7 -27
-8 0 -10 -31 23 -67 -5 -8
-5 -12 -39 38 0 8 40 7
-10 11 -28 -2 9 4 -52 -20
-20 -14 -30 -27 -34 -14 7 12
10 5 -29 8 -19 -15 20 -58
20 11 -5 -11 -27 -24 74 -42
-31 -5 -24 -51 -7 1 -42 26
-31 5 -47 -83 -8 -25 2 -29
-32 -55 -19 -32 2 24 -114 -20
16 -77 31 -24 -2 24 76 1
4 23 4 11 -95 -23 5 43
4 42 -51 5 19 -17 10 -11
-40 7 -38 -46 -7 -22 59 -11
23 12 62 12 -4 -7 77 -3
-10 51 14 -25 34 17 -1 -39
-14 29 -52 -30 -68 -25 29 3

model/quant_conv2d_2/Conv2D;model/quant_conv2d_2/LastValueQuant/FakeQuantWithMinMaxVarsPerChannel i1 [96, 3, 3, 64]
00000000: 45ea e631 f946 a896 f2c5 abb3 ee30 e4c8
00000010: d2c8 ad1a fbc6 1e01 dda6 87b4 ee21 d0a7
00000020: 50c1 13bb f1ca c99e a0ec cf25 d7eb c085
00000030: 933e ddd6 47b0 eee7 17f7 9548 1f11 1fe8
00000040: 33b1 d1c5 c1ae adab 33b3 fcd0 bdf1 4813
00000050: 0450 00e0 e6fb fbdf 0eda e31d c1fb d1ba
00000060: d2ec bf1f f2cf 8ea3 97c4 39e5 94bd edc5
00000070: e191 d6c7 e80b d4da af97 bc39 0f8a f3b6
00000080: fe1b d1a7 41b9 e21f ac38 ffd6 e53c cde3
00000090: c818 e711 0f31 a6d5 bc12 b6bb c7e7 25e0
000000a0: 1c8c becc 1f2b a408 db0e 01bf f423 2bd4
000000b0: f5a0 9fc5 ca9d 9ee8 1834 eca7 b5fd 40b7
000000c0: 029d 2f33 faf2 a729 9e1d 1ee8 b9de 3abb
000000d0: 0808 280b 3cc0 b94a c8fd 189e 152f 2f9d
000000e0: 2f20 2c15 94cd f0c0 f0d7 dff9 9a04 1e96
000000f0: f0cd 050e e0a7 273a 21ba e2fc 1e37 f329
69 -22 -26 49 -7 70 -88 -106
-14 -59 -85 -77 -18 48 -28 -56
-46 -56 -83 26 -5 -58 30 1
-35 -90 -121 -76 -18 33 -48 -89
80 -63 19 -69 -15 -54 -55 -98
-96 -20 -49 37 -41 -21 -64 -123
-109 62 -35 -42 71 -80 -18 -25
23 -9 -107 72 31 17 31 -24
51 -79 -47 -59 -63 -82 -83 -85
51 -77 -4 -48 -67 -15 72 19
4 80 0 -32 -26 -5 -5 -33
14 -38 -29 29 -63 -5 -47 -70
-46 -20 -65 31 -14 -49 -114 -93
-105 -60 57 -27 -108 -67 -19 -59
-31 -111 -42 -57 -24 11 -44 -38
-81 -105 -68 57 15 -118 -13 -74
-2 27 -47 -89 65 -71 -30 31
-84 56 -1 -42 -27 60 -51 -29
-56 24 -25 17 15 49 -90 -43
-68 18 -74 -69 -57 -25 37 -32
28 -116 -66 -52 31 43 -92 8
-37 14 1 -65 -12 35 43 -44
-11 -96 -97 -59 -54 -99 -98 -24
24 52 -20 -89 -75 -3 64 -73
2 -99 47 51 -6 -14 -89 41
-98 29 30 -24 -71 -34 58 -69
8 8 40 11 60 -64 -71 74
-56 -3 24 -98 21 47 47 -99
47 32 44 21 -108 -51 -16 -64
-16 -41 -33 -7 -102 4 30 -106
-16 -51 5 14 -32 -89 39 58
33 -70 -30 -4 30 55 -13 41

model/quant_dense_last/MatMul;model/quant_dense_last/LastValueQuant/FakeQuantWithMinMaxVars i1 [10, 96] scale=0.010524376 zero_point=0
00000000: 0401 fb06 faf6 ed14 eef8 fffb e2f3 f90b
00000010: 0e05 dbf4 e8ef 0a08 fde6 120f cfe9 15d3
00000020: 140b 0bff 0bf7 0112 fa0c fe0d 07f6 0c1b
00000030: 04fe fcfa f40d e2e8 f904 1206 ede7 200f
00000040: dbf3 001f f9e6 0915 0d0d f607 e9e7 f212
00000050: 061b 190c 0823 06e6 ecf1 d6ec ff06 ee0a
00000060: f8f4 1b1c f0ba bff4 10c4 1817 dff0 1ee8
00000070: 2ce5 23ec c7e8 02b4 e9ea d815 06f4 f920
00000080: e6c2 0f28 10d9 bcf9 0fe6 fef6 dfea fde8
00000090: 0d1b f9ca 1811 f70b 0b27 2b03 dee1 05f2
000000a0: feda 09ea 040f f8ef 0dd3 09ee c921 1fed
000000b0: 03e7 fe11 cc0a d2dc 0dec ecdf 19fd f0bf
000000c0: 0805 edf8 1b0c 06e9 0e00 01ef e1ea d8e4
000000d0: e912 13d9 14fa f00b e006 0508 11fe 200a
000000e0: fbf7 15f7 eb13 d5fd fa1a 1cec 1307 e0f0
000000f0: ff05 f70d eb13 1dee e10b 0121 111c effb
0.042097505 0.010524376 -0.052621882 0.063146256 -0.063146256 -0.105243765 -0.19996315 0.21048753
-0.18943878 -0.08419501 -0.010524376 -0.052621882 -0.3157313 -0.13681689 -0.07367063 0.11576814
0.14734127 0.052621882 -0.3894019 -0.12629251 -0.25258502 -0.1789144 0.105243765 0.08419501
-0.031573128 -0.27363378 0.18943878 0.15786564 -0.51569444 -0.24206066 0.2210119 -0.47359693
0.21048753 0.11576814 0.11576814 -0.010524376 0.11576814 -0.09471939 0.010524376 0.18943878
-0.063146256 0.12629251 -0.021048753 0.13681689 0.07367063 -0.105243765 0.12629251 0.28415817
0.042097505 -0.021048753 -0.042097505 -0.063146256 -0.12629251 0.13681689 -0.3157313 -0.25258502
-0.07367063 0.042097505 0.18943878 0.063146256 -0.19996315 -0.26310942 0.33678004 0.15786564
-0.3894019 -0.13681689 0.0 0.32625568 -0.07367063 -0.27363378 0.09471939 0.2210119
0.13681689 0.13681689 -0.105243765 0.07367063 -0.24206066 -0.26310942 -0.14734127 0.18943878
0.063146256 0.28415817 0.26310942 0.12629251 0.08419501 0.36835316 0.063146256 -0.27363378
-0.21048753 -0.15786564 -0.4420238 -0.21048753 -0.010524376 0.063146256 -0.18943878 0.105243765
-0.08419501 -0.12629251 0.28415817 0.29468253 -0.16839002 -0.7367063 -0.6840845 -0.12629251
0.16839002 -0.6314626 0.25258502 0.24206066 -0.3473044 -0.16839002 0.3157313 -0.25258502
0.46307257 -0.28415817 0.36835316 -0.21048753 -0.59988946 -0.25258502 0.021048753 -0.7998526
-0.24206066 -0.23153628 -0.42097506 0.2210119 0.063146256 -0.12629251 -0.07367063 0.33678004
-0.27363378 -0.65251136 0.15786564 0.42097506 0.16839002 -0.41045067 -0.7156576 -0.07367063
0.15786564 -0.27363378 -0.021048753 -0.105243765 -0.3473044 -0.23153628 -0.031573128 -0.25258502
0.13681689 0.28415817 -0.07367063 -0.56831634 0.25258502 0.1789144 -0.09471939 0.11576814
0.11576814 0.41045067 0.45254818 0.031573128 -0.3578288 -0.32625568 0.052621882 -0.14734127
-0.021048753 -0.3999263 0.09471939 -0.23153628 0.042097505 0.15786564 -0.08419501 -0.1789144
0.13681689 -0.47359693 0.09471939 -0.18943878 -0.5788407 0.3473044 0.32625568 -0.19996315
0.031573128 -0.26310942 -0.021048753 0.1789144 -0.54726756 0.105243765 -0.48412132 -0.37887755
0.13681689 -0.21048753 -0.21048753 -0.3473044 0.26310942 -0.031573128 -0.16839002 -0.6840845
0.08419501 0.052621882 -0.19996315 -0.08419501 0.28415817 0.12629251 0.063146256 -0.24206066
0.14734127 0.0 0.010524376 -0.1789144 -0.32625568 -0.23153628 -0.42097506 -0.29468253
-0.24206066 0.18943878 0.19996315 -0.41045067 0.21048753 -0.063146256 -0.16839002 0.11576814
-0.33678004 0.063146256 0.052621882 0.08419501 0.1789144 -0.021048753 0.33678004 0.105243765
-0.052621882 -0.09471939 0.2210119 -0.09471939 -0.2210119 0.19996315 -0.45254818 -0.031573128
-0.063146256 0.27363378 0.29468253 -0.21048753 0.19996315 0.07367063 -0.33678004 -0.16839002
-0.010524376 0.052621882 -0.09471939 0.13681689 -0.2210119 0.19996315 0.30520692 -0.18943878
-0.32625568 0.11576814 0.010524376 0.3473044 0.1789144 0.29468253 -0.1789144 -0.052621882
