model/tflite_ep3_2023-07-02_14-38-13.tflite (tflite, 118768 bytes, 4 tensors)

model/quant_conv2d/Conv2D;model/quant_conv2d/LastValueQuant/FakeQuantWithMinMaxVarsPerChannel i1 [32, 5, 5, 1]
0	0xe0	-32
1	0x0c	12
2	0x2c	44
3	0xbe	-66
4	0x81	-127
5	0xb6	-74
6	0x06	6
7	0x36	54
8	0x16	22
9	0xb2	-78
10	0x04	4
11	0x26	38
12	0xe8	-24
13	0xec	-20
14	0x1f	31
15	0x34	52
16	0xed	-19
17	0x01	1
18	0xe9	-23
19	0xfd	-3
20	0x2b	43
21	0x13	19
22	0xf0	-16
23	0x04	4
24	0x08	8
25	0xe5	-27
26	0x81	-127
27	0xd3	-45
28	0x60	96
29	0x26	38
30	0x0a	10
31	0x8d	-115
32	0x10	16
33	0x40	64
34	0x33	51
35	0x3e	62
36	0x01	1
37	0x23	35
38	0xdd	-35
39	0x17	23
40	0x2f	47
41	0xf3	-13
42	0x2b	43
43	0xed	-19
44	0xcd	-51
45	0x11	17
46	0xff	-1
47	0x02	2
48	0xe8	-24
49	0xd8	-40
50	0x40	64
51	0x49	73
52	0xf2	-14
53	0x30	48
54	0x1e	30
55	0x36	54
56	0x05	5
57	0xeb	-21
58	0x20	32
59	0xf0	-16
60	0x08	8
61	0x2e	46
62	0xe6	-26
63	0xf6	-10
64	0x02	2
65	0x2e	46
66	0x24	36
67	0xc1	-63
68	0x26	38
69	0xf8	-8
70	0x08	8
71	0x34	52
72	0x10	16
73	0xd6	-42
74	0x81	-127
75	0xf8	-8
76	0x44	68
77	0x33	51
78	0xb4	-76
79	0x81	-127
80	0xf5	-11
81	0x67	103
82	0x3c	60
83	0x00	0
84	0x85	-123
85	0x07	7
86	0x5e	94
87	0xd5	-43
88	0x11	17
89	0xe5	-27
90	0x4c	76
91	0xfc	-4
92	0xf1	-15
93	0x14	20
94	0x09	9
95	0x33	51
96	0x00	0
97	0xea	-22
98	0xe5	-27
99	0xce	-50
100	0x16	22
101	0xee	-18
102	0x3c	60
103	0xe3	-29
104	0x14	20
105	0xd5	-43
106	0x13	19
107	0xeb	-21
108	0x04	4
109	0x30	48
110	0x12	18
111	0xc6	-58
112	0xd1	-47
113	0x2d	45
114	0x2b	43
115	0xab	-85
116	0xa1	-95
117	0x34	52
118	0x7f	127
119	0xed	-19
120	0x94	-108
121	0xf2	-14
122	0x28	40
123	0x3c	60
124	0xf8	-8
125	0xd8	-40
126	0xfb	-5
127	0x25	37
128	0x8f	-113
129	0x17	23
130	0x03	3
131	0x81	-127
132	0xfd	-3
133	0x03	3
134	0x2b	43
135	0x1a	26
136	0x27	39
137	0x5b	91
138	0xb7	-73
139	0xc5	-59
140	0x56	86
141	0x11	17
142	0x85	-123
143	0xa9	-87
144	0x47	71
145	0x59	89
146	0x26	38
147	0x3b	59
148	0xbc	-68
149	0x63	99
150	0x0d	13
151	0x30	48
152	0x4f	79
153	0x8f	-113
154	0xfb	-5
155	0xef	-17
156	0x07	7
157	0x7f	127
158	0x9f	-97
159	0xdb	-37
160	0xf9	-7
161	0xe9	-23
162	0x38	56
163	0xa5	-91
164	0x34	52
165	0x0f	15
166	0x16	22
167	0x5b	91
168	0xa6	-90
169	0xef	-17
170	0xd1	-47
171	0x03	3
172	0x4d	77
173	0xf1	-15
174	0xeb	-21
175	0xac	-84
176	0x9d	-99
177	0x44	68
178	0x2c	44
179	0x45	69
180	0xcf	-49
181	0x92	-110
182	0x3e	62
183	0x23	35
184	0x33	51
185	0x25	37
186	0x81	-127
187	0x4b	75
188	0xfc	-4
189	0x3a	58
190	0xb4	-76
191	0x9f	-97
192	0x30	48
193	0x1b	27
194	0x76	118
195	0x05	5
196	0xb6	-74
197	0xaa	-86
198	0xdb	-37
199	0xf9	-7
200	0xfb	-5
201	0xfe	-2
202	0x4d	77
203	0x45	69
204	0x6e	110
205	0x1c	28
206	0x3e	62
207	0x43	67
208	0x18	24
209	0x1b	27
210	0x18	24
211	0x34	52
212	0x18	24
213	0xc5	-59
214	0xdf	-33
215	0x0b	11
216	0xe4	-28
217	0x11	17
218	0xbf	-65
219	0xc5	-59
220	0xe9	-23
221	0xda	-38
222	0xa4	-92
223	0x81	-127
224	0xe2	-30
225	0xc6	-58
226	0x17	23
227	0x29	41
228	0x06	6
229	0x0c	12
230	0xd1	-47
231	0x16	22
232	0x27	39
233	0xdd	-35
234	0xd2	-46
235	0xdc	-36
236	0x6e	110
237	0xf1	-15
238	0x15	21
239	0x15	21
240	0x90	-112
241	0x70	112
242	0xd8	-40
243	0xeb	-21
244	0xf7	-9
245	0x81	-127
246	0x6b	107
247	0x0b	11
248	0x04	4
249	0x13	19
250	0xf0	-16
251	0x9e	-98
252	0xe1	-31
253	0xf6	-10
254	0x10	16
255	0xaa	-86

model/quant_conv2d_1/Conv2D;model/quant_conv2d_1/LastValueQuant/FakeQuantWithMinMaxVarsPerChannel i1 [64, 5, 5, 32]
0	0xf3	-13
1	0xe9	-23
2	0xf6	-10
3	0x02	2
4	0xeb	-21
5	0x07	7
6	0x0c	12
7	0xc8	-56
8	0x10	16
9	0x09	9
10	0x09	9
11	0xd0	-48
12	0xf2	-14
13	0xee	-18
14	0x3f	63
15	0xee	-18
16	0xdb	-37
17	0x05	5
18	0xf9	-7
19	0xcd	-51
20	0xff	-1
21	0x00	0
22	0xd2	-46
23	0x11	17
24	0xef	-17
25	0xf1	-15
26	0xe9	-23
27	0xb7	-73
28	0xfc	-4
29	0xdb	-37
30	0xf6	-10
31	0xf8	-8
32	0xde	-34
33	0xdc	-36
34	0x04	4
35	0xc3	-61
36	0xdf	-33
37	0xff	-1
38	0xb5	-75
39	0xfe	-2
40	0x06	6
41	0xcb	-53
42	0x1e	30
43	0xc9	-55
44	0xf2	-14
45	0x13	19
46	0x56	86
47	0xec	-20
48	0xea	-22
49	0x0f	15
50	0xe4	-28
51	0x17	23
52	0xd3	-45
53	0xd2	-46
54	0x25	37
55	0xf1	-15
56	0xd3	-45
57	0x2a	42
58	0xe7	-25
59	0xf8	-8
60	0xf0	-16
61	0xf8	-8
62	0xfd	-3
63	0xc6	-58
64	0xe3	-29
65	0xfc	-4
66	0xe5	-27
67	0xf9	-7
68	0x00	0
69	0xdc	-36
70	0x31	49
71	0xfa	-6
72	0x02	2
73	0xde	-34
74	0x31	49
75	0xf7	-9
76	0xde	-34
77	0x02	2
78	0x1a	26
79	0x2e	46
80	0xf0	-16
81	0xff	-1
82	0x06	6
83	0x0d	13
84	0x24	36
85	0x19	25
86	0xff	-1
87	0xc9	-55
88	0xb4	-76
89	0x07	7
90	0xe8	-24
91	0xf1	-15
92	0xd1	-47
93	0x07	7
94	0x27	39
95	0xcf	-49
96	0x09	9
97	0xf5	-11
98	0x08	8
99	0x22	34
100	0xfa	-6
101	0x0c	12
102	0x1c	28
103	0x0e	14
104	0x0f	15
105	0x06	6
106	0x00	0
107	0x04	4
108	0xf5	-11
109	0x0c	12
110	0x18	24
111	0xdb	-37
112	0xee	-18
113	0x08	8
114	0xea	-22
115	0x1e	30
116	0xf9	-7
117	0xe2	-30
118	0x17	23
119	0x1d	29
120	0x07	7
121	0x13	19
122	0xfc	-4
123	0xff	-1
124	0x30	48
125	0x06	6
126	0x0a	10
127	0xe5	-27
128	0xfb	-5
129	0x00	0
130	0xfe	-2
131	0xe7	-25
132	0x19	25
133	0xbe	-66
134	0x00	0
135	0xf9	-7
136	0x03	3
137	0xf4	-12
138	0xdb	-37
139	0x25	37
140	0x01	1
141	0x0d	13
142	0x2c	44
143	0x0c	12
144	0xf7	-9
145	0x11	17
146	0xe3	-29
147	0x04	4
148	0x09	9
149	0xfd	-3
150	0xd3	-45
151	0xf5	-11
152	0xec	-20
153	0xf9	-7
154	0xe2	-30
155	0xe4	-28
156	0xe4	-28
157	0xf9	-7
158	0x0f	15
159	0x0b	11
160	0x0b	11
161	0x00	0
162	0xee	-18
163	0x07	7
164	0xf2	-14
165	0xf2	-14
166	0x1b	27
167	0xc1	-63
168	0x16	22
169	0x0d	13
170	0xfd	-3
171	0xf9	-7
172	0xe6	-26
173	0xeb	-21
174	0x48	72
175	0xe3	-29
176	0xe8	-24
177	0xfd	-3
178	0xee	-18
179	0xd4	-44
180	0xf9	-7
181	0x08	8
182	0xd6	-42
183	0x1f	31
184	0xec	-20
185	0x07	7
186	0xcf	-49
187	0xb2	-78
188	0xfa	-6
189	0xee	-18
190	0x05	5
191	0xea	-22
192	0xe7	-25
193	0xd3	-45
194	0xf3	-13
195	0xe1	-31
196	0x04	4
197	0x1b	27
198	0x94	-108
199	0xef	-17
200	0x11	17
201	0xb3	-77
202	0x1f	31
203	0xee	-18
204	0x04	4
205	0x1b	27
206	0x4c	76
207	0x0a	10
208	0x08	8
209	0x19	25
210	0x07	7
211	0x10	16
212	0xad	-83
213	0xee	-18
214	0x09	9
215	0x33	51
216	0x0a	10
217	0x2b	43
218	0xcb	-53
219	0x09	9
220	0x18	24
221	0xf2	-14
222	0x0b	11
223	0xfb	-5
224	0xd9	-39
225	0x07	7
226	0xde	-34
227	0xd4	-44
228	0xfa	-6
229	0xe8	-24
230	0x3d	61
231	0xf4	-12
232	0x1a	26
233	0x10	16
234	0x3e	62
235	0x0f	15
236	0xfa	-6
237	0xfb	-5
238	0x51	81
239	0x05	5
240	0xf7	-9
241	0x35	53
242	0x10	16
243	0xe8	-24
244	0x24	36
245	0x18	24
246	0x03	3
247	0xdc	-36
248	0xf6	-10
249	0x1c	28
250	0xce	-50
251	0xe2	-30
252	0xc1	-63
253	0xe2	-30
254	0x1d	29
255	0x07	7

model/quant_conv2d_2/Conv2D;model/quant_conv2d_2/LastValueQuant/FakeQuantWithMinMaxVarsPerChannel i1 [96, 3, 3, 64]
0	0x45	69
1	0xea	-22
2	0xe6	-26
3	0x31	49
4	0xf9	-7
5	0x46	70
6	0xa8	-88
7	0x96	-106
8	0xf2	-14
9	0xc5	-59
10	0xab	-85
11	0xb3	-77
12	0xee	-18
13	0x30	48
14	0xe4	-28
15	0xc8	-56
16	0xd2	-46
17	0xc8	-56
18	0xad	-83
19	0x1a	26
20	0xfb	-5
21	0xc6	-58
22	0x1e	30
23	0x01	1
24	0xdd	-35
25	0xa6	-90
26	0x87	-121
27	0xb4	-76
28	0xee	-18
29	0x21	33
30	0xd0	-48
31	0xa7	-89
32	0x50	80
33	0xc1	-63
34	0x13	19
35	0xbb	-69
36	0xf1	-15
37	0xca	-54
38	0xc9	-55
39	0x9e	-98
40	0xa0	-96
41	0xec	-20
42	0xcf	-49
43	0x25	37
44	0xd7	-41
45	0xeb	-21
46	0xc0	-64
47	0x85	-123
48	0x93	-109
49	0x3e	62
50	0xdd	-35
51	0xd6	-42
52	0x47	71
53	0xb0	-80
54	0xee	-18
55	0xe7	-25
56	0x17	23
57	0xf7	-9
58	0x95	-107
59	0x48	72
60	0x1f	31
61	0x11	17
62	0x1f	31
63	0xe8	-24
64	0x33	51
65	0xb1	-79
66	0xd1	-47
67	0xc5	-59
68	0xc1	-63
69	0xae	-82
70	0xad	-83
71	0xab	-85
72	0x33	51
73	0xb3	-77
74	0xfc	-4
75	0xd0	-48
76	0xbd	-67
77	0xf1	-15
78	0x48	72
79	0x13	19
80	0x04	4
81	0x50	80
82	0x00	0
83	0xe0	-32
84	0xe6	-26
85	0xfb	-5
86	0xfb	-5
87	0xdf	-33
88	0x0e	14
89	0xda	-38
90	0xe3	-29
91	0x1d	29
92	0xc1	-63
93	0xfb	-5
94	0xd1	-47
95	0xba	-70
96	0xd2	-46
97	0xec	-20
98	0xbf	-65
99	0x1f	31
100	0xf2	-14
101	0xcf	-49
102	0x8e	-114
103	0xa3	-93
104	0x97	-105
105	0xc4	-60
106	0x39	57
107	0xe5	-27
108	0x94	-108
109	0xbd	-67
110	0xed	-19
111	0xc5	-59
112	0xe1	-31
113	0x91	-111
114	0xd6	-42
115	0xc7	-57
116	0xe8	-24
117	0x0b	11
118	0xd4	-44
119	0xda	-38
120	0xaf	-81
121	0x97	-105
122	0xbc	-68
123	0x39	57
124	0x0f	15
125	0x8a	-118
126	0xf3	-13
127	0xb6	-74
128	0xfe	-2
129	0x1b	27
130	0xd1	-47
131	0xa7	-89
132	0x41	65
133	0xb9	-71
134	0xe2	-30
135	0x1f	31
136	0xac	-84
137	0x38	56
138	0xff	-1
139	0xd6	-42
140	0xe5	-27
141	0x3c	60
142	0xcd	-51
143	0xe3	-29
144	0xc8	-56
145	0x18	24
146	0xe7	-25
147	0x11	17
148	0x0f	15
149	0x31	49
150	0xa6	-90
151	0xd5	-43
152	0xbc	-68
153	0x12	18
154	0xb6	-74
155	0xbb	-69
156	0xc7	-57
157	0xe7	-25
158	0x25	37
159	0xe0	-32
160	0x1c	28
161	0x8c	-116
162	0xbe	-66
163	0xcc	-52
164	0x1f	31
165	0x2b	43
166	0xa4	-92
167	0x08	8
168	0xdb	-37
169	0x0e	14
170	0x01	1
171	0xbf	-65
172	0xf4	-12
173	0x23	35
174	0x2b	43
175	0xd4	-44
176	0xf5	-11
177	0xa0	-96
178	0x9f	-97
179	0xc5	-59
180	0xca	-54
181	0x9d	-99
182	0x9e	-98
183	0xe8	-24
184	0x18	24
185	0x34	52
186	0xec	-20
187	0xa7	-89
188	0xb5	-75
189	0xfd	-3
190	0x40	64
191	0xb7	-73
192	0x02	2
193	0x9d	-99
194	0x2f	47
195	0x33	51
196	0xfa	-6
197	0xf2	-14
198	0xa7	-89
199	0x29	41
200	0x9e	-98
201	0x1d	29
202	0x1e	30
203	0xe8	-24
204	0xb9	-71
205	0xde	-34
206	0x3a	58
207	0xbb	-69
208	0x08	8
209	0x08	8
210	0x28	40
211	0x0b	11
212	0x3c	60
213	0xc0	-64
214	0xb9	-71
215	0x4a	74
216	0xc8	-56
217	0xfd	-3
218	0x18	24
219	0x9e	-98
220	0x15	21
221	0x2f	47
222	0x2f	47
223	0x9d	-99
224	0x2f	47
225	0x20	32
226	0x2c	44
227	0x15	21
228	0x94	-108
229	0xcd	-51
230	0xf0	-16
231	0xc0	-64
232	0xf0	-16
233	0xd7	-41
234	0xdf	-33
235	0xf9	-7
236	0x9a	-102
237	0x04	4
238	0x1e	30
239	0x96	-106
240	0xf0	-16
241	0xcd	-51
242	0x05	5
243	0x0e	14
244	0xe0	-32
245	0xa7	-89
246	0x27	39
247	0x3a	58
248	0x21	33
249	0xba	-70
250	0xe2	-30
251	0xfc	-4
252	0x1e	30
253	0x37	55
254	0xf3	-13
255	0x29	41

model/quant_dense_last/MatMul;model/quant_dense_last/LastValueQuant/FakeQuantWithMinMaxVars i1 [10, 96] scale=0.010708674 zero_point=0
0	0x04	0.042834695
1	0x06	0.06425204
2	0xfb	-0.05354337
3	0x07	0.074960716
4	0xfc	-0.042834695
5	0xf6	-0.10708674
6	0xec	-0.21417348
7	0x14	0.21417348
8	0xef	-0.18204746
9	0xf8	-0.08566939
10	0xff	-0.010708674
11	0xfd	-0.03212602
12	0xe3	-0.31055155
13	0xf4	-0.12850408
14	0xfc	-0.042834695
15	0x0b	0.117795415
16	0x0e	0.14992143
17	0x05	0.05354337
18	0xd9	-0.41763827
19	0xf4	-0.12850408
20	0xe8	-0.25700817
21	0xef	-0.18204746
22	0x0d	0.13921276
23	0x08	0.08566939
24	0xff	-0.010708674
25	0xe4	-0.29984286
26	0x13	0.2034648
27	0x0f	0.1606301
28	0xd0	-0.51401633
29	0xe9	-0.2462995
30	0x15	0.22488216
31	0xd5	-0.46047297
32	0x13	0.2034648
33	0x0b	0.117795415
34	0x0c	0.12850408
35	0xfb	-0.05354337
36	0x0d	0.13921276
37	0xf7	-0.096378066
38	0x00	0.0
39	0x11	0.18204746
40	0xfa	-0.06425204
41	0x0d	0.13921276
42	0xff	-0.010708674
43	0x0d	0.13921276
44	0x06	0.06425204
45	0xf6	-0.10708674
46	0x0c	0.12850408
47	0x1d	0.31055155
48	0x04	0.042834695
49	0xff	-0.010708674
50	0xfa	-0.06425204
51	0xfb	-0.05354337
52	0xf5	-0.117795415
53	0x0c	0.12850408
54	0xe4	-0.29984286
55	0xe8	-0.25700817
56	0xf8	-0.08566939
57	0x06	0.06425204
58	0x13	0.2034648
59	0x04	0.042834695
60	0xec	-0.21417348
61	0xe7	-0.26771685
62	0x20	0.34267756
63	0x10	0.17133878
64	0xdd	-0.37480357
65	0xf4	-0.12850408
66	0x00	0.0
67	0x20	0.34267756
68	0xf9	-0.074960716
69	0xe6	-0.2784255
70	0x0a	0.10708674
71	0x16	0.23559083
72	0x0d	0.13921276
73	0x0c	0.12850408
74	0xf6	-0.10708674
75	0x07	0.074960716
76	0xe9	-0.2462995
77	0xe5	-0.2891342
78	0xf1	-0.1606301
79	0x12	0.19275613
80	0x06	0.06425204
81	0x1b	0.2891342
82	0x1a	0.2784255
83	0x0c	0.12850408
84	0x08	0.08566939
85	0x23	0.37480357
86	0x06	0.06425204
87	0xe5	-0.2891342
88	0xe7	-0.26771685
89	0xf1	-0.1606301
90	0xd4	-0.47118166
91	0xf2	-0.14992143
92	0xfe	-0.021417348
93	0x07	0.074960716
94	0xed	-0.2034648
95	0x0c	0.12850408
96	0xf8	-0.08566939
97	0xf4	-0.12850408
98	0x1b	0.2891342
99	0x1c	0.29984286
100	0xf3	-0.13921276
101	0xba	-0.74960715
102	0xbb	-0.7388985
103	0xf4	-0.12850408
104	0x0e	0.14992143
105	0xc2	-0.6639378
106	0x18	0.25700817
107	0x15	0.22488216
108	0xe0	-0.34267756
109	0xf1	-0.1606301
110	0x1f	0.3319689
111	0xe7	-0.26771685
112	0x2c	0.47118166
113	0xe4	-0.29984286
114	0x24	0.38551226
115	0xea	-0.23559083
116	0xc7	-0.6103944
117	0xe8	-0.25700817
118	0x03	0.03212602
119	0xaf	-0.86740255
120	0xea	-0.23559083
121	0xeb	-0.22488216
122	0xda	-0.4069296
123	0x14	0.21417348
124	0x03	0.03212602
125	0xf3	-0.13921276
126	0xfa	-0.06425204
127	0x1e	0.3212602
128	0xe8	-0.25700817
129	0xc2	-0.6639378
130	0x0f	0.1606301
131	0x27	0.41763827
132	0x10	0.17133878
133	0xd9	-0.41763827
134	0xbf	-0.6960638
135	0xf9	-0.074960716
136	0x0e	0.14992143
137	0xe7	-0.26771685
138	0xfd	-0.03212602
139	0xf6	-0.10708674
140	0xe0	-0.34267756
141	0xea	-0.23559083
142	0xfb	-0.05354337
143	0xed	-0.2034648
144	0x0d	0.13921276
145	0x1b	0.2891342
146	0xfa	-0.06425204
147	0xc8	-0.5996857
148	0x17	0.2462995
149	0x11	0.18204746
150	0xfa	-0.06425204
151	0x0b	0.117795415
152	0x0c	0.12850408
153	0x27	0.41763827
154	0x2b	0.46047297
155	0x02	0.021417348
156	0xdd	-0.37480357
157	0xe1	-0.3319689
158	0x02	0.021417348
159	0xf3	-0.13921276
160	0xfc	-0.042834695
161	0xda	-0.4069296
162	0x09	0.096378066
163	0xea	-0.23559083
164	0x04	0.042834695
165	0x10	0.17133878
166	0xf8	-0.08566939
167	0xef	-0.18204746
168	0x0f	0.1606301
169	0xd6	-0.4497643
170	0x0b	0.117795415
171	0xee	-0.19275613
172	0xc8	-0.5996857
173	0x21	0.35338622
174	0x1f	0.3319689
175	0xed	-0.2034648
176	0x03	0.03212602
177	0xe8	-0.25700817
178	0xfe	-0.021417348
179	0x11	0.18204746
180	0xcc	-0.556851
181	0x0a	0.10708674
182	0xce	-0.5354337
183	0xde	-0.3640949
184	0x0e	0.14992143
185	0xea	-0.23559083
186	0xed	-0.2034648
187	0xe4	-0.29984286
188	0x16	0.23559083
189	0xfd	-0.03212602
190	0xf0	-0.17133878
191	0xbe	-0.70677245
192	0x08	0.08566939
193	0x02	0.021417348
194	0xef	-0.18204746
195	0xf7	-0.096378066
196	0x1c	0.29984286
197	0x0c	0.12850408
198	0x09	0.096378066
199	0xe9	-0.2462995
200	0x0d	0.13921276
201	0x01	0.010708674
202	0x01	0.010708674
203	0xf1	-0.1606301
204	0xe2	-0.3212602
205	0xea	-0.23559083
206	0xd5	-0.46047297
207	0xe3	-0.31055155
208	0xe8	-0.25700817
209	0x12	0.19275613
210	0x15	0.22488216
211	0xd8	-0.42834696
212	0x16	0.23559083
213	0xfa	-0.06425204
214	0xf0	-0.17133878
215	0x0b	0.117795415
216	0xe0	-0.34267756
217	0x07	0.074960716
218	0x05	0.05354337
219	0x08	0.08566939
220	0x12	0.19275613
221	0xfe	-0.021417348
222	0x1f	0.3319689
223	0x0a	0.10708674
224	0xf8	-0.08566939
225	0xf7	-0.096378066
226	0x14	0.21417348
227	0xf6	-0.10708674
228	0xeb	-0.22488216
229	0x13	0.2034648
230	0xd4	-0.47118166
231	0xfd	-0.03212602
232	0xfa	-0.06425204
233	0x19	0.26771685
234	0x1c	0.29984286
235	0xec	-0.21417348
236	0x12	0.19275613
237	0x07	0.074960716
238	0xe0	-0.34267756
239	0xef	-0.18204746
240	0xff	-0.010708674
241	0x06	0.06425204
242	0xf9	-0.074960716
243	0x0e	0.14992143
244	0xea	-0.23559083
245	0x13	0.2034648
246	0x1d	0.31055155
247	0xee	-0.19275613
248	0xe0	-0.34267756
249	0x0b	0.117795415
250	0x02	0.021417348
251	0x23	0.37480357
252	0x12	0.19275613
253	0x1d	0.31055155
254	0xef	-0.18204746
255	0xfb	-0.05354337
