model/tflitenew_model.tflite (tflite, 119880 bytes, 8 tensors)

model/dense_last/MatMul f4 [10, 96]
00000000: bcaf 273d 55e5 1f3c 6cb3 3cbd cbbd 8a3d
00000010: a496 a2bc 7935 a7bd aa62 33be 9843 593e
00000020: 619f 47be f1ae 96bd 6a46 1f3c 70db 6fbd
00000030: d5a3 98be 4392 07be b0e5 abbd 219f f23d
00000040: e8c9 073e f1fa 693d fa2a b8be 0a00 f6bd
00000050: 6c74 65be b2f7 39be 106d b43d 425e b93d
00000060: 4576 01bd db5d 88be 4d2a 443e 7002 1f3e
00000070: 726f d2be 4a4c 61be 9f94 603e c092 c2be
00000080: de96 363e 1ea9 063e 481b 0e3e 3354 af3c
00000090: 5e9e b73d 3974 8fbd 241a 973c b0d9 3f3e
000000a0: 21e9 87bd 591e 183e e642 b4bc 6a53 0a3e
000000b0: 5b03 a93d bb7e dcbd 9f24 053e afa4 8d3e
000000c0: 14c1 663d 1e5f 51bc d55c 3dbd 0a37 2bbd
000000d0: ae23 c5bd d24c 113e ade9 94be 273b 7ebe
000000e0: 0182 89bd f3a7 213d 91ab 463e 9f9d 393d
000000f0: 28f4 35be c525 84be 3284 a53e e23f 163e
00000100: 786b b6be 90ee f3bd 548f 31bb a06f 9f3e
00000110: f67f 9ebd 18cf 6dbe 66b2 d03d 0de8 5e3e
00000120: d465 123e b54e 143e 8484 a5bd 37b2 953d
00000130: 7040 67be 1e6a 70be 46ea 18be 187a 343e
00000140: 1e10 8a3d 8e94 903e beaf 8c3e 4a12 0c3e
00000150: 615e d03d 3920 b13e 3921 8c3d 599e 71be
00000160: d815 56be feab f9bd adff cabe 13bb 16be
00000170: 9170 f9bc e511 9e3d 9b19 2cbe 70a1 b33d
00000180: ee6a a6bd d05b fcbd 0a0e 823e 00f7 933e
00000190: 93a8 0cbe 6bf5 34bf 2556 2bbf 631d e7bd
000001a0: abea 323e 6df7 19bf ff45 833e 4d7f 753e
000001b0: 80fe aabe 0ae5 27be 6041 963e 3daf 59be
000001c0: 4053 ed3e 549f 87be eeb5 ba3e 31ed 43be
000001d0: 261a 0cbf 2ed7 81be 0615 143d 71fb 33bf
000001e0: 0f58 7bbe edc3 66be a708 d4be 8a55 603e
000001f0: b0da 5c3d a3bd f6bd 59ad 87bd 7468 a83e
00000200: 2b4c 83be b031 1ebf ac47 233e 8e0b cc3e
00000210: d909 2e3e 65e1 cdbe af2f 2fbf ddde 95bd
00000220: 44f3 1c3e 58f9 82be d082 0fbc c771 ddbd
00000230: aff3 a6be 1c6e 71be ccfb fcbc 69ed 85be
00000240: 3d73 063e 52f9 8c3e c87c 67bd 9233 0dbf
00000250: af6c 853e 9d60 3e3e 94cd b9bd 867f f03d
00000260: 4dc6 e53d b6ce c33e 9d03 de3e 385c e33c
00000270: 6c8d a6be ee1b 8fbe 1c9c 663d 280c 1dbe
00000280: be55 8ebb 53c5 d3be 4643 bd3d 6610 5abe
00000290: fe81 1c3d eebf 283e 3cf2 a8bd f966 3bbe
000002a0: c9a0 033e 5f41 ddbe b491 053e 17ba 41be
000002b0: d94b 01bf 79f7 a43e d76d 963e c609 2fbe
000002c0: b5dd f63c 4738 84be b7cc b93b e12a 343e
000002d0: 96ea f6be d500 e53d 5f53 e2be 8880 adbe
000002e0: bbbb 153e f83d 5dbe a2cc 48be ee7f a8be
000002f0: 2d36 7d3e f35f d3bc c1cd 3cbe f83f 1cbf
00000300: e9b6 a93d e687 4b3d 5f7e 4ebe d963 acbd
00000310: 0282 8c3e 2f89 f83d adb1 653d 4a12 6abe
00000320: 006a 123e c6a4 5bbc 8fda 973c ef05 2cbe
00000330: 0d53 9dbe b7cf 6cbe 0619 d2be 360a 83be
00000340: b1ed 67be fccf 333e 0ba4 503e 02a4 c6be
00000350: 6b60 543e fad2 87bd 3409 26be e6c1 143e
00000360: e9d3 95be d802 913d cbbe 6f3d 3a25 b73d
00000370: 1992 213e 4464 82bc a7a3 a63e a3a1 d13d
00000380: 8f8a bfbc 6f9c 95bd 2b3e 513e 6511 91bd
00000390: af97 4fbe fcaa 4f3e dc63 cdbe 9423 0fbd
000003a0: 34a3 72bd bbb2 903e fc93 963e 3163 5cbe
000003b0: c6b2 4b3e bbf3 9f3d 63fb 9fbe 19d1 1fbe
000003c0: 0bf1 143c fb38 473d 06ab afbd db37 053e
000003d0: c810 41be d741 523e a9a8 9d3e 23ab 3abe
000003e0: baab 9ebe 2d63 ac3d e1c4 0f3d 4d55 9b3e
000003f0: 29fb 393e b8d9 8f3e 7b85 27be 0329 14bd
0.040939078 0.009759267 -0.046069548 0.067744814 -0.019847222 -0.08164496 -0.17518106 0.21217191
-0.19494392 -0.07357586 0.009721378 -0.05855888 -0.29812494 -0.13239388 -0.08393419 0.11846758
0.13260615 0.057124082 -0.3597029 -0.12011726 -0.22407693 -0.18160895 0.088098645 0.090511814
-0.03160693 -0.26634106 0.19156761 0.15528274 -0.4110065 -0.22001758 0.21931694 -0.38002586
0.17830989 0.1315045 0.13877594 0.021402454 0.08965753 -0.070045896 0.018445082 0.18735385
-0.06636263 0.14855327 -0.022004556 0.13508382 0.08252593 -0.107663594 0.13002251 0.27664706
0.056336477 -0.012779025 -0.04623111 -0.041800536 -0.09625946 0.14189461 -0.2908453 -0.24827252
-0.067142494 0.03946681 0.19401385 0.045316335 -0.1776892 -0.25810066 0.3232742 0.14672807
-0.35628867 -0.119107366 -0.0027093487 0.3113985 -0.0773925 -0.23223531 0.10190277 0.21768208
0.14296657 0.1448315 -0.08081916 0.073093824 -0.22583175 -0.2347798 -0.14933118 0.176247
0.06741355 0.28238338 0.2747783 0.13678852 0.10174251 0.34594896 0.06842274 -0.23595561
-0.2090677 -0.12191008 -0.3964819 -0.147198 -0.030449184 0.07718257 -0.16806643 0.08771026
-0.08125864 -0.12322199 0.25401336 0.28899384 -0.13736181 -0.7068698 -0.6692832 -0.11284902
0.17472331 -0.60143167 0.2563934 0.23974343 -0.33397293 -0.16395965 0.29346752 -0.21258254
0.46352577 -0.26488745 0.36466926 -0.1913345 -0.547274 -0.25359482 0.036152862 -0.70305544
-0.2454531 -0.22535677 -0.4141285 0.2190763 0.053919494 -0.12047889 -0.0662486 0.3289219
-0.2564405 -0.6179457 0.1594531 0.39852566 0.16995944 -0.40211025 -0.68432134 -0.073178984
0.15327173 -0.2558086 -0.0087592155 -0.10812717 -0.3260779 -0.2357716 -0.030881785 -0.26157692
0.13129897 0.27533966 -0.056515485 -0.55156815 0.26059482 0.18591543 -0.09072414 0.11743073
0.112194635 0.38243645 0.43362132 0.027753934 -0.3252977 -0.27950996 0.05630122 -0.15336668
-0.0043437174 -0.41361484 0.09241347 -0.21295318 0.038209908 0.16479465 -0.082493275 -0.18301
0.12854303 -0.43213937 0.13043863 -0.18918644 -0.5050636 0.32220057 0.29380676 -0.17093572
0.030135015 -0.25824186 0.005670156 0.17594482 -0.4822585 0.11181799 -0.44204232 -0.33887124
0.14622395 -0.2160567 -0.19609311 -0.32910103 0.24727698 -0.025802588 -0.18437864 -0.6103511
0.082868405 0.04969015 -0.20165394 -0.08417482 0.27442938 0.12135541 0.056077648 -0.22858539
0.14298248 -0.013405984 0.018536834 -0.16799138 -0.30727425 -0.23126112 -0.41034716 -0.25593728
-0.22649266 0.17559808 0.20375077 -0.38797003 0.20739906 -0.066320375 -0.16214448 0.14527091
-0.29263237 0.070806205 0.058531564 0.08942647 0.15778388 -0.015916951 0.32546732 0.10235908
-0.0233815 -0.07305228 0.20433871 -0.07083396 -0.20272706 0.20280069 -0.4011525 -0.03494604
-0.059237674 0.2826136 0.29409778 -0.21522214 0.19892415 0.0781016 -0.3124648 -0.15607108
0.009090672 0.048638325 -0.08577542 0.13009588 -0.18854058 0.20532928 0.3079274 -0.18229346
-0.30990392 0.08417354 0.035099868 0.30338517 0.18162216 0.28095794 -0.16359513 -0.036171924

model/dense_last/BiasAdd/ReadVariableOp f4 [10]
00000000: 3c4e 46bc 1bf2 f03c d397 e13d 395e 2fbb
00000010: b6e7 47be 13bf a8bd bfad 813d 9d3b 413d
00000020: 9ffa 343e 2930 87bd
-0.0121036135 0.02941232 0.11015286 -0.0026759042 -0.19521984 -0.082395695 0.063319676 0.047175992
0.1767373 -0.06600983

model/conv2d/BiasAdd/ReadVariableOp f4 [32]
00000000: e32a d43c c4b0 6dbb 885d 79be 9107 83bc
00000010: 9345 febc 787a 00be e815 efbc 57d5 513c
00000020: 178e 5abc 92a4 1abc b0dd 873e 9735 78bc
00000030: fd65 d03d 3fa0 c4bc 7d28 9d3e dffa 37bd
00000040: aa3e ff3b 6121 a03c 8611 1c3e babf 39bc
00000050: dedd c7bc 3ca8 6b3b fec7 debc 0f33 a93c
00000060: b94f 16bd 7567 163e a6b8 5abe 4503 5abc
00000070: d15c 33bc 3d9a 69be 3001 f53b e89f 35bc
0.025899356 -0.003626869 -0.24352086 -0.015994819 -0.031039035 -0.12546718 -0.02918525 0.012807212
-0.013339541 -0.009438651 0.26536322 -0.015149496 0.10175703 -0.024002193 0.30694953 -0.044916984
0.0077894526 0.019547166 0.1524106 -0.011337215 -0.024397787 0.003595843 -0.027194973 0.02065423
-0.036697123 0.14687903 -0.213595 -0.013306444 -0.010947422 -0.22812743 0.007476948 -0.011085488

model/conv2d_1/BiasAdd/ReadVariableOp f4 [64]
00000000: d37d b8bd 509b d6bd ffb2 903c 817b acbc
00000010: 4055 3a3e b424 693d d8a1 863e b48e 803d
00000020: 46c8 e0bd f5c2 28bc eb6c 003c fc61 053e
00000030: a75c 1d3e 85b6 0a3e abf3 1fbe 7e90 06bd
00000040: 97b9 65bd 0753 1bbe 99bf 083d 3a8a 923c
00000050: bb52 f33c 79c3 0f3e 545c 0ebe fa1f 653e
00000060: f0a1 3e3d b607 d4bd 28f9 b73d 8fe7 3fbd
00000070: 0d4d fd3d c76d f4bc 3c96 3a3d b488 14be
00000080: fd74 393e c77c b83d 6cb2 8bbb 73e4 d3bc
00000090: 92d5 8c3d 0b12 efbd cd61 443e ca4d 233e
000000a0: 0b79 2e3e d50a a23c 5b57 c73d fd51 433d
000000b0: 972f 843d 9027 8bbc 7dc1 c33d a63a c9bb
000000c0: aad8 a73d b26a 38bc e195 bbbc 75d0 843e
000000d0: 8fb0 4a3e 5540 593d abb2 ccbc 0bae 15bd
000000e0: 1961 92bd 9a7d 293d 8a4e 073c 5b6b b9bd
000000f0: 7cb4 0d39 4ea5 ab3a 004c e43c c1ba 263d
-0.09008374 -0.10478842 0.017663477 -0.021054985 0.18196583 0.05691977 0.26295352 0.062772185
-0.10975699 -0.010300388 0.007838468 0.1302566 0.15367375 0.13546188 -0.15620296 -0.032852642
-0.056085195 -0.15168391 0.033385847 0.017888177 0.029702535 0.1403941 -0.13902408 0.2237548
0.046541154 -0.10353033 0.0898307 -0.04685169 0.12368212 -0.029837502 0.04555343 -0.14505273
0.18111034 0.090081744 -0.004263213 -0.025865769 0.06876673 -0.11673363 0.19177933 0.15947643
0.17038362 0.019780556 0.097334586 0.047685612 0.064543895 -0.016986638 0.09558389 -0.0061410246
0.08195622 -0.011255907 -0.022898616 0.2594029 0.19793914 0.053039867 -0.02498754 -0.036542933
-0.07147426 0.04137955 0.008258471 -0.090536796 0.00013514044 0.0013095529 0.02786827 0.040705446

model/conv2d_2/BiasAdd/ReadVariableOp f4 [96]
00000000: e40e 80bc 3076 86bc 7026 2bbd a8bc 15be
00000010: 6f21 9b3b c5fa 8abd 1a49 f83b 9e3a 5abd
00000020: 525a e7bd 35f0 0e3e d753 24bd b52d 043e
00000030: dcd9 693e ab65 a8bc c435 dd3c 4409 3f3c
00000040: 2a83 b3bd 0bb6 93bc b15a e13d b655 6c3c
00000050: 849d 563e 6193 c7bc c7de e63c f8ea 843c
00000060: 304f df3d 8422 be3d 152a 1bbd 7cb2 9cbc
00000070: 1828 29bd f572 7dbc d0c8 ae3d 440d 68bc
00000080: 1b48 cebc 11d0 ee3c 17ad 6c3e 2969 0a3e
00000090: 0acb ea3d e597 9cbd d507 b5bc 572c cbbc
000000a0: 0f75 a3bc 80f6 8abd 2fa9 b83c 4748 8fbc
000000b0: 5aaf 4e3e d5bb 08bd 2a06 e0bd 9dcb 8fbd
000000c0: 792c 2f3e 6fe2 04bc d26e 113e 990b da3d
000000d0: 2f36 183d 4b56 873e 7be9 153e e6b8 013c
000000e0: 7ca7 34bc 7162 133e aa4e 033e 6db1 9c3d
000000f0: 9c02 0dbd d3e1 333e 7d2e 0cbe 3d1d e2bd
00000100: a30b bcbd e797 d43c 2d8b 7abc 48af 123c
00000110: 6f01 9dbc 2a69 8fbd 3c8b 2c3d bafd a73d
00000120: 6b2d 153e dd8c 62bd e7fd e9bc 229a 42bc
00000130: 224d e2bd e80a 043e f2b5 95bd e7d9 8ebd
00000140: 100d 1e3d a909 8c3d 1884 193e 2bb3 983d
00000150: 0911 cdbc c233 283d 44d5 863d ede8 a93c
00000160: 23e1 6ebd 34b4 91bd f612 78bd deaf 25bc
00000170: 8fe9 39bc 6ba1 573d 54c0 583e 6955 6d3d
-0.0156321 -0.016413778 -0.041784704 -0.14622748 0.00473421 -0.06786112 0.0075770738 -0.053278558
-0.11296524 0.13958819 -0.04011902 0.12908061 0.22837013 -0.020556292 0.027003177 0.011659924
-0.08765252 -0.01803114 0.11003626 0.014424732 0.20958525 -0.024362268 0.0281824 0.016225323
0.10903776 0.09283927 -0.03788193 -0.019128077 -0.041298002 -0.015469302 0.08534396 -0.014163319
-0.025180867 0.029151948 0.23112904 0.13516678 0.11464508 -0.07646159 -0.022098461 -0.024801416
-0.019953279 -0.067852974 0.02254161 -0.01749052 0.20184079 -0.033382256 -0.10938676 -0.07021258
0.17106809 -0.008110627 0.14202431 0.10646743 0.03716105 0.26433024 0.14639847 0.007917618
-0.0110262595 0.14393021 0.12822977 0.07651029 -0.034426317 0.17566614 -0.13689609 -0.11040733
-0.09181907 0.025951339 -0.015291971 0.008952923 -0.019165723 -0.0700248 0.04212497 0.082026914
0.14568107 -0.05531012 -0.028563453 -0.011877568 -0.11049868 0.12894785 -0.07310094 -0.06975155
0.038586676 0.0683778 0.14991796 0.074560486 -0.025032537 0.041064985 0.06583646 0.02074095
-0.058320176 -0.07114449 -0.060564958 -0.010112731 -0.011347189 0.052644175 0.21167117 0.05794278

model/conv2d/Conv2D f4 [32, 5, 5, 1]
00000000: b225 d7bd b0dd e33c 2a71 fe3d 73f2 64be
00000010: 489a d3be 1387 60be cc51 d73c 9a76 2e3e
00000020: d323 9a3d 40bd 68be 703d 3c3c dd8a 073e
00000030: 6e99 cbbd d55b 86bd c870 e83d f920 143e
00000040: aba9 a0bd 8ba7 49bc 408d a7bd eddd f1bb
00000050: 442f f93d 14da 583d e756 82bd ffde 8b3b
00000060: 548f 003d fefc c3bd bc63 c9be 9bbf 17be
00000070: 633d 8b3e 18fb c53d d37c 933c 0ba0 b8be
00000080: 7a8a f43c 0444 353e 245f 103e 895d 3b3e
00000090: 4de2 7abb 44ed b93d 337c febd 8151 603d
000000a0: 1d60 0a3e 29a8 53bd 4d25 fa3d d2d1 7dbd
000000b0: e2c9 25be 95ef 183d e869 68bc 66c8 8fbb
000000c0: e93f b9bd e7a1 10be 63e7 c03d e9d3 ed3d
000000d0: 5b79 bfbc f5a5 853d 1727 433d 1c00 a13d
000000e0: 93b0 833b 21e0 eebc fa68 2c3d 9692 02bd
000000f0: 970a d83b cef9 933d d452 0fbd b525 c8bc
00000100: 0ec1 b539 85bb 923d 5999 643d 6647 cebd
00000110: b784 523d e9dc fdbb 01e6 653c ebf6 a43d
00000120: f256 c23c 90c1 8bbd 9a2a 39be 1842 f4bc
00000130: 38b1 103e bb38 ea3d 9aa1 2abe a2af 8cbe
00000140: c0fb b7bc 2b05 633e ab25 063e 5b5d be3a
00000150: c60e 8abe c125 813c 8332 543e 04e9 bebd
00000160: 509b 0f3d fb4b 5cbd 727b 313e a5ce 9bbc
00000170: 5ec7 0dbd 2c64 1a3d 03f3 983c 01f5 013e
00000180: 824c 2d3b 37a0 4bbd a86a 6fbd dafe e3bd
00000190: 7277 5a3d 3378 0fbd 1529 f23d 13ad 7fbd
000001a0: 5752 be3c 2e1a acbd 0c09 393d 9283 2cbd
000001b0: f2d4 923c 5875 c63d 6f34 263d bb38 f6bd
000001c0: 1b9b bbbd 3814 c73d 74b9 b23d 11f8 2fbe
000001d0: 53a7 4cbe 4e79 f13d 5003 8c3e 9bb2 0dbd
000001e0: b36f 5abe 5811 f6bc 65ed ae3d fba4 023e
000001f0: 3407 57bc f90a 8fbd 22c5 b8bb 5c72 923d
00000200: d2b7 39be 3c55 293d c85b 863b 8252 5bbe
00000210: 2aee 77bc 43ed 0f3c 287b ae3d 4ad5 373d
00000220: be72 7c3d 6590 163e e2f0 01be 419c d7bd
00000230: ea7d 173e fb68 e33c 8f4f 59be 1dfd 17be
00000240: f4f9 ea3d 4dec 163e 7db2 873d f33b be3d
00000250: 1fbd e6bd 59ae 213e 5674 fe3c 6f0a f33d
00000260: 737a 4a3e 4592 8ebe e471 6fbc 6b48 4abd
00000270: 47cb 8d3c 2d33 a33e 3cf1 74be 5282 c2bd
00000280: 5f4b 6ebc de81 5fbd 9d2a 073e a65c 69be
00000290: 79f3 043e a5b0 2a3d 456c 6b3d 60d1 633e
000002a0: 7004 62be b095 40bd 8a4f f1bd df87 2a3c
000002b0: 3bf1 413e 8f7a e6bc 140c 52bd 8eba e6bd
000002c0: f527 0abe 3780 ce3d 185a 6c3d 3a10 d13d
000002d0: 7103 a5bd 4432 1fbe dd46 c03d de32 303d
000002e0: c52f 8b3d 9593 593d 8a40 3bbe 0c16 c63d
000002f0: 545d 84bc c0ef c43d aae9 eabd 8aed 12be
00000300: d92e 893d 2864 f33c 3f90 293e 591f 883c
00000310: 775c e7bd 277d 04be 2b1e 63bd 2420 34bc
00000320: d1ca a7bb 711d 5ebb a61b 4b3e 934b 2a3e
00000330: ce26 8c3e 6724 9c3d 33fa 183e 88a8 2d3e
00000340: b295 503d 3f94 873d 4abd 863d 92b1 033e
00000350: afeb 843d 491f 15be 3264 a4bd 434a 063d
00000360: 11ee 9dbd 939b 243d 6671 22be 9f77 1cbe
00000370: e10d 67bd 3dbb c3bd 2f2d 6fbe d42a a5be
00000380: 86d3 99bd 81ca 13be c0bf 503d a569 b73d
00000390: 6d3a 243c 7f22 873c 97b4 d0bd 4ae2 543d
000003a0: 4bda ae3d 0f63 98bd cb0e dabd fcd1 a2bd
000003b0: fb5b 763e 43c6 09bd 4a79 4c3d 9313 463d
000003c0: f745 84be ba59 7c3e a013 a6bd 9730 49bd
000003d0: 9f0e f9bc d9c6 91be e620 7b3e a548 1d3d
000003e0: d052 253c 0e49 323d bcbe 81be cd99 b3bf
000003f0: 60ba ecbe c747 0abe 7a6d 6c3e be20 9bbf
-0.10505237 0.02781567 0.12423928 -0.22358112 -0.41328645 -0.21926527 0.026284121 0.1703743
0.07526364 -0.22728443 0.011489257 0.13236566 -0.09941374 -0.06560484 0.11349636 0.14465703
-0.078448616 -0.012308012 -0.08181238 -0.007381192 0.12167218 0.05294235 -0.063642316 0.0042685266
0.03138669 -0.09569739 -0.39333904 -0.14819185 0.27195272 0.09667033 0.018003857 -0.36059603
0.029851187 0.17701727 0.14098793 0.182974 -0.0038281858 0.09078458 -0.12426033 0.05476523
0.13513227 -0.051674042 0.12214146 -0.06196768 -0.16190293 0.03733786 -0.014185406 -0.004387903
-0.09045393 -0.14124261 0.094191335 0.11612684 -0.023373296 0.065257944 0.0476447 0.07861349
0.004018852 -0.029159607 0.0420923 -0.031878076 0.0065930593 0.07225381 -0.0349911 -0.024432043
0.00034666847 0.07164673 0.055810306 -0.10072212 0.051396098 -0.007747282 0.014031888 0.08054908
0.0237231 -0.068240285 -0.18082657 -0.029816672 0.14130104 0.11436602 -0.16663209 -0.27477747
-0.022458911 0.2216994 0.13100307 0.0014523672 -0.26964396 0.015765073 0.20722394 -0.09321788
0.035060227 -0.053783398 0.17332247 -0.019019434 -0.03461396 0.037693188 0.018670565 0.12691118
0.0026443307 -0.04971334 -0.058451325 -0.111325935 0.05333657 -0.03502674 0.11824242 -0.062420916
0.023232622 -0.08403431 0.045174643 -0.042117663 0.017923806 0.0969035 0.04057735 -0.12022539
-0.091604434 0.09720653 0.087267786 -0.17184474 -0.19985704 0.11790715 0.27346277 -0.03459416
-0.21331672 -0.030037567 0.08541373 0.12758248 -0.013124276 -0.06984515 -0.0056387344 0.071507186
-0.18136528 0.04134105 0.0041002966 -0.21418193 -0.015132466 0.008784595 0.08519584 0.044881143
0.061632864 0.1470352 -0.12689546 -0.1052785 0.14794126 0.02776002 -0.21221755 -0.14842649
0.11473456 0.14738579 0.06625841 0.09288778 -0.11266541 0.15789165 0.031061333 0.118672244
0.19773273 -0.2784597 -0.014614556 -0.04938547 0.017308844 0.31874982 -0.23920149 -0.09497513
-0.014544337 -0.05456721 0.1319985 -0.22789249 0.12983502 0.041672368 0.0574763 0.22247839
-0.22072005 -0.047017753 -0.11782749 0.010408371 0.18939678 -0.028134612 -0.05128105 -0.11266051
-0.13491805 0.10083049 0.057703108 0.10208173 -0.08057297 -0.15546519 0.09388516 0.04301726
0.06796221 0.05311926 -0.18286338 0.09672174 -0.016157784 0.09616041 -0.11470349 -0.14348426
0.066983886 0.029710844 0.16558932 0.01661651 -0.11296933 -0.12938367 -0.055448692 -0.010993991
-0.005120613 -0.003389206 0.19834766 0.16630392 0.27373356 0.07624131 0.14939193 0.16958821
0.05092401 0.066200726 0.06579073 0.12860706 0.064902656 -0.14562716 -0.08026923 0.032785665
-0.07711423 0.04018743 -0.1586357 -0.15280007 -0.05640972 -0.09557197 -0.2335708 -0.32259238
-0.07511048 -0.14432718 0.050964117 0.08955697 0.010023695 0.016495941 -0.10190695 0.05197362
0.0853773 -0.07440769 -0.10647353 -0.079502076 0.24058525 -0.033636343 0.049920358 0.04835851
-0.2583463 0.24643603 -0.08109212 -0.049118605 -0.03040248 -0.2847202 0.24524269 0.038399357
0.010090545 0.0435267 -0.2534083 -1.4031311 -0.46235943 -0.13503943 0.23088637 -1.2119367

model/conv2d_1/Conv2D i1 [64, 5, 5, 32]
00000000: f2eb ea09 e703 0dcb 110e 08d7 edeb 48eb
00000010: df07 f3cc 0706 cf0e eeeb eab0 fed9 f5fc
00000020: d7dc ffc9 da06 b3fe 0ac8 1eb9 f114 60f1
00000030: ea17 de18 cecb 32ec cd2a e4f9 f3f8 fdbf
00000040: dd01 def7 ffdc 34ff 01db 36f7 db03 1e32
00000050: ebff 0212 280e fcc2 ab05 e6f0 cd0d 2ec9
00000060: fdea 0620 f909 170e 0b06 01fc ef0a 13d6
00000070: ec07 e61c f1e2 1316 0711 fdff 2f05 0bdf
00000080: fcfb f7e6 1abf 03fe fdf2 d12a f90b 2e09
00000090: f00b de02 0301 cbe9 ecef dde7 dcf4 090a
000000a0: 0902 e40b e9e9 18c0 1a0d fafb e3ec 52db
000000b0: dcfe e6d0 fc02 d61e e107 cea9 f8e8 07e0
000000c0: e1c6 edec 061b 8eec 14ab 24e9 fe1e 5407
000000d0: 071d 0711 a0e5 0c33 072f c608 17f1 0ef9
000000e0: d008 d7cc fbe3 3ff7 1711 460f 00f9 53fc
000000f0: f636 13ea 2310 00d5 f81e cbe3 bee6 2104
-14 -21 -22 9 -25 3 13 -53
17 14 8 -41 -19 -21 72 -21
-33 7 -13 -52 7 6 -49 14
-18 -21 -22 -80 -2 -39 -11 -4
-41 -36 -1 -55 -38 6 -77 -2
10 -56 30 -71 -15 20 96 -15
-22 23 -34 24 -50 -53 50 -20
-51 42 -28 -7 -13 -8 -3 -65
-35 1 -34 -9 -1 -36 52 -1
1 -37 54 -9 -37 3 30 50
-21 -1 2 18 40 14 -4 -62
-85 5 -26 -16 -51 13 46 -55
-3 -22 6 32 -7 9 23 14
11 6 1 -4 -17 10 19 -42
-20 7 -26 28 -15 -30 19 22
7 17 -3 -1 47 5 11 -33
-4 -5 -9 -26 26 -65 3 -2
-3 -14 -47 42 -7 11 46 9
-16 11 -34 2 3 1 -53 -23
-20 -17 -35 -25 -36 -12 9 10
9 2 -28 11 -23 -23 24 -64
26 13 -6 -5 -29 -20 82 -37
-36 -2 -26 -48 -4 2 -42 30
-31 7 -50 -87 -8 -24 7 -32
-31 -58 -19 -20 6 27 -114 -20
20 -85 36 -23 -2 30 84 7
7 29 7 17 -96 -27 12 51
7 47 -58 8 23 -15 14 -7
-48 8 -41 -52 -5 -29 63 -9
23 17 70 15 0 -7 83 -4
-10 54 19 -22 35 16 0 -43
-8 30 -53 -29 -66 -26 33 4

model/conv2d_2/Conv2D i1 [96, 3, 3, 64]
00000000: 45ea e631 f946 a896 f2c5 abb3 ee30 e4c8
00000010: d2c8 ad1a fbc6 1e01 dda6 87b4 ee21 d0a7
00000020: 50c1 13bb f1ca c99e a0ec cf25 d7eb c085
00000030: 933e ddd6 47b0 eee7 17f7 9548 1f11 1fe8
00000040: 33b1 d1c5 c1ae adab 33b3 fcd0 bdf1 4813
00000050: 0450 00e0 e6fb fbdf 0eda e31d c1fb d1ba
00000060: d2ec bf1f f2cf 8ea3 97c4 39e5 94bd edc5
00000070: e191 d6c7 e80b d4da af97 bc39 0f8a f3b6
00000080: fe1b d1a7 41b9 e21f ac38 ffd6 e53c cde3
00000090: c818 e711 0f31 a6d5 bc12 b6bb c7e7 25e0
000000a0: 1c8c becc 1f2b a408 db0e 01bf f423 2bd4
000000b0: f5a0 9fc5 ca9d 9ee8 1834 eca7 b5fd 40b7
000000c0: 029d 2f33 faf2 a729 9e1d 1ee8 b9de 3abb
000000d0: 0808 280b 3cc0 b94a c8fd 189e 152f 2f9d
000000e0: 2f20 2c15 94cd f0c0 f0d7 dff9 9a04 1e96
000000f0: f0cd 050e e0a7 273a 21ba e2fc 1e37 f329
69 -22 -26 49 -7 70 -88 -106
-14 -59 -85 -77 -18 48 -28 -56
-46 -56 -83 26 -5 -58 30 1
-35 -90 -121 -76 -18 33 -48 -89
80 -63 19 -69 -15 -54 -55 -98
-96 -20 -49 37 -41 -21 -64 -123
-109 62 -35 -42 71 -80 -18 -25
23 -9 -107 72 31 17 31 -24
51 -79 -47 -59 -63 -82 -83 -85
51 -77 -4 -48 -67 -15 72 19
4 80 0 -32 -26 -5 -5 -33
14 -38 -29 29 -63 -5 -47 -70
-46 -20 -65 31 -14 -49 -114 -93
-105 -60 57 -27 -108 -67 -19 -59
-31 -111 -42 -57 -24 11 -44 -38
-81 -105 -68 57 15 -118 -13 -74
-2 27 -47 -89 65 -71 -30 31
-84 56 -1 -42 -27 60 -51 -29
-56 24 -25 17 15 49 -90 -43
-68 18 -74 -69 -57 -25 37 -32
28 -116 -66 -52 31 43 -92 8
-37 14 1 -65 -12 35 43 -44
-11 -96 -97 -59 -54 -99 -98 -24
24 52 -20 -89 -75 -3 64 -73
2 -99 47 51 -6 -14 -89 41
-98 29 30 -24 -71 -34 58 -69
8 8 40 11 60 -64 -71 74
-56 -3 24 -98 21 47 47 -99
47 32 44 21 -108 -51 -16 -64
-16 -41 -33 -7 -102 4 30 -106
-16 -51 5 14 -32 -89 39 58
33 -70 -30 -4 30 55 -13 41
