model/tflite_final_01.tflite (tflite, 118768 bytes, 4 tensors)

model/quant_conv2d/Conv2D;model/quant_conv2d/LastValueQuant/FakeQuantWithMinMaxVarsPerChannel i1 [32, 5, 5, 1]
0	0xde	-34
1	0x09	9
2	0x29	41
3	0xbe	-66
4	0x81	-127
5	0xba	-70
6	0x08	8
7	0x39	57
8	0x1b	27
9	0xb7	-73
10	0x05	5
11	0x27	39
12	0xe2	-30
13	0xef	-17
14	0x21	33
15	0x2f	47
16	0xe9	-23
17	0xff	-1
18	0xe9	-23
19	0xff	-1
20	0x27	39
21	0x10	16
22	0xed	-19
23	0x04	4
24	0x0c	12
25	0xe6	-26
26	0x81	-127
27	0xd2	-46
28	0x5b	91
29	0x23	35
30	0x0a	10
31	0x8d	-115
32	0x0e	14
33	0x3a	58
34	0x30	48
35	0x3e	62
36	0x00	0
37	0x20	32
38	0xda	-38
39	0x14	20
40	0x2f	47
41	0xf2	-14
42	0x2a	42
43	0xef	-17
44	0xd0	-48
45	0x10	16
46	0xfe	-2
47	0x00	0
48	0xe6	-26
49	0xd7	-41
50	0x3d	61
51	0x4b	75
52	0xf0	-16
53	0x2c	44
54	0x1c	28
55	0x33	51
56	0x03	3
57	0xec	-20
58	0x1d	29
59	0xe8	-24
60	0x04	4
61	0x2f	47
62	0xe6	-26
63	0xf0	-16
64	0xfc	-4
65	0x2e	46
66	0x27	39
67	0xbd	-67
68	0x22	34
69	0xf7	-9
70	0x0a	10
71	0x38	56
72	0x0f	15
73	0xd2	-46
74	0x81	-127
75	0xf4	-12
76	0x44	68
77	0x37	55
78	0xb7	-73
79	0x81	-127
80	0xf5	-11
81	0x66	102
82	0x3d	61
83	0x01	1
84	0x83	-125
85	0x07	7
86	0x5e	94
87	0xd5	-43
88	0x11	17
89	0xe7	-25
90	0x4e	78
91	0xf7	-9
92	0xef	-17
93	0x12	18
94	0x08	8
95	0x39	57
96	0x01	1
97	0xe9	-23
98	0xe5	-27
99	0xcc	-52
100	0x19	25
101	0xf3	-13
102	0x3a	58
103	0xe4	-28
104	0x0d	13
105	0xd9	-39
106	0x17	23
107	0xec	-20
108	0x07	7
109	0x2d	45
110	0x13	19
111	0xc8	-56
112	0xd4	-44
113	0x2d	45
114	0x2b	43
115	0xac	-84
116	0x9f	-97
117	0x36	54
118	0x7f	127
119	0xee	-18
120	0x98	-104
121	0xf3	-13
122	0x2b	43
123	0x3c	60
124	0xf9	-7
125	0xd2	-46
126	0xf9	-7
127	0x2a	42
128	0x96	-106
129	0x19	25
130	0x00	0
131	0x81	-127
132	0xf9	-7
133	0x04	4
134	0x30	48
135	0x16	22
136	0x24	36
137	0x55	85
138	0xb4	-76
139	0xc0	-64
140	0x55	85
141	0x11	17
142	0x82	-126
143	0xa6	-90
144	0x46	70
145	0x56	86
146	0x26	38
147	0x36	54
148	0xbe	-66
149	0x61	97
150	0x10	16
151	0x32	50
152	0x50	80
153	0x93	-109
154	0xfb	-5
155	0xf0	-16
156	0x09	9
157	0x7f	127
158	0xa1	-95
159	0xdb	-37
160	0xfc	-4
161	0xeb	-21
162	0x35	53
163	0xa7	-89
164	0x33	51
165	0x11	17
166	0x17	23
167	0x59	89
168	0xaa	-86
169	0xee	-18
170	0xd3	-45
171	0x05	5
172	0x4b	75
173	0xf5	-11
174	0xec	-20
175	0xad	-83
176	0xa4	-92
177	0x55	85
178	0x30	48
179	0x4d	77
180	0xc5	-59
181	0x94	-108
182	0x4b	75
183	0x23	35
184	0x31	49
185	0x29	41
186	0x81	-127
187	0x4e	78
188	0xf9	-7
189	0x44	68
190	0xaa	-86
191	0x9b	-101
192	0x34	52
193	0x1a	26
194	0x7e	126
195	0x0a	10
196	0xb0	-80
197	0x9a	-102
198	0xd4	-44
199	0xf3	-13
200	0xfc	-4
201	0xfd	-3
202	0x4c	76
203	0x43	67
204	0x6b	107
205	0x1f	31
206	0x3b	59
207	0x41	65
208	0x17	23
209	0x1a	26
210	0x1a	26
211	0x33	51
212	0x16	22
213	0xc7	-57
214	0xe2	-30
215	0x0e	14
216	0xe1	-31
217	0x0d	13
218	0xc1	-63
219	0xc4	-60
220	0xeb	-21
221	0xda	-38
222	0xa2	-94
223	0x81	-127
224	0xe3	-29
225	0xc3	-61
226	0x18	24
227	0x26	38
228	0x04	4
229	0x08	8
230	0xd2	-46
231	0x17	23
232	0x26	38
233	0xe0	-32
234	0xd2	-46
235	0xdd	-35
236	0x6c	108
237	0xf0	-16
238	0x16	22
239	0x16	22
240	0x8f	-113
241	0x70	112
242	0xdb	-37
243	0xeb	-21
244	0xf5	-11
245	0x81	-127
246	0x6d	109
247	0x0f	15
248	0x05	5
249	0x15	21
250	0xee	-18
251	0x9d	-99
252	0xe0	-32
253	0xf6	-10
254	0x0f	15
255	0xac	-84

model/quant_conv2d_1/Conv2D;model/quant_conv2d_1/LastValueQuant/FakeQuantWithMinMaxVarsPerChannel i1 [64, 5, 5, 32]
0	0xee	-18
1	0xe9	-23
2	0xec	-20
3	0x06	6
4	0xe6	-26
5	0x06	6
6	0x0d	13
7	0xcb	-53
8	0x12	18
9	0x0d	13
10	0x07	7
11	0xd2	-46
12	0xef	-17
13	0xee	-18
14	0x43	67
15	0xec	-20
16	0xe1	-31
17	0x06	6
18	0xf2	-14
19	0xc4	-60
20	0x02	2
21	0xff	-1
22	0xd0	-48
23	0x0f	15
24	0xed	-19
25	0xef	-17
26	0xec	-20
27	0xb2	-78
28	0xfb	-5
29	0xda	-38
30	0xf6	-10
31	0xfd	-3
32	0xd8	-40
33	0xda	-38
34	0x01	1
35	0xc8	-56
36	0xdc	-36
37	0x06	6
38	0xb2	-78
39	0xfd	-3
40	0x09	9
41	0xc4	-60
42	0x1c	28
43	0xbd	-67
44	0xf0	-16
45	0x12	18
46	0x5a	90
47	0xf4	-12
48	0xf0	-16
49	0x15	21
50	0xe0	-32
51	0x15	21
52	0xcf	-49
53	0xcc	-52
54	0x2b	43
55	0xeb	-21
56	0xcf	-49
57	0x2b	43
58	0xe5	-27
59	0xf9	-7
60	0xf2	-14
61	0xf6	-10
62	0xfe	-2
63	0xc5	-59
64	0xe0	-32
65	0xfd	-3
66	0xe0	-32
67	0xf8	-8
68	0xfe	-2
69	0xe0	-32
70	0x30	48
71	0xfb	-5
72	0x01	1
73	0xdc	-36
74	0x33	51
75	0xf5	-11
76	0xde	-34
77	0x02	2
78	0x1d	29
79	0x2f	47
80	0xef	-17
81	0xfe	-2
82	0x03	3
83	0x0f	15
84	0x23	35
85	0x11	17
86	0xfd	-3
87	0xc3	-61
88	0xaf	-81
89	0x08	8
90	0xe4	-28
91	0xee	-18
92	0xcf	-49
93	0x0a	10
94	0x2b	43
95	0xcc	-52
96	0x04	4
97	0xed	-19
98	0x03	3
99	0x21	33
100	0xf8	-8
101	0x0b	11
102	0x18	24
103	0x0e	14
104	0x0b	11
105	0x05	5
106	0x02	2
107	0xfb	-5
108	0xf1	-15
109	0x09	9
110	0x14	20
111	0xd1	-47
112	0xee	-18
113	0x06	6
114	0xe9	-23
115	0x1d	29
116	0xef	-17
117	0xe0	-32
118	0x11	17
119	0x15	21
120	0x06	6
121	0x10	16
122	0xf9	-7
123	0x00	0
124	0x2e	46
125	0x05	5
126	0x09	9
127	0xe1	-31
128	0xfd	-3
129	0x00	0
130	0xf5	-11
131	0xe3	-29
132	0x18	24
133	0xc4	-60
134	0xfd	-3
135	0xfd	-3
136	0xfd	-3
137	0xf3	-13
138	0xd6	-42
139	0x28	40
140	0xfa	-6
141	0x0c	12
142	0x2c	44
143	0x09	9
144	0xf3	-13
145	0x0c	12
146	0xe3	-29
147	0xfd	-3
148	0x06	6
149	0x02	2
150	0xcc	-52
151	0xeb	-21
152	0xed	-19
153	0xf3	-13
154	0xdf	-33
155	0xe8	-24
156	0xdb	-37
157	0xf5	-11
158	0x08	8
159	0x0a	10
160	0x05	5
161	0xfc	-4
162	0xe6	-26
163	0x09	9
164	0xee	-18
165	0xeb	-21
166	0x17	23
167	0xc1	-63
168	0x1a	26
169	0x0d	13
170	0xfb	-5
171	0xf8	-8
172	0xe5	-27
173	0xee	-18
174	0x4e	78
175	0xde	-34
176	0xe0	-32
177	0xff	-1
178	0xe8	-24
179	0xc9	-55
180	0xf9	-7
181	0x03	3
182	0xd6	-42
183	0x1d	29
184	0xe8	-24
185	0x08	8
186	0xd0	-48
187	0xab	-85
188	0xf6	-10
189	0xeb	-21
190	0x08	8
191	0xe5	-27
192	0xe4	-28
193	0xc8	-56
194	0xf1	-15
195	0xea	-22
196	0x06	6
197	0x1a	26
198	0x91	-111
199	0xed	-19
200	0x13	19
201	0xad	-83
202	0x21	33
203	0xea	-22
204	0x00	0
205	0x1d	29
206	0x50	80
207	0x0a	10
208	0x07	7
209	0x1b	27
210	0x07	7
211	0x0f	15
212	0xa3	-93
213	0xee	-18
214	0x0b	11
215	0x2f	47
216	0x06	6
217	0x2e	46
218	0xc7	-57
219	0x08	8
220	0x16	22
221	0xf1	-15
222	0x0e	14
223	0xfa	-6
224	0xd6	-42
225	0x04	4
226	0xd6	-42
227	0xcf	-49
228	0xfa	-6
229	0xe2	-30
230	0x3b	59
231	0xf5	-11
232	0x16	22
233	0x10	16
234	0x43	67
235	0x0d	13
236	0xff	-1
237	0xfb	-5
238	0x52	82
239	0xfc	-4
240	0xf7	-9
241	0x35	53
242	0x12	18
243	0xe8	-24
244	0x21	33
245	0x10	16
246	0x01	1
247	0xd8	-40
248	0xf6	-10
249	0x1e	30
250	0xcb	-53
251	0xe2	-30
252	0xc0	-64
253	0xe6	-26
254	0x1f	31
255	0x03	3

model/quant_conv2d_2/Conv2D;model/quant_conv2d_2/LastValueQuant/FakeQuantWithMinMaxVarsPerChannel i1 [96, 3, 3, 64]
0	0x45	69
1	0xea	-22
2	0xe6	-26
3	0x31	49
4	0xf9	-7
5	0x46	70
6	0xa8	-88
7	0x96	-106
8	0xf2	-14
9	0xc5	-59
10	0xab	-85
11	0xb3	-77
12	0xee	-18
13	0x30	48
14	0xe4	-28
15	0xc8	-56
16	0xd2	-46
17	0xc8	-56
18	0xad	-83
19	0x1a	26
20	0xfb	-5
21	0xc6	-58
22	0x1e	30
23	0x01	1
24	0xdd	-35
25	0xa6	-90
26	0x87	-121
27	0xb4	-76
28	0xee	-18
29	0x21	33
30	0xd0	-48
31	0xa7	-89
32	0x50	80
33	0xc1	-63
34	0x13	19
35	0xbb	-69
36	0xf1	-15
37	0xca	-54
38	0xc9	-55
39	0x9e	-98
40	0xa0	-96
41	0xec	-20
42	0xcf	-49
43	0x25	37
44	0xd7	-41
45	0xeb	-21
46	0xc0	-64
47	0x85	-123
48	0x93	-109
49	0x3e	62
50	0xdd	-35
51	0xd6	-42
52	0x47	71
53	0xb0	-80
54	0xee	-18
55	0xe7	-25
56	0x17	23
57	0xf7	-9
58	0x95	-107
59	0x48	72
60	0x1f	31
61	0x11	17
62	0x1f	31
63	0xe8	-24
64	0x33	51
65	0xb1	-79
66	0xd1	-47
67	0xc5	-59
68	0xc1	-63
69	0xae	-82
70	0xad	-83
71	0xab	-85
72	0x33	51
73	0xb3	-77
74	0xfc	-4
75	0xd0	-48
76	0xbd	-67
77	0xf1	-15
78	0x48	72
79	0x13	19
80	0x04	4
81	0x50	80
82	0x00	0
83	0xe0	-32
84	0xe6	-26
85	0xfb	-5
86	0xfb	-5
87	0xdf	-33
88	0x0e	14
89	0xda	-38
90	0xe3	-29
91	0x1d	29
92	0xc1	-63
93	0xfb	-5
94	0xd1	-47
95	0xba	-70
96	0xd2	-46
97	0xec	-20
98	0xbf	-65
99	0x1f	31
100	0xf2	-14
101	0xcf	-49
102	0x8e	-114
103	0xa3	-93
104	0x97	-105
105	0xc4	-60
106	0x39	57
107	0xe5	-27
108	0x94	-108
109	0xbd	-67
110	0xed	-19
111	0xc5	-59
112	0xe1	-31
113	0x91	-111
114	0xd6	-42
115	0xc7	-57
116	0xe8	-24
117	0x0b	11
118	0xd4	-44
119	0xda	-38
120	0xaf	-81
121	0x97	-105
122	0xbc	-68
123	0x39	57
124	0x0f	15
125	0x8a	-118
126	0xf3	-13
127	0xb6	-74
128	0xfe	-2
129	0x1b	27
130	0xd1	-47
131	0xa7	-89
132	0x41	65
133	0xb9	-71
134	0xe2	-30
135	0x1f	31
136	0xac	-84
137	0x38	56
138	0xff	-1
139	0xd6	-42
140	0xe5	-27
141	0x3c	60
142	0xcd	-51
143	0xe3	-29
144	0xc8	-56
145	0x18	24
146	0xe7	-25
147	0x11	17
148	0x0f	15
149	0x31	49
150	0xa6	-90
151	0xd5	-43
152	0xbc	-68
153	0x12	18
154	0xb6	-74
155	0xbb	-69
156	0xc7	-57
157	0xe7	-25
158	0x25	37
159	0xe0	-32
160	0x1c	28
161	0x8c	-116
162	0xbe	-66
163	0xcc	-52
164	0x1f	31
165	0x2b	43
166	0xa4	-92
167	0x08	8
168	0xdb	-37
169	0x0e	14
170	0x01	1
171	0xbf	-65
172	0xf4	-12
173	0x23	35
174	0x2b	43
175	0xd4	-44
176	0xf5	-11
177	0xa0	-96
178	0x9f	-97
179	0xc5	-59
180	0xca	-54
181	0x9d	-99
182	0x9e	-98
183	0xe8	-24
184	0x18	24
185	0x34	52
186	0xec	-20
187	0xa7	-89
188	0xb5	-75
189	0xfd	-3
190	0x40	64
191	0xb7	-73
192	0x02	2
193	0x9d	-99
194	0x2f	47
195	0x33	51
196	0xfa	-6
197	0xf2	-14
198	0xa7	-89
199	0x29	41
200	0x9e	-98
201	0x1d	29
202	0x1e	30
203	0xe8	-24
204	0xb9	-71
205	0xde	-34
206	0x3a	58
207	0xbb	-69
208	0x08	8
209	0x08	8
210	0x28	40
211	0x0b	11
212	0x3c	60
213	0xc0	-64
214	0xb9	-71
215	0x4a	74
216	0xc8	-56
217	0xfd	-3
218	0x18	24
219	0x9e	-98
220	0x15	21
221	0x2f	47
222	0x2f	47
223	0x9d	-99
224	0x2f	47
225	0x20	32
226	0x2c	44
227	0x15	21
228	0x94	-108
229	0xcd	-51
230	0xf0	-16
231	0xc0	-64
232	0xf0	-16
233	0xd7	-41
234	0xdf	-33
235	0xf9	-7
236	0x9a	-102
237	0x04	4
238	0x1e	30
239	0x96	-106
240	0xf0	-16
241	0xcd	-51
242	0x05	5
243	0x0e	14
244	0xe0	-32
245	0xa7	-89
246	0x27	39
247	0x3a	58
248	0x21	33
249	0xba	-70
250	0xe2	-30
251	0xfc	-4
252	0x1e	30
253	0x37	55
254	0xf3	-13
255	0x29	41

model/quant_dense_last/MatMul;model/quant_dense_last/LastValueQuant/FakeQuantWithMinMaxVars i1 [10, 96] scale=0.010302725 zero_point=0
0	0x04	0.0412109
1	0x01	0.010302725
2	0xfa	-0.06181635
3	0x06	0.06181635
4	0xff	-0.010302725
5	0xf6	-0.103027254
6	0xee	-0.18544905
7	0x14	0.20605451
8	0xee	-0.18544905
9	0xf8	-0.0824218
10	0xff	-0.010302725
11	0xfa	-0.06181635
12	0xe2	-0.30908176
13	0xf3	-0.13393542
14	0xf8	-0.0824218
15	0x0b	0.11332998
16	0x0d	0.13393542
17	0x05	0.051513627
18	0xdd	-0.36059538
19	0xf4	-0.1236327
20	0xe8	-0.2472654
21	0xee	-0.18544905
22	0x08	0.0824218
23	0x08	0.0824218
24	0xfc	-0.0412109
25	0xe5	-0.2781736
26	0x12	0.18544905
27	0x0f	0.15454088
28	0xd2	-0.47392535
29	0xe9	-0.23696268
30	0x15	0.21635723
31	0xd6	-0.43271446
32	0x13	0.19575179
33	0x0c	0.1236327
34	0x0c	0.1236327
35	0xff	-0.010302725
36	0x09	0.092724524
37	0xf8	-0.0824218
38	0x01	0.010302725
39	0x12	0.18544905
40	0xfa	-0.06181635
41	0x0d	0.13393542
42	0xfe	-0.02060545
43	0x0d	0.13393542
44	0x08	0.0824218
45	0xf6	-0.103027254
46	0x0c	0.1236327
47	0x1b	0.2781736
48	0x05	0.051513627
49	0xff	-0.010302725
50	0xfb	-0.051513627
51	0xfb	-0.051513627
52	0xf5	-0.11332998
53	0x0d	0.13393542
54	0xe3	-0.29877904
55	0xe7	-0.25756812
56	0xf8	-0.0824218
57	0x04	0.0412109
58	0x13	0.19575179
59	0x04	0.0412109
60	0xed	-0.19575179
61	0xe6	-0.26787084
62	0x20	0.3296872
63	0x0f	0.15454088
64	0xdd	-0.36059538
65	0xf4	-0.1236327
66	0x00	0.0
67	0x1f	0.3193845
68	0xf8	-0.0824218
69	0xe7	-0.25756812
70	0x0a	0.103027254
71	0x15	0.21635723
72	0x0e	0.14423816
73	0x0e	0.14423816
74	0xf7	-0.092724524
75	0x07	0.07211908
76	0xe8	-0.2472654
77	0xe9	-0.23696268
78	0xf1	-0.15454088
79	0x12	0.18544905
80	0x06	0.06181635
81	0x1b	0.2781736
82	0x1a	0.26787084
83	0x0d	0.13393542
84	0x09	0.092724524
85	0x22	0.35029265
86	0x06	0.06181635
87	0xe7	-0.25756812
88	0xe9	-0.23696268
89	0xf2	-0.14423816
90	0xd6	-0.43271446
91	0xef	-0.17514633
92	0xfe	-0.02060545
93	0x07	0.07211908
94	0xee	-0.18544905
95	0x09	0.092724524
96	0xf8	-0.0824218
97	0xf4	-0.1236327
98	0x19	0.25756812
99	0x1c	0.28847632
100	0xee	-0.18544905
101	0xb9	-0.7314935
102	0xba	-0.72119075
103	0xf2	-0.14423816
104	0x0f	0.15454088
105	0xc3	-0.62846625
106	0x18	0.2472654
107	0x16	0.22665995
108	0xde	-0.35029265
109	0xf0	-0.1648436
110	0x1d	0.29877904
111	0xe8	-0.2472654
112	0x2c	0.4533199
113	0xe5	-0.2781736
114	0x23	0.36059538
115	0xea	-0.22665995
116	0xc8	-0.57695264
117	0xe7	-0.25756812
118	0x03	0.030908175
119	0xb1	-0.8139153
120	0xe8	-0.2472654
121	0xea	-0.22665995
122	0xd4	-0.4533199
123	0x15	0.21635723
124	0x03	0.030908175
125	0xf1	-0.15454088
126	0xf7	-0.092724524
127	0x1d	0.29877904
128	0xe7	-0.25756812
129	0xc2	-0.638769
130	0x0f	0.15454088
131	0x27	0.4018063
132	0x10	0.1648436
133	0xd6	-0.43271446
134	0xbc	-0.7005853
135	0xf9	-0.07211908
136	0x0f	0.15454088
137	0xe3	-0.29877904
138	0xfe	-0.02060545
139	0xf6	-0.103027254
140	0xdf	-0.33998993
141	0xe9	-0.23696268
142	0xfa	-0.06181635
143	0xe7	-0.25756812
144	0x0a	0.103027254
145	0x1a	0.26787084
146	0xf8	-0.0824218
147	0xc7	-0.58725536
148	0x18	0.2472654
149	0x10	0.1648436
150	0xf4	-0.1236327
151	0x0a	0.103027254
152	0x0a	0.103027254
153	0x25	0.38120082
154	0x29	0.42241174
155	0x01	0.010302725
156	0xde	-0.35029265
157	0xe2	-0.30908176
158	0x04	0.0412109
159	0xef	-0.17514633
160	0xfd	-0.030908175
161	0xd6	-0.43271446
162	0x09	0.092724524
163	0xe9	-0.23696268
164	0x04	0.0412109
165	0x0f	0.15454088
166	0xf8	-0.0824218
167	0xed	-0.19575179
168	0x0c	0.1236327
169	0xd4	-0.4533199
170	0x0b	0.11332998
171	0xee	-0.18544905
172	0xcb	-0.5460444
173	0x20	0.3296872
174	0x1c	0.28847632
175	0xed	-0.19575179
176	0x02	0.02060545
177	0xe5	-0.2781736
178	0xfd	-0.030908175
179	0x11	0.17514633
180	0xcd	-0.52543896
181	0x08	0.0824218
182	0xd1	-0.48422807
183	0xdd	-0.36059538
184	0x0e	0.14423816
185	0xea	-0.22665995
186	0xec	-0.20605451
187	0xe1	-0.3193845
188	0x18	0.2472654
189	0xfd	-0.030908175
190	0xee	-0.18544905
191	0xc4	-0.6181635
192	0x08	0.0824218
193	0x05	0.051513627
194	0xec	-0.20605451
195	0xf7	-0.092724524
196	0x1b	0.2781736
197	0x0c	0.1236327
198	0x07	0.07211908
199	0xe9	-0.23696268
200	0x0e	0.14423816
201	0x00	0.0
202	0x01	0.010302725
203	0xef	-0.17514633
204	0xe1	-0.3193845
205	0xea	-0.22665995
206	0xd6	-0.43271446
207	0xe5	-0.2781736
208	0xe8	-0.2472654
209	0x12	0.18544905
210	0x13	0.19575179
211	0xd8	-0.41210902
212	0x14	0.20605451
213	0xfa	-0.06181635
214	0xf0	-0.1648436
215	0x0c	0.1236327
216	0xe3	-0.29877904
217	0x06	0.06181635
218	0x05	0.051513627
219	0x09	0.092724524
220	0x10	0.1648436
221	0xfe	-0.02060545
222	0x1f	0.3193845
223	0x0a	0.103027254
224	0xfd	-0.030908175
225	0xf7	-0.092724524
226	0x14	0.20605451
227	0xf7	-0.092724524
228	0xec	-0.20605451
229	0x14	0.20605451
230	0xd7	-0.42241174
231	0xfd	-0.030908175
232	0xfa	-0.06181635
233	0x1a	0.26787084
234	0x1b	0.2781736
235	0xeb	-0.21635723
236	0x13	0.19575179
237	0x08	0.0824218
238	0xe1	-0.3193845
239	0xf0	-0.1648436
240	0xff	-0.010302725
241	0x05	0.051513627
242	0xf7	-0.092724524
243	0x0d	0.13393542
244	0xec	-0.20605451
245	0x13	0.19575179
246	0x1d	0.29877904
247	0xee	-0.18544905
248	0xe1	-0.3193845
249	0x08	0.0824218
250	0x03	0.030908175
251	0x1f	0.3193845
252	0x11	0.17514633
253	0x1b	0.2781736
254	0xef	-0.17514633
255	0xfc	-0.0412109
