model/tflite_ep2_2023-07-02_15-17-06.tflite (tflite, 118768 bytes, 4 tensors)

model/quant_conv2d/Conv2D;model/quant_conv2d/LastValueQuant/FakeQuantWithMinMaxVarsPerChannel i1 [32, 5, 5, 1]
0	0xe3	-29
1	0x0b	11
2	0x2a	42
3	0xbd	-67
4	0x81	-127
5	0xbd	-67
6	0x0a	10
7	0x36	54
8	0x13	19
9	0xb7	-73
10	0x08	8
11	0x2a	42
12	0xe3	-29
13	0xeb	-21
14	0x1f	31
15	0x2f	47
16	0xea	-22
17	0xfe	-2
18	0xe7	-25
19	0xff	-1
20	0x29	41
21	0x12	18
22	0xf0	-16
23	0x04	4
24	0x0a	10
25	0xe6	-26
26	0x81	-127
27	0xd2	-46
28	0x60	96
29	0x28	40
30	0x0a	10
31	0x88	-120
32	0x0e	14
33	0x3f	63
34	0x35	53
35	0x3f	63
36	0x01	1
37	0x22	34
38	0xd8	-40
39	0x15	21
40	0x2d	45
41	0xf4	-12
42	0x2d	45
43	0xeb	-21
44	0xcc	-52
45	0x0c	12
46	0xfc	-4
47	0x01	1
48	0xe3	-29
49	0xd3	-45
50	0x3e	62
51	0x4d	77
52	0xf2	-14
53	0x2f	47
54	0x23	35
55	0x35	53
56	0x05	5
57	0xec	-20
58	0x1e	30
59	0xec	-20
60	0x08	8
61	0x30	48
62	0xe6	-26
63	0xf3	-13
64	0x01	1
65	0x30	48
66	0x27	39
67	0xbf	-65
68	0x26	38
69	0xf9	-7
70	0x0c	12
71	0x3a	58
72	0x12	18
73	0xd6	-42
74	0x81	-127
75	0xf4	-12
76	0x46	70
77	0x38	56
78	0xb5	-75
79	0x81	-127
80	0xf3	-13
81	0x69	105
82	0x40	64
83	0x00	0
84	0x81	-127
85	0x08	8
86	0x63	99
87	0xd4	-44
88	0x0f	15
89	0xe6	-26
90	0x4e	78
91	0xf9	-7
92	0xed	-19
93	0x0f	15
94	0x08	8
95	0x37	55
96	0x00	0
97	0xe8	-24
98	0xe1	-31
99	0xcc	-52
100	0x18	24
101	0xef	-17
102	0x3d	61
103	0xe6	-26
104	0x11	17
105	0xd9	-39
106	0x16	22
107	0xee	-18
108	0x05	5
109	0x2d	45
110	0x14	20
111	0xc8	-56
112	0xd4	-44
113	0x2e	46
114	0x2a	42
115	0xae	-82
116	0x9f	-97
117	0x34	52
118	0x7f	127
119	0xef	-17
120	0x99	-103
121	0xef	-17
122	0x26	38
123	0x3b	59
124	0xf9	-7
125	0xdc	-36
126	0xff	-1
127	0x2d	45
128	0x92	-110
129	0x19	25
130	0x07	7
131	0x85	-123
132	0xfd	-3
133	0x03	3
134	0x2d	45
135	0x1d	29
136	0x26	38
137	0x58	88
138	0xb7	-73
139	0xc4	-60
140	0x5a	90
141	0x0e	14
142	0x81	-127
143	0xa1	-95
144	0x46	70
145	0x5a	90
146	0x23	35
147	0x2f	47
148	0xb8	-72
149	0x60	96
150	0x0d	13
151	0x31	49
152	0x50	80
153	0x91	-111
154	0xfb	-5
155	0xed	-19
156	0x07	7
157	0x7f	127
158	0xa0	-96
159	0xdb	-37
160	0xfa	-6
161	0xe9	-23
162	0x35	53
163	0xa3	-93
164	0x34	52
165	0x0f	15
166	0x15	21
167	0x58	88
168	0xa7	-89
169	0xed	-19
170	0xcf	-49
171	0x03	3
172	0x4a	74
173	0xf3	-13
174	0xec	-20
175	0xb1	-79
176	0x9b	-101
177	0x4d	77
178	0x2a	42
179	0x49	73
180	0xc9	-55
181	0x93	-109
182	0x49	73
183	0x22	34
184	0x32	50
185	0x27	39
186	0x81	-127
187	0x4b	75
188	0xf5	-11
189	0x3a	58
190	0xbb	-69
191	0xa6	-90
192	0x32	50
193	0x16	22
194	0x77	119
195	0x0e	14
196	0xa9	-87
197	0x9a	-102
198	0xd0	-48
199	0xf3	-13
200	0xfa	-6
201	0xfc	-4
202	0x4d	77
203	0x41	65
204	0x6c	108
205	0x1b	27
206	0x3b	59
207	0x43	67
208	0x13	19
209	0x18	24
210	0x17	23
211	0x32	50
212	0x17	23
213	0xc4	-60
214	0xde	-34
215	0x0d	13
216	0xe2	-30
217	0x0f	15
218	0xbf	-65
219	0xc3	-61
220	0xea	-22
221	0xd8	-40
222	0xa2	-94
223	0x81	-127
224	0xe5	-27
225	0xc3	-61
226	0x1b	27
227	0x2a	42
228	0x07	7
229	0x09	9
230	0xd5	-43
231	0x19	25
232	0x2a	42
233	0xe1	-31
234	0xd2	-46
235	0xdd	-35
236	0x6f	111
237	0xf3	-13
238	0x17	23
239	0x16	22
240	0x90	-112
241	0x71	113
242	0xdb	-37
243	0xec	-20
244	0xf5	-11
245	0x81	-127
246	0x6c	108
247	0x0e	14
248	0x06	6
249	0x13	19
250	0xef	-17
251	0x9d	-99
252	0xe0	-32
253	0xf6	-10
254	0x10	16
255	0xac	-84

model/quant_conv2d_1/Conv2D;model/quant_conv2d_1/LastValueQuant/FakeQuantWithMinMaxVarsPerChannel i1 [64, 5, 5, 32]
0	0xf3	-13
1	0xe5	-27
2	0xeb	-21
3	0x04	4
4	0xe4	-28
5	0xfe	-2
6	0x0a	10
7	0xc8	-56
8	0x0f	15
9	0x0d	13
10	0x08	8
11	0xcb	-53
12	0xf2	-14
13	0xe9	-23
14	0x44	68
15	0xe7	-25
16	0xd8	-40
17	0x0a	10
18	0xf3	-13
19	0xc7	-57
20	0xfe	-2
21	0xfa	-6
22	0xcb	-53
23	0x0b	11
24	0xeb	-21
25	0xed	-19
26	0xea	-22
27	0xad	-83
28	0xfe	-2
29	0xd7	-41
30	0xf3	-13
31	0xf8	-8
32	0xd8	-40
33	0xd4	-44
34	0xff	-1
35	0xbf	-65
36	0xd8	-40
37	0x02	2
38	0xac	-84
39	0xfc	-4
40	0x05	5
41	0xc4	-60
42	0x1d	29
43	0xbb	-69
44	0xf1	-15
45	0x10	16
46	0x5b	91
47	0xe6	-26
48	0xea	-22
49	0x13	19
50	0xe0	-32
51	0x15	21
52	0xcb	-53
53	0xc8	-56
54	0x2b	43
55	0xe7	-25
56	0xd1	-47
57	0x2c	44
58	0xe5	-27
59	0xf7	-9
60	0xef	-17
61	0xf3	-13
62	0xfb	-5
63	0xbf	-65
64	0xdb	-37
65	0xf9	-7
66	0xe1	-31
67	0xf5	-11
68	0xfe	-2
69	0xe1	-31
70	0x37	55
71	0xf9	-7
72	0xfe	-2
73	0xd7	-41
74	0x35	53
75	0xf4	-12
76	0xdd	-35
77	0x00	0
78	0x1a	26
79	0x31	49
80	0xec	-20
81	0xfb	-5
82	0x06	6
83	0x11	17
84	0x26	38
85	0x17	23
86	0xf7	-9
87	0xc2	-62
88	0xac	-84
89	0x05	5
90	0xe4	-28
91	0xed	-19
92	0xcd	-51
93	0x08	8
94	0x29	41
95	0xca	-54
96	0xfd	-3
97	0xee	-18
98	0x07	7
99	0x20	32
100	0xf7	-9
101	0x0f	15
102	0x13	19
103	0x0d	13
104	0x0d	13
105	0x06	6
106	0x01	1
107	0xfb	-5
108	0xef	-17
109	0x0c	12
110	0x15	21
111	0xd3	-45
112	0xec	-20
113	0x07	7
114	0xe6	-26
115	0x1f	31
116	0xf0	-16
117	0xe2	-30
118	0x18	24
119	0x1a	26
120	0x0a	10
121	0x0f	15
122	0xfa	-6
123	0x01	1
124	0x30	48
125	0x04	4
126	0x09	9
127	0xdf	-33
128	0xfa	-6
129	0xf8	-8
130	0xf4	-12
131	0xe1	-31
132	0x18	24
133	0xbe	-66
134	0x02	2
135	0xfa	-6
136	0xff	-1
137	0xf2	-14
138	0xd0	-48
139	0x2b	43
140	0x03	3
141	0x0b	11
142	0x2e	46
143	0x07	7
144	0xf4	-12
145	0x12	18
146	0xdf	-33
147	0x00	0
148	0x08	8
149	0xfd	-3
150	0xc8	-56
151	0xec	-20
152	0xeb	-21
153	0xf6	-10
154	0xdc	-36
155	0xe0	-32
156	0xd9	-39
157	0xf4	-12
158	0x0d	13
159	0x0b	11
160	0x0b	11
161	0xfc	-4
162	0xe3	-29
163	0x07	7
164	0xf1	-15
165	0xf1	-15
166	0x17	23
167	0xbc	-68
168	0x16	22
169	0x0d	13
170	0xfb	-5
171	0xf6	-10
172	0xe6	-26
173	0xe7	-25
174	0x4e	78
175	0xd6	-42
176	0xe3	-29
177	0xfa	-6
178	0xe8	-24
179	0xcb	-53
180	0xf5	-11
181	0x06	6
182	0xce	-50
183	0x1a	26
184	0xe2	-30
185	0x06	6
186	0xcd	-51
187	0xa5	-91
188	0xf9	-7
189	0xe7	-25
190	0x04	4
191	0xe8	-24
192	0xe1	-31
193	0xc4	-60
194	0xef	-17
195	0xe5	-27
196	0x04	4
197	0x1f	31
198	0x85	-123
199	0xec	-20
200	0x11	17
201	0xae	-82
202	0x21	33
203	0xe7	-25
204	0x01	1
205	0x1d	29
206	0x51	81
207	0x01	1
208	0x0c	12
209	0x19	25
210	0x08	8
211	0x0f	15
212	0x99	-103
213	0xe3	-29
214	0x0a	10
215	0x2f	47
216	0x0b	11
217	0x2d	45
218	0xc7	-57
219	0x07	7
220	0x18	24
221	0xec	-20
222	0x0b	11
223	0xfd	-3
224	0xd2	-46
225	0x09	9
226	0xd6	-42
227	0xce	-50
228	0xf8	-8
229	0xe8	-24
230	0x41	65
231	0xf3	-13
232	0x1a	26
233	0x0f	15
234	0x45	69
235	0x0d	13
236	0xfe	-2
237	0xfa	-6
238	0x53	83
239	0x00	0
240	0xf7	-9
241	0x35	53
242	0x14	20
243	0xe5	-27
244	0x24	36
245	0x15	21
246	0xff	-1
247	0xd4	-44
248	0xf4	-12
249	0x1e	30
250	0xc8	-56
251	0xdd	-35
252	0xbd	-67
253	0xe0	-32
254	0x20	32
255	0x06	6

model/quant_conv2d_2/Conv2D;model/quant_conv2d_2/LastValueQuant/FakeQuantWithMinMaxVarsPerChannel i1 [96, 3, 3, 64]
0	0x45	69
1	0xea	-22
2	0xe6	-26
3	0x31	49
4	0xf9	-7
5	0x46	70
6	0xa8	-88
7	0x96	-106
8	0xf2	-14
9	0xc5	-59
10	0xab	-85
11	0xb3	-77
12	0xee	-18
13	0x30	48
14	0xe4	-28
15	0xc8	-56
16	0xd2	-46
17	0xc8	-56
18	0xad	-83
19	0x1a	26
20	0xfb	-5
21	0xc6	-58
22	0x1e	30
23	0x01	1
24	0xdd	-35
25	0xa6	-90
26	0x87	-121
27	0xb4	-76
28	0xee	-18
29	0x21	33
30	0xd0	-48
31	0xa7	-89
32	0x50	80
33	0xc1	-63
34	0x13	19
35	0xbb	-69
36	0xf1	-15
37	0xca	-54
38	0xc9	-55
39	0x9e	-98
40	0xa0	-96
41	0xec	-20
42	0xcf	-49
43	0x25	37
44	0xd7	-41
45	0xeb	-21
46	0xc0	-64
47	0x85	-123
48	0x93	-109
49	0x3e	62
50	0xdd	-35
51	0xd6	-42
52	0x47	71
53	0xb0	-80
54	0xee	-18
55	0xe7	-25
56	0x17	23
57	0xf7	-9
58	0x95	-107
59	0x48	72
60	0x1f	31
61	0x11	17
62	0x1f	31
63	0xe8	-24
64	0x33	51
65	0xb1	-79
66	0xd1	-47
67	0xc5	-59
68	0xc1	-63
69	0xae	-82
70	0xad	-83
71	0xab	-85
72	0x33	51
73	0xb3	-77
74	0xfc	-4
75	0xd0	-48
76	0xbd	-67
77	0xf1	-15
78	0x48	72
79	0x13	19
80	0x04	4
81	0x50	80
82	0x00	0
83	0xe0	-32
84	0xe6	-26
85	0xfb	-5
86	0xfb	-5
87	0xdf	-33
88	0x0e	14
89	0xda	-38
90	0xe3	-29
91	0x1d	29
92	0xc1	-63
93	0xfb	-5
94	0xd1	-47
95	0xba	-70
96	0xd2	-46
97	0xec	-20
98	0xbf	-65
99	0x1f	31
100	0xf2	-14
101	0xcf	-49
102	0x8e	-114
103	0xa3	-93
104	0x97	-105
105	0xc4	-60
106	0x39	57
107	0xe5	-27
108	0x94	-108
109	0xbd	-67
110	0xed	-19
111	0xc5	-59
112	0xe1	-31
113	0x91	-111
114	0xd6	-42
115	0xc7	-57
116	0xe8	-24
117	0x0b	11
118	0xd4	-44
119	0xda	-38
120	0xaf	-81
121	0x97	-105
122	0xbc	-68
123	0x39	57
124	0x0f	15
125	0x8a	-118
126	0xf3	-13
127	0xb6	-74
128	0xfe	-2
129	0x1b	27
130	0xd1	-47
131	0xa7	-89
132	0x41	65
133	0xb9	-71
134	0xe2	-30
135	0x1f	31
136	0xac	-84
137	0x38	56
138	0xff	-1
139	0xd6	-42
140	0xe5	-27
141	0x3c	60
142	0xcd	-51
143	0xe3	-29
144	0xc8	-56
145	0x18	24
146	0xe7	-25
147	0x11	17
148	0x0f	15
149	0x31	49
150	0xa6	-90
151	0xd5	-43
152	0xbc	-68
153	0x12	18
154	0xb6	-74
155	0xbb	-69
156	0xc7	-57
157	0xe7	-25
158	0x25	37
159	0xe0	-32
160	0x1c	28
161	0x8c	-116
162	0xbe	-66
163	0xcc	-52
164	0x1f	31
165	0x2b	43
166	0xa4	-92
167	0x08	8
168	0xdb	-37
169	0x0e	14
170	0x01	1
171	0xbf	-65
172	0xf4	-12
173	0x23	35
174	0x2b	43
175	0xd4	-44
176	0xf5	-11
177	0xa0	-96
178	0x9f	-97
179	0xc5	-59
180	0xca	-54
181	0x9d	-99
182	0x9e	-98
183	0xe8	-24
184	0x18	24
185	0x34	52
186	0xec	-20
187	0xa7	-89
188	0xb5	-75
189	0xfd	-3
190	0x40	64
191	0xb7	-73
192	0x02	2
193	0x9d	-99
194	0x2f	47
195	0x33	51
196	0xfa	-6
197	0xf2	-14
198	0xa7	-89
199	0x29	41
200	0x9e	-98
201	0x1d	29
202	0x1e	30
203	0xe8	-24
204	0xb9	-71
205	0xde	-34
206	0x3a	58
207	0xbb	-69
208	0x08	8
209	0x08	8
210	0x28	40
211	0x0b	11
212	0x3c	60
213	0xc0	-64
214	0xb9	-71
215	0x4a	74
216	0xc8	-56
217	0xfd	-3
218	0x18	24
219	0x9e	-98
220	0x15	21
221	0x2f	47
222	0x2f	47
223	0x9d	-99
224	0x2f	47
225	0x20	32
226	0x2c	44
227	0x15	21
228	0x94	-108
229	0xcd	-51
230	0xf0	-16
231	0xc0	-64
232	0xf0	-16
233	0xd7	-41
234	0xdf	-33
235	0xf9	-7
236	0x9a	-102
237	0x04	4
238	0x1e	30
239	0x96	-106
240	0xf0	-16
241	0xcd	-51
242	0x05	5
243	0x0e	14
244	0xe0	-32
245	0xa7	-89
246	0x27	39
247	0x3a	58
248	0x21	33
249	0xba	-70
250	0xe2	-30
251	0xfc	-4
252	0x1e	30
253	0x37	55
254	0xf3	-13
255	0x29	41

model/quant_dense_last/MatMul;model/quant_dense_last/LastValueQuant/FakeQuantWithMinMaxVars i1 [10, 96] scale=0.010301246 zero_point=0
0	0x04	0.041204985
1	0x01	0.010301246
2	0xfb	-0.051506232
3	0x06	0.061807476
4	0xfd	-0.030903738
5	0xf7	-0.09271122
6	0xeb	-0.21632618
7	0x14	0.20602493
8	0xed	-0.19572368
9	0xf8	-0.08240997
10	0xff	-0.010301246
11	0xfb	-0.051506232
12	0xe0	-0.32963988
13	0xf3	-0.1339162
14	0xfb	-0.051506232
15	0x0b	0.11331371
16	0x0d	0.1339162
17	0x06	0.061807476
18	0xd9	-0.4017486
19	0xf3	-0.1339162
20	0xe9	-0.23692867
21	0xee	-0.18542244
22	0x09	0.09271122
23	0x06	0.061807476
24	0xfd	-0.030903738
25	0xe6	-0.2678324
26	0x13	0.19572368
27	0x0f	0.1545187
28	0xd3	-0.46355608
29	0xe8	-0.2472299
30	0x16	0.22662742
31	0xd4	-0.45325485
32	0x12	0.18542244
33	0x0b	0.11331371
34	0x0d	0.1339162
35	0xfe	-0.020602493
36	0x0b	0.11331371
37	0xf8	-0.08240997
38	0x00	0.0
39	0x12	0.18542244
40	0xfa	-0.061807476
41	0x0d	0.1339162
42	0xfe	-0.020602493
43	0x0d	0.1339162
44	0x07	0.07210872
45	0xf6	-0.103012465
46	0x0c	0.12361495
47	0x1b	0.27813366
48	0x05	0.051506232
49	0xfe	-0.020602493
50	0xfb	-0.051506232
51	0xfb	-0.051506232
52	0xf6	-0.103012465
53	0x0d	0.1339162
54	0xe2	-0.3090374
55	0xe7	-0.25753117
56	0xf8	-0.08240997
57	0x05	0.051506232
58	0x13	0.19572368
59	0x04	0.041204985
60	0xed	-0.19572368
61	0xe7	-0.25753117
62	0x20	0.32963988
63	0x0f	0.1545187
64	0xdc	-0.37084487
65	0xf6	-0.103012465
66	0x00	0.0
67	0x1f	0.31933865
68	0xf8	-0.08240997
69	0xe5	-0.27813366
70	0x0a	0.103012465
71	0x15	0.21632618
72	0x0e	0.14421745
73	0x0e	0.14421745
74	0xf6	-0.103012465
75	0x07	0.07210872
76	0xea	-0.22662742
77	0xe8	-0.2472299
78	0xf0	-0.16481994
79	0x12	0.18542244
80	0x06	0.061807476
81	0x1c	0.2884349
82	0x1a	0.2678324
83	0x0c	0.12361495
84	0x09	0.09271122
85	0x22	0.35024238
86	0x07	0.07210872
87	0xe6	-0.2678324
88	0xe8	-0.2472299
89	0xf2	-0.14421745
90	0xd4	-0.45325485
91	0xf1	-0.1545187
92	0xfd	-0.030903738
93	0x06	0.061807476
94	0xee	-0.18542244
95	0x08	0.08240997
96	0xf8	-0.08240997
97	0xf4	-0.12361495
98	0x19	0.25753117
99	0x1c	0.2884349
100	0xf1	-0.1545187
101	0xb8	-0.74168974
102	0xbb	-0.710786
103	0xf5	-0.11331371
104	0x11	0.17512119
105	0xc4	-0.6180748
106	0x18	0.2472299
107	0x17	0.23692867
108	0xdf	-0.3399411
109	0xf0	-0.16481994
110	0x1e	0.3090374
111	0xe9	-0.23692867
112	0x2d	0.46355608
113	0xe3	-0.29873616
114	0x25	0.3811461
115	0xeb	-0.21632618
116	0xc8	-0.5768698
117	0xe7	-0.25753117
118	0x02	0.020602493
119	0xb1	-0.8137985
120	0xe9	-0.23692867
121	0xea	-0.22662742
122	0xd7	-0.4223511
123	0x15	0.21632618
124	0x06	0.061807476
125	0xf3	-0.1339162
126	0xfb	-0.051506232
127	0x20	0.32963988
128	0xe5	-0.27813366
129	0xc0	-0.65927976
130	0x0e	0.14421745
131	0x28	0.41204986
132	0x12	0.18542244
133	0xd6	-0.43265235
134	0xbc	-0.70048475
135	0xf9	-0.07210872
136	0x0f	0.1545187
137	0xe5	-0.27813366
138	0xfd	-0.030903738
139	0xf6	-0.103012465
140	0xde	-0.35024238
141	0xe9	-0.23692867
142	0xfc	-0.041204985
143	0xea	-0.22662742
144	0x0d	0.1339162
145	0x1b	0.27813366
146	0xfa	-0.061807476
147	0xc5	-0.60777354
148	0x19	0.25753117
149	0x11	0.17512119
150	0xf6	-0.103012465
151	0x0b	0.11331371
152	0x0b	0.11331371
153	0x28	0.41204986
154	0x2c	0.45325485
155	0x02	0.020602493
156	0xde	-0.35024238
157	0xe1	-0.31933865
158	0x03	0.030903738
159	0xf2	-0.14421745
160	0xfe	-0.020602493
161	0xd6	-0.43265235
162	0x09	0.09271122
163	0xea	-0.22662742
164	0x04	0.041204985
165	0x0f	0.1545187
166	0xf7	-0.09271122
167	0xef	-0.17512119
168	0x0e	0.14421745
169	0xd3	-0.46355608
170	0x0c	0.12361495
171	0xee	-0.18542244
172	0xcb	-0.545966
173	0x20	0.32963988
174	0x21	0.3399411
175	0xeb	-0.21632618
176	0x02	0.020602493
177	0xe7	-0.25753117
178	0xff	-0.010301246
179	0x12	0.18542244
180	0xcc	-0.5356648
181	0x0d	0.1339162
182	0xce	-0.51506233
183	0xdb	-0.3811461
184	0x0f	0.1545187
185	0xe9	-0.23692867
186	0xec	-0.20602493
187	0xe0	-0.32963988
188	0x19	0.25753117
189	0xfc	-0.041204985
190	0xef	-0.17512119
191	0xc2	-0.6386773
192	0x08	0.08240997
193	0x05	0.051506232
194	0xed	-0.19572368
195	0xf7	-0.09271122
196	0x1b	0.27813366
197	0x0b	0.11331371
198	0x08	0.08240997
199	0xe8	-0.2472299
200	0x0e	0.14421745
201	0x00	0.0
202	0x01	0.010301246
203	0xf0	-0.16481994
204	0xe1	-0.31933865
205	0xea	-0.22662742
206	0xd6	-0.43265235
207	0xe3	-0.29873616
208	0xe8	-0.2472299
209	0x12	0.18542244
210	0x13	0.19572368
211	0xd8	-0.41204986
212	0x14	0.20602493
213	0xfa	-0.061807476
214	0xf2	-0.14421745
215	0x0b	0.11331371
216	0xe1	-0.31933865
217	0x06	0.061807476
218	0x05	0.051506232
219	0x09	0.09271122
220	0x0f	0.1545187
221	0xfd	-0.030903738
222	0x20	0.32963988
223	0x0a	0.103012465
224	0xf9	-0.07210872
225	0xf7	-0.09271122
226	0x15	0.21632618
227	0xf7	-0.09271122
228	0xeb	-0.21632618
229	0x14	0.20602493
230	0xd6	-0.43265235
231	0xfd	-0.030903738
232	0xfa	-0.061807476
233	0x1b	0.27813366
234	0x1c	0.2884349
235	0xeb	-0.21632618
236	0x13	0.19572368
237	0x08	0.08240997
238	0xe0	-0.32963988
239	0xef	-0.17512119
240	0xfe	-0.020602493
241	0x05	0.051506232
242	0xf7	-0.09271122
243	0x0d	0.1339162
244	0xea	-0.22662742
245	0x13	0.19572368
246	0x1e	0.3090374
247	0xee	-0.18542244
248	0xdf	-0.3399411
249	0x0a	0.103012465
250	0x03	0.030903738
251	0x23	0.3605436
252	0x12	0.18542244
253	0x1c	0.2884349
254	0xef	-0.17512119
255	0xfc	-0.041204985
