model/tflite_ep5_2023-07-02_14-04-51.tflite (tflite, 118768 bytes, 4 tensors)

model/quant_conv2d/Conv2D;model/quant_conv2d/LastValueQuant/FakeQuantWithMinMaxVarsPerChannel i1 [32, 5, 5, 1]
00000000: da0b 2fc2 81b3 093b 1ab9 0528 edf0 2733
00000010: ee02 ea04 2c10 f004 0ce7 81ce 6026 0c8a
00000020: 0f3e 323e 0123 db15 2cf4 29ec cc12 fe00
00000030: e7da 3f47 f234 2233 06e7 1fea 062e e2f6
00000040: 032e 27c1 27fa 093a 0fd7 81f7 4336 b983
00000050: f065 3e00 810a 5fd6 13e7 4bfa ee13 0735
00000060: 00ea e6d0 16f0 39e8 10dc 17f0 072c 14cc
00000070: d02f 29b5 a435 7ff0 a2f7 293b fcdd fc29
00000080: 8c17 0484 fc02 2819 2858 afc1 5712 81a3
00000090: 4157 2a34 be5a 0e2e 5193 fcf1 087f a1db
000000a0: faea 37a5 310f 1859 a8ee d407 4cf1 ecaf
000000b0: 9e44 2e3d cd91 4026 332d 8147 f031 bba3
000000c0: 2e13 750e aca0 d3f4 00ff 5248 6f1e 4143
000000d0: 171a 1936 15c4 df0d e40d bfc3 ecdb a181
000000e0: e2c4 1826 030a d119 27e3 d4d9 6df1 1512
000000f0: 9073 d8ed fa81 6b0b 0413 ef9b dff6 11aa
-38 11 47 -62 -127 -77 9 59
26 -71 5 40 -19 -16 39 51
-18 2 -22 4 44 16 -16 4
12 -25 -127 -50 96 38 12 -118
15 62 50 62 1 35 -37 21
44 -12 41 -20 -52 18 -2 0
-25 -38 63 71 -14 52 34 51
6 -25 31 -22 6 46 -30 -10
3 46 39 -63 39 -6 9 58
15 -41 -127 -9 67 54 -71 -125
-16 101 62 0 -127 10 95 -42
19 -25 75 -6 -18 19 7 53
0 -22 -26 -48 22 -16 57 -24
16 -36 23 -16 7 44 20 -52
-48 47 41 -75 -92 53 127 -16
-94 -9 41 59 -4 -35 -4 41
-116 23 4 -124 -4 2 40 25
40 88 -81 -63 87 18 -127 -93
65 87 42 52 -66 90 14 46
81 -109 -4 -15 8 127 -95 -37
-6 -22 55 -91 49 15 24 89
-88 -18 -44 7 76 -15 -20 -81
-98 68 46 61 -51 -111 64 38
51 45 -127 71 -16 49 -69 -93
46 19 117 14 -84 -96 -45 -12
0 -1 82 72 111 30 65 67
23 26 25 54 21 -60 -33 13
-28 13 -65 -61 -20 -37 -95 -127
-30 -60 24 38 3 10 -47 25
39 -29 -44 -39 109 -15 21 18
-112 115 -40 -19 -6 -127 107 11
4 19 -17 -101 -33 -10 17 -86

model/quant_conv2d_1/Conv2D;model/quant_conv2d_1/LastValueQuant/FakeQuantWithMinMaxVarsPerChannel i1 [64, 5, 5, 32]
00000000: fce3 ec04 e401 11c8 0f02 09c5 f4eb 40e4
00000010: d40b f5c6 f9f0 cc0c eef1 e4b2 fcd3 f8f8
00000020: d8dd ffbf deff a001 04be 1ec8 f713 53e9
00000030: eb0b e516 d4d2 27e8 d32e e3fc eff8 febf
00000040: e0f9 e5f9 fedb 36f8 ffdd 33f7 e0ff 1730
00000050: ecf8 0710 2422 08c5 aa02 e7ee d104 28c6
00000060: fdf6 0a1c f90f 160f 1004 ff02 ee08 17ce
00000070: e901 ea25 f9de 1819 0911 fc00 2f06 05dc
00000080: f602 fde5 1ea7 f8fb 02f9 d62b 010c 2b0a
00000090: f211 e0fc 0b03 caec ecfa e7e3 d7f9 1108
000000a0: 0e03 e203 eeeb 14c3 1509 fdf5 e6e9 4ad7
000000b0: ebfd ecc8 f403 d017 e906 c6ae f4e6 04e9
000000c0: ebcd ede0 061f 81f2 11b0 20e9 001b 4a0d
000000d0: 091b 0a11 a4f2 0a2f 0e2b c80c 10f1 0bf9
000000e0: d803 d8d5 fae2 3ff4 1612 4111 fef8 4e04
000000f0: f734 11e7 2419 05d8 f91e cadd c1e0 1e08
-4 -29 -20 4 -28 1 17 -56
15 2 9 -59 -12 -21 64 -28
-44 11 -11 -58 -7 -16 -52 12
-18 -15 -28 -78 -4 -45 -8 -8
-40 -35 -1 -65 -34 -1 -96 1
4 -66 30 -56 -9 19 83 -23
-21 11 -27 22 -44 -46 39 -24
-45 46 -29 -4 -17 -8 -2 -65
-32 -7 -27 -7 -2 -37 54 -8
-1 -35 51 -9 -32 -1 23 48
-20 -8 7 16 36 34 8 -59
-86 2 -25 -18 -47 4 40 -58
-3 -10 10 28 -7 15 22 15
16 4 -1 2 -18 8 23 -50
-23 1 -22 37 -7 -34 24 25
9 17 -4 0 47 6 5 -36
-10 2 -3 -27 30 -89 -8 -5
2 -7 -42 43 1 12 43 10
-14 17 -32 -4 11 3 -54 -20
-20 -6 -25 -29 -41 -7 17 8
14 3 -30 3 -18 -21 20 -61
21 9 -3 -11 -26 -23 74 -41
-21 -3 -20 -56 -12 3 -48 23
-23 6 -58 -82 -12 -26 4 -23
-21 -51 -19 -32 6 31 -127 -14
17 -80 32 -23 0 27 74 13
9 27 10 17 -92 -14 10 47
14 43 -56 12 16 -15 11 -7
-40 3 -40 -43 -6 -30 63 -12
22 18 65 17 -2 -8 78 4
-9 52 17 -25 36 25 5 -40
-7 30 -54 -35 -63 -32 30 8

model/quant_conv2d_2/Conv2D;model/quant_conv2d_2/LastValueQuant/FakeQuantWithMinMaxVarsPerChannel i1 [96, 3, 3, 64]
00000000: 45ea e631 f946 a896 f2c5 abb3 ee30 e4c8
00000010: d2c8 ad1a fbc6 1e01 dda6 87b4 ee21 d0a7
00000020: 50c1 13bb f1ca c99e a0ec cf25 d7eb c085
00000030: 933e ddd6 47b0 eee7 17f7 9548 1f11 1fe8
00000040: 33b1 d1c5 c1ae adab 33b3 fcd0 bdf1 4813
00000050: 0450 00e0 e6fb fbdf 0eda e31d c1fb d1ba
00000060: d2ec bf1f f2cf 8ea3 97c4 39e5 94bd edc5
00000070: e191 d6c7 e80b d4da af97 bc39 0f8a f3b6
00000080: fe1b d1a7 41b9 e21f ac38 ffd6 e53c cde3
00000090: c818 e711 0f31 a6d5 bc12 b6bb c7e7 25e0
000000a0: 1c8c becc 1f2b a408 db0e 01bf f423 2bd4
000000b0: f5a0 9fc5 ca9d 9ee8 1834 eca7 b5fd 40b7
000000c0: 029d 2f33 faf2 a729 9e1d 1ee8 b9de 3abb
000000d0: 0808 280b 3cc0 b94a c8fd 189e 152f 2f9d
000000e0: 2f20 2c15 94cd f0c0 f0d7 dff9 9a04 1e96
000000f0: f0cd 050e e0a7 273a 21ba e2fc 1e37 f329
69 -22 -26 49 -7 70 -88 -106
-14 -59 -85 -77 -18 48 -28 -56
-46 -56 -83 26 -5 -58 30 1
-35 -90 -121 -76 -18 33 -48 -89
80 -63 19 -69 -15 -54 -55 -98
-96 -20 -49 37 -41 -21 -64 -123
-109 62 -35 -42 71 -80 -18 -25
23 -9 -107 72 31 17 31 -24
51 -79 -47 -59 -63 -82 -83 -85
51 -77 -4 -48 -67 -15 72 19
4 80 0 -32 -26 -5 -5 -33
14 -38 -29 29 -63 -5 -47 -70
-46 -20 -65 31 -14 -49 -114 -93
-105 -60 57 -27 -108 -67 -19 -59
-31 -111 -42 -57 -24 11 -44 -38
-81 -105 -68 57 15 -118 -13 -74
-2 27 -47 -89 65 -71 -30 31
-84 56 -1 -42 -27 60 -51 -29
-56 24 -25 17 15 49 -90 -43
-68 18 -74 -69 -57 -25 37 -32
28 -116 -66 -52 31 43 -92 8
-37 14 1 -65 -12 35 43 -44
-11 -96 -97 -59 -54 -99 -98 -24
24 52 -20 -89 -75 -3 64 -73
2 -99 47 51 -6 -14 -89 41
-98 29 30 -24 -71 -34 58 -69
8 8 40 11 60 -64 -71 74
-56 -3 24 -98 21 47 47 -99
47 32 44 21 -108 -51 -16 -64
-16 -41 -33 -7 -102 4 30 -106
-16 -51 5 14 -32 -89 39 58
33 -70 -30 -4 30 55 -13 41

model/quant_dense_last/MatMul;model/quant_dense_last/LastValueQuant/FakeQuantWithMinMaxVars i1 [10, 96] scale=0.011008553 zero_point=0
00000000: 0402 fa07 fdf5 e715 f0f8 fefe e1f4 fb0a
00000010: 0e06 d6f4 e8f0 0c06 01e5 140e c6e8 15cd
00000020: 140b 0bfc 0cf6 ff11 fa0d fd0c 06f6 0b1d
00000030: 05fe f9fa f40c e3e7 f808 1404 ebe7 2010
00000040: daf5 0020 f9e6 0a15 0d0d f407 ece3 f214
00000050: 051c 190c 0824 06e5 e6f0 d3ef fe05 ee0c
00000060: f9f2 1c1b f1ba bdf4 0ec2 1715 e0f1 1ee9
00000070: 2de0 24ea cae9 05af ecea d914 06f2 f71d
00000080: ebc2 0d26 11d9 bdf9 0ee7 fbf6 e0eb fded
00000090: 0b1b f8c6 1811 f60b 0b24 2a01 dfe3 04f2
000000a0: fbda 08e9 030f f5f1 0dd7 0cef cc20 20ec
000000b0: 02e5 fe0f ca0b cddd 0deb ebe4 19fe f0c4
000000c0: 0801 f1f5 1b0b 07e9 0d01 01f4 e2eb cfe3
000000d0: e812 15d8 16fa f00a e107 0308 14fe 200b
000000e0: fbf7 14f7 f013 d2fd fb19 1bec 1207 ddf0
000000f0: fd06 f70e eb13 1dee de0d 0426 121d f0fb
0.044034213 0.022017106 -0.06605132 0.07705987 -0.03302566 -0.121094085 -0.27521384 0.23117962
-0.17613685 -0.088068426 -0.022017106 -0.022017106 -0.34126514 -0.13210264 -0.055042766 0.11008553
0.15411974 0.06605132 -0.46235925 -0.13210264 -0.26420528 -0.17613685 0.13210264 0.06605132
0.011008553 -0.29723093 0.22017106 0.15411974 -0.6384961 -0.26420528 0.23117962 -0.56143624
0.22017106 0.121094085 0.121094085 -0.044034213 0.13210264 -0.11008553 -0.011008553 0.18714541
-0.06605132 0.1431112 -0.03302566 0.13210264 0.06605132 -0.11008553 0.121094085 0.31924805
0.055042766 -0.022017106 -0.07705987 -0.06605132 -0.13210264 0.13210264 -0.31924805 -0.27521384
-0.088068426 0.088068426 0.22017106 0.044034213 -0.23117962 -0.27521384 0.3522737 0.17613685
-0.418325 -0.121094085 0.0 0.3522737 -0.07705987 -0.2862224 0.11008553 0.23117962
0.1431112 0.1431112 -0.13210264 0.07705987 -0.22017106 -0.31924805 -0.15411974 0.22017106
0.055042766 0.3082395 0.27521384 0.13210264 0.088068426 0.39630792 0.06605132 -0.29723093
-0.2862224 -0.17613685 -0.4953849 -0.18714541 -0.022017106 0.055042766 -0.19815396 0.13210264
-0.07705987 -0.15411974 0.3082395 0.29723093 -0.16512829 -0.7705987 -0.7375731 -0.13210264
0.15411974 -0.6825303 0.25319672 0.23117962 -0.3522737 -0.16512829 0.33025658 -0.25319672
0.4953849 -0.3522737 0.39630792 -0.24218817 -0.59446186 -0.25319672 0.055042766 -0.8916928
-0.22017106 -0.24218817 -0.42933357 0.22017106 0.06605132 -0.15411974 -0.09907698 0.31924805
-0.23117962 -0.6825303 0.1431112 0.418325 0.18714541 -0.42933357 -0.7375731 -0.07705987
0.15411974 -0.27521384 -0.055042766 -0.11008553 -0.3522737 -0.23117962 -0.03302566 -0.2091625
0.121094085 0.29723093 -0.088068426 -0.6384961 0.26420528 0.18714541 -0.11008553 0.121094085
0.121094085 0.39630792 0.46235925 0.011008553 -0.36328226 -0.31924805 0.044034213 -0.15411974
-0.055042766 -0.418325 0.088068426 -0.25319672 0.03302566 0.16512829 -0.121094085 -0.16512829
0.1431112 -0.4513507 0.13210264 -0.18714541 -0.5724448 0.3522737 0.3522737 -0.22017106
0.022017106 -0.29723093 -0.022017106 0.16512829 -0.59446186 0.121094085 -0.56143624 -0.38529935
0.1431112 -0.23117962 -0.23117962 -0.3082395 0.27521384 -0.022017106 -0.17613685 -0.66051316
0.088068426 0.011008553 -0.16512829 -0.121094085 0.29723093 0.121094085 0.07705987 -0.25319672
0.1431112 0.011008553 0.011008553 -0.13210264 -0.33025658 -0.23117962 -0.5394191 -0.31924805
-0.26420528 0.19815396 0.23117962 -0.44034213 0.24218817 -0.06605132 -0.17613685 0.11008553
-0.34126514 0.07705987 0.03302566 0.088068426 0.22017106 -0.022017106 0.3522737 0.121094085
-0.055042766 -0.09907698 0.22017106 -0.09907698 -0.17613685 0.2091625 -0.50639343 -0.03302566
-0.055042766 0.27521384 0.29723093 -0.22017106 0.19815396 0.07705987 -0.38529935 -0.17613685
-0.03302566 0.06605132 -0.09907698 0.15411974 -0.23117962 0.2091625 0.31924805 -0.19815396
-0.37429082 0.1431112 0.044034213 0.418325 0.19815396 0.31924805 -0.17613685 -0.055042766
