model/tflite_ep4_2023-07-02_14-41-31.tflite (tflite, 118768 bytes, 4 tensors)

model/quant_conv2d/Conv2D;model/quant_conv2d/LastValueQuant/FakeQuantWithMinMaxVarsPerChannel i1 [32, 5, 5, 1]
-38 7 43 -66 -127 -77 5 52
22 -76 4 37 -25 -21 34 48
-19 1 -26 0 43 14 -17 1
12 -26 -127 -46 95 37 12 -116
15 62 51 61 5 36 -39 21
45 -11 43 -17 -49 17 1 2
-24 -40 61 73 -14 47 29 55
6 -20 33 -20 10 46 -26 -13
2 47 37 -65 36 -6 14 58
17 -39 -127 -13 67 52 -73 -127
-15 101 60 0 -123 7 94 -40
19 -24 73 -4 -16 17 8 55
0 -23 -30 -48 20 -17 58 -32
17 -37 22 -17 0 46 19 -54
-46 46 43 -81 -96 53 127 -15
-103 -16 43 59 -4 -37 -1 41
-114 27 6 -124 -4 4 42 27
43 88 -77 -62 88 14 -127 -93
71 92 41 54 -69 93 14 48
80 -111 -5 -15 9 127 -94 -36
-6 -22 55 -89 50 15 22 90
-86 -16 -45 5 75 -13 -18 -78
-91 78 40 70 -50 -107 69 33
51 42 -127 76 -16 59 -64 -93
50 20 122 17 -88 -98 -49 -11
-4 -5 77 69 110 28 59 66
23 25 23 51 22 -59 -34 13
-31 17 -64 -60 -21 -40 -93 -127
-28 -59 29 40 8 11 -45 27
41 -26 -48 -36 114 -16 24 20
-113 121 -40 -21 -8 -127 112 14
8 23 -19 -99 -33 -9 17 -84
00000000: da07 2bbe 81b3 0534 16b4 0425 e7eb 2230
00000010: ed01 e600 2b0e ef01 0ce6 81d2 5f25 0c8c
00000020: 0f3e 333d 0524 d915 2df5 2bef cf11 0102
00000030: e8d8 3d49 f22f 1d37 06ec 21ec 0a2e e6f3
00000040: 022f 25bf 24fa 0e3a 11d9 81f3 4334 b781
00000050: f165 3c00 8507 5ed8 13e8 49fc f011 0837
00000060: 00e9 e2d0 14ef 3ae0 11db 16ef 002e 13ca
00000070: d22e 2baf a035 7ff1 99f0 2b3b fcdb ff29
00000080: 8e1b 0684 fc04 2a1b 2b58 b3c2 580e 81a3
00000090: 475c 2936 bb5d 0e30 5091 fbf1 097f a2dc
000000a0: faea 37a7 320f 165a aaf0 d305 4bf3 eeb2
000000b0: a54e 2846 ce95 4521 332a 814c f03b c0a3
000000c0: 3214 7a11 a89e cff5 fcfb 4d45 6e1c 3b42
000000d0: 1719 1733 16c5 de0d e111 c0c4 ebd8 a381
000000e0: e4c5 1d28 080b d31b 29e6 d0dc 72f0 1814
000000f0: 8f79 d8eb f881 700e 0817 ed9d dff7 11ac

model/quant_conv2d_1/Conv2D;model/quant_conv2d_1/LastValueQuant/FakeQuantWithMinMaxVarsPerChannel i1 [64, 5, 5, 32]
-10 -26 -23 2 -29 3 14 -55
17 7 11 -66 -13 -22 68 -28
-42 9 -10 -61 -2 -13 -53 15
-26 -15 -29 -78 -4 -48 -12 -3
-39 -37 -8 -64 -40 1 -82 -2
8 -61 32 -67 -13 18 93 -23
-25 18 -32 23 -36 -51 38 -22
-52 50 -27 -8 -22 -12 -2 -63
-28 -13 -37 -8 -2 -32 58 -8
-1 -38 51 -13 -26 0 24 52
-17 4 6 18 33 27 2 -56
-86 9 -29 -20 -57 8 45 -54
-3 -12 7 29 -8 9 21 17
11 5 4 -2 -11 7 20 -46
-21 4 -26 36 -16 -38 25 26
5 18 -6 4 50 8 6 -33
-1 3 -12 -32 29 -79 -6 -4
0 -12 -40 48 -2 11 41 12
-12 16 -29 -3 18 3 -57 -25
-25 -13 -28 -30 -48 -7 14 12
14 -3 -32 6 -24 -11 24 -69
22 4 -2 -27 -29 -21 78 -34
-28 -5 -23 -55 -11 -2 -51 37
-48 7 -60 -86 -10 -26 3 -29
-23 -56 -26 -34 2 34 -113 -19
19 -80 33 -26 4 29 81 8
11 27 8 19 -101 -26 9 52
12 48 -61 10 20 -19 11 -3
-41 4 -47 -46 -8 -28 68 -13
24 17 70 16 8 -8 85 3
-5 56 21 -27 35 25 6 -38
-9 29 -61 -35 -74 -30 33 7
00000000: f6e6 e902 e303 0ec9 1107 0bbe f3ea 44e4
00000010: d609 f6c3 fef3 cb0f e6f1 e3b2 fcd0 f4fd
00000020: d9db f8c0 d801 aefe 08c3 20bd f312 5de9
00000030: e712 e017 dccd 26ea cc32 e5f8 eaf4 fec1
00000040: e4f3 dbf8 fee0 3af8 ffda 33f3 e600 1834
00000050: ef04 0612 211b 02c8 aa09 e3ec c708 2dca
00000060: fdf4 071d f809 1511 0b05 04fe f507 14d2
00000070: eb04 e624 f0da 191a 0512 fa04 3208 06df
00000080: ff03 f4e0 1db1 fafc 00f4 d830 fe0b 290c
00000090: f410 e3fd 1203 c7e7 e7f3 e4e2 d0f9 0e0c
000000a0: 0efd e006 e8f5 18bb 1604 fee5 e3eb 4ede
000000b0: e4fb e9c9 f5fe cd25 d007 c4aa f6e6 03e3
000000c0: e9c8 e6de 0222 8fed 13b0 21e6 041d 5108
000000d0: 0b1b 0813 9be6 0934 0c30 c30a 14ed 0bfd
000000e0: d704 d1d2 f8e4 44f3 1811 4610 08f8 5503
000000f0: fb38 15e5 2319 06da f71d c3dd b6e2 2107

model/quant_conv2d_2/Conv2D;model/quant_conv2d_2/LastValueQuant/FakeQuantWithMinMaxVarsPerChannel i1 [96, 3, 3, 64]
69 -22 -26 49 -7 70 -88 -106
-14 -59 -85 -77 -18 48 -28 -56
-46 -56 -83 26 -5 -58 30 1
-35 -90 -121 -76 -18 33 -48 -89
80 -63 19 -69 -15 -54 -55 -98
-96 -20 -49 37 -41 -21 -64 -123
-109 62 -35 -42 71 -80 -18 -25
23 -9 -107 72 31 17 31 -24
51 -79 -47 -59 -63 -82 -83 -85
51 -77 -4 -48 -67 -15 72 19
4 80 0 -32 -26 -5 -5 -33
14 -38 -29 29 -63 -5 -47 -70
-46 -20 -65 31 -14 -49 -114 -93
-105 -60 57 -27 -108 -67 -19 -59
-31 -111 -42 -57 -24 11 -44 -38
-81 -105 -68 57 15 -118 -13 -74
-2 27 -47 -89 65 -71 -30 31
-84 56 -1 -42 -27 60 -51 -29
-56 24 -25 17 15 49 -90 -43
-68 18 -74 -69 -57 -25 37 -32
28 -116 -66 -52 31 43 -92 8
-37 14 1 -65 -12 35 43 -44
-11 -96 -97 -59 -54 -99 -98 -24
24 52 -20 -89 -75 -3 64 -73
2 -99 47 51 -6 -14 -89 41
-98 29 30 -24 -71 -34 58 -69
8 8 40 11 60 -64 -71 74
-56 -3 24 -98 21 47 47 -99
47 32 44 21 -108 -51 -16 -64
-16 -41 -33 -7 -102 4 30 -106
-16 -51 5 14 -32 -89 39 58
33 -70 -30 -4 30 55 -13 41
00000000: 45ea e631 f946 a896 f2c5 abb3 ee30 e4c8
00000010: d2c8 ad1a fbc6 1e01 dda6 87b4 ee21 d0a7
00000020: 50c1 13bb f1ca c99e a0ec cf25 d7eb c085
00000030: 933e ddd6 47b0 eee7 17f7 9548 1f11 1fe8
00000040: 33b1 d1c5 c1ae adab 33b3 fcd0 bdf1 4813
00000050: 0450 00e0 e6fb fbdf 0eda e31d c1fb d1ba
00000060: d2ec bf1f f2cf 8ea3 97c4 39e5 94bd edc5
00000070: e191 d6c7 e80b d4da af97 bc39 0f8a f3b6
00000080: fe1b d1a7 41b9 e21f ac38 ffd6 e53c cde3
00000090: c818 e711 0f31 a6d5 bc12 b6bb c7e7 25e0
000000a0: 1c8c becc 1f2b a408 db0e 01bf f423 2bd4
000000b0: f5a0 9fc5 ca9d 9ee8 1834 eca7 b5fd 40b7
000000c0: 029d 2f33 faf2 a729 9e1d 1ee8 b9de 3abb
000000d0: 0808 280b 3cc0 b94a c8fd 189e 152f 2f9d
000000e0: 2f20 2c15 94cd f0c0 f0d7 dff9 9a04 1e96
000000f0: f0cd 050e e0a7 273a 21ba e2fc 1e37 f329

model/quant_dense_last/MatMul;model/quant_dense_last/LastValueQuant/FakeQuantWithMinMaxVars i1 [10, 96] scale=0.010654824 zero_point=0
0.042619295 0.06392895 -0.053274117 0.07458377 -0.07458377 -0.117203064 -0.2557158 0.2237513
-0.19178683 -0.08523859 -0.010654824 -0.042619295 -0.34095436 -0.1278579 -0.042619295 0.117203064
0.181132 0.06392895 -0.42619294 -0.14916754 -0.24506095 -0.181132 0.117203064 0.07458377
0.0 -0.28768024 0.2237513 0.15982236 -0.56470567 -0.2557158 0.2237513 -0.5220864
0.21309647 0.117203064 0.1278579 -0.053274117 0.13851272 -0.09589341 -0.010654824 0.19178683
-0.06392895 0.1278579 -0.031964473 0.13851272 0.06392895 -0.106548235 0.1278579 0.30898988
0.053274117 -0.010654824 -0.07458377 -0.053274117 -0.117203064 0.13851272 -0.30898988 -0.2663706
-0.08523859 0.07458377 0.19178683 0.07458377 -0.21309647 -0.2663706 0.34095436 0.17047718
-0.3942285 -0.14916754 0.0 0.34095436 -0.07458377 -0.29833508 0.1278579 0.23440613
0.14916754 0.14916754 -0.106548235 0.07458377 -0.24506095 -0.29833508 -0.14916754 0.2237513
0.053274117 0.29833508 0.27702543 0.1278579 0.08523859 0.3942285 0.06392895 -0.29833508
-0.2557158 -0.17047718 -0.46881226 -0.19178683 -0.021309648 0.06392895 -0.20244165 0.09589341
-0.08523859 -0.14916754 0.28768024 0.30898988 -0.15982236 -0.77780217 -0.83107626 -0.13851272
0.14916754 -0.64994425 0.24506095 0.23440613 -0.33029953 -0.15982236 0.3516092 -0.27702543
0.46881226 -0.31964472 0.41553813 -0.24506095 -0.62863463 -0.2557158 0.021309648 -0.8950052
-0.24506095 -0.2557158 -0.4475026 0.2237513 0.053274117 -0.15982236 -0.106548235 0.33029953
-0.23440613 -0.6819087 0.15982236 0.42619294 0.181132 -0.4475026 -0.7671473 -0.07458377
0.14916754 -0.29833508 -0.042619295 -0.106548235 -0.3516092 -0.23440613 -0.053274117 -0.2237513
0.106548235 0.29833508 -0.06392895 -0.59667015 0.2557158 0.17047718 -0.07458377 0.106548235
0.117203064 0.4048833 0.45815742 0.0 -0.362264 -0.3516092 0.031964473 -0.13851272
-0.031964473 -0.45815742 0.09589341 -0.2557158 0.042619295 0.181132 -0.106548235 -0.181132
0.13851272 -0.5114316 0.106548235 -0.19178683 -0.62863463 0.34095436 0.362264 -0.21309647
0.021309648 -0.2663706 -0.053274117 0.181132 -0.59667015 0.08523859 -0.543396 -0.362264
0.14916754 -0.21309647 -0.2237513 -0.3516092 0.27702543 -0.031964473 -0.19178683 -0.63928944
0.08523859 -0.010654824 -0.19178683 -0.106548235 0.29833508 0.117203064 0.09589341 -0.23440613
0.14916754 0.010654824 0.010654824 -0.15982236 -0.34095436 -0.23440613 -0.5114316 -0.31964472
-0.2557158 0.20244165 0.2237513 -0.41553813 0.24506095 -0.06392895 -0.14916754 0.106548235
-0.362264 0.09589341 0.042619295 0.08523859 0.181132 -0.021309648 0.34095436 0.117203064
-0.053274117 -0.106548235 0.2237513 -0.09589341 -0.20244165 0.2237513 -0.4901219 -0.031964473
-0.06392895 0.27702543 0.29833508 -0.21309647 0.20244165 0.07458377 -0.3516092 -0.181132
-0.021309648 0.06392895 -0.08523859 0.14916754 -0.24506095 0.20244165 0.31964472 -0.19178683
-0.3516092 0.117203064 0.042619295 0.41553813 0.19178683 0.30898988 -0.19178683 -0.053274117
00000000: 0406 fb07 f9f5 e815 eef8 fffc e0f4 fc0b
00000010: 1106 d8f2 e9ef 0b07 00e5 150f cbe8 15cf
00000020: 140b 0cfb 0df7 ff12 fa0c fd0d 06f6 0c1d
00000030: 05ff f9fb f50d e3e7 f807 1207 ece7 2010
00000040: dbf2 0020 f9e4 0c16 0e0e f607 e9e4 f215
00000050: 051c 1a0c 0825 06e4 e8f0 d4ee fe06 ed09
00000060: f8f2 1b1d f1b7 b2f3 0ec3 1716 e1f1 21e6
00000070: 2ce2 27e9 c5e8 02ac e9e8 d615 05f1 f61f
00000080: eac0 0f28 11d6 b8f9 0ee4 fcf6 dfea fbeb
00000090: 0a1c fac8 1810 f90a 0b26 2b00 dedf 03f3
000000a0: fdd5 09e8 0411 f6ef 0dd0 0aee c520 22ec
000000b0: 02e7 fb11 c808 cdde 0eec ebdf 1afd eec4
000000c0: 08ff eef6 1c0b 09ea 0e01 01f1 e0ea d0e2
000000d0: e813 15d9 17fa f20a de09 0408 11fe 200b
000000e0: fbf6 15f7 ed15 d2fd fa1a 1cec 1307 dfef
000000f0: fe06 f80e e913 1eee df0b 0427 121d eefb
