model/tflite_ep2_2023-07-02_14-50-10.tflite (tflite, 118768 bytes, 4 tensors)

model/quant_conv2d/Conv2D;model/quant_conv2d/LastValueQuant/FakeQuantWithMinMaxVarsPerChannel i1 [32, 5, 5, 1]
0	0xdf	-33
1	0x0d	13
2	0x2c	44
3	0xbc	-68
4	0x81	-127
5	0xb9	-71
6	0x09	9
7	0x36	54
8	0x16	22
9	0xb4	-76
10	0x07	7
11	0x28	40
12	0xe2	-30
13	0xe9	-23
14	0x24	36
15	0x33	51
16	0xe9	-23
17	0xff	-1
18	0xe7	-25
19	0x00	0
20	0x2c	44
21	0x11	17
22	0xed	-19
23	0x04	4
24	0x0e	14
25	0xe5	-27
26	0x81	-127
27	0xd2	-46
28	0x5e	94
29	0x24	36
30	0x0a	10
31	0x8a	-118
32	0x0d	13
33	0x3f	63
34	0x33	51
35	0x3d	61
36	0x01	1
37	0x20	32
38	0xda	-38
39	0x13	19
40	0x31	49
41	0xf3	-13
42	0x2a	42
43	0xee	-18
44	0xcc	-52
45	0x11	17
46	0x00	0
47	0xff	-1
48	0xe6	-26
49	0xd5	-43
50	0x3b	59
51	0x47	71
52	0xf3	-13
53	0x31	49
54	0x1f	31
55	0x33	51
56	0x03	3
57	0xef	-17
58	0x20	32
59	0xeb	-21
60	0x05	5
61	0x2c	44
62	0xe6	-26
63	0xf4	-12
64	0x00	0
65	0x2d	45
66	0x25	37
67	0xc1	-63
68	0x27	39
69	0xfa	-6
70	0x08	8
71	0x35	53
72	0x11	17
73	0xd7	-41
74	0x81	-127
75	0xf3	-13
76	0x46	70
77	0x3a	58
78	0xb4	-76
79	0x81	-127
80	0xf1	-15
81	0x69	105
82	0x41	65
83	0x01	1
84	0x82	-126
85	0x05	5
86	0x61	97
87	0xd6	-42
88	0x10	16
89	0xe6	-26
90	0x4f	79
91	0xf7	-9
92	0xef	-17
93	0x12	18
94	0x0b	11
95	0x37	55
96	0xfd	-3
97	0xe9	-23
98	0xe5	-27
99	0xcc	-52
100	0x18	24
101	0xef	-17
102	0x38	56
103	0xe1	-31
104	0x10	16
105	0xda	-38
106	0x17	23
107	0xed	-19
108	0x05	5
109	0x2f	47
110	0x14	20
111	0xc8	-56
112	0xd3	-45
113	0x2e	46
114	0x2b	43
115	0xb0	-80
116	0xa1	-95
117	0x33	51
118	0x7f	127
119	0xf2	-14
120	0x98	-104
121	0xf1	-15
122	0x26	38
123	0x39	57
124	0xfc	-4
125	0xdc	-36
126	0xfe	-2
127	0x28	40
128	0x95	-107
129	0x1b	27
130	0x09	9
131	0x82	-126
132	0xfa	-6
133	0x05	5
134	0x33	51
135	0x20	32
136	0x29	41
137	0x57	87
138	0xb5	-75
139	0xc3	-61
140	0x5d	93
141	0x0f	15
142	0x81	-127
143	0xa5	-91
144	0x46	70
145	0x5c	92
146	0x25	37
147	0x38	56
148	0xbc	-68
149	0x61	97
150	0x0f	15
151	0x30	48
152	0x4f	79
153	0x94	-108
154	0xfb	-5
155	0xf0	-16
156	0x08	8
157	0x7f	127
158	0xa3	-93
159	0xdd	-35
160	0xfb	-5
161	0xea	-22
162	0x37	55
163	0xa7	-89
164	0x33	51
165	0x11	17
166	0x14	20
167	0x59	89
168	0xab	-85
169	0xef	-17
170	0xd3	-45
171	0x03	3
172	0x4b	75
173	0xf4	-12
174	0xec	-20
175	0xb0	-80
176	0xa6	-90
177	0x4c	76
178	0x2c	44
179	0x4b	75
180	0xcd	-51
181	0x99	-103
182	0x45	69
183	0x27	39
184	0x35	53
185	0x26	38
186	0x81	-127
187	0x48	72
188	0xfa	-6
189	0x3e	62
190	0xb6	-74
191	0xa1	-95
192	0x2f	47
193	0x18	24
194	0x78	120
195	0x11	17
196	0xae	-82
197	0xa4	-92
198	0xd5	-43
199	0xf7	-9
200	0xfe	-2
201	0xff	-1
202	0x4f	79
203	0x43	67
204	0x6f	111
205	0x1d	29
206	0x3c	60
207	0x44	68
208	0x16	22
209	0x1b	27
210	0x19	25
211	0x33	51
212	0x17	23
213	0xc6	-58
214	0xe0	-32
215	0x0d	13
216	0xe3	-29
217	0x0f	15
218	0xc0	-64
219	0xc5	-59
220	0xea	-22
221	0xda	-38
222	0xa2	-94
223	0x81	-127
224	0xe5	-27
225	0xc4	-60
226	0x1a	26
227	0x29	41
228	0x07	7
229	0x0a	10
230	0xd2	-46
231	0x18	24
232	0x28	40
233	0xdf	-33
234	0xd1	-47
235	0xdd	-35
236	0x6e	110
237	0xf1	-15
238	0x16	22
239	0x17	23
240	0x8e	-114
241	0x71	113
242	0xd9	-39
243	0xe9	-23
244	0xf5	-11
245	0x81	-127
246	0x6d	109
247	0x0c	12
248	0x03	3
249	0x13	19
250	0xf0	-16
251	0x9d	-99
252	0xdf	-33
253	0xf6	-10
254	0x11	17
255	0xab	-85

model/quant_conv2d_1/Conv2D;model/quant_conv2d_1/LastValueQuant/FakeQuantWithMinMaxVarsPerChannel i1 [64, 5, 5, 32]
0	0xf3	-13
1	0xe6	-26
2	0xed	-19
3	0x05	5
4	0xe7	-25
5	0x06	6
6	0x0e	14
7	0xc8	-56
8	0x13	19
9	0x0e	14
10	0x07	7
11	0xcc	-52
12	0xf1	-15
13	0xeb	-21
14	0x49	73
15	0xe8	-24
16	0xd8	-40
17	0x06	6
18	0xf4	-12
19	0xc8	-56
20	0x04	4
21	0xfe	-2
22	0xcc	-52
23	0x10	16
24	0xeb	-21
25	0xed	-19
26	0xec	-20
27	0xab	-85
28	0x00	0
29	0xd7	-41
30	0xf6	-10
31	0xf9	-7
32	0xd9	-39
33	0xd0	-48
34	0xfc	-4
35	0xc4	-60
36	0xd7	-41
37	0x06	6
38	0xb0	-80
39	0xfa	-6
40	0x08	8
41	0xc3	-61
42	0x1e	30
43	0xb6	-74
44	0xf4	-12
45	0x12	18
46	0x61	97
47	0xec	-20
48	0xe5	-27
49	0x12	18
50	0xde	-34
51	0x15	21
52	0xca	-54
53	0xc6	-58
54	0x2c	44
55	0xec	-20
56	0xcc	-52
57	0x2c	44
58	0xe4	-28
59	0xf7	-9
60	0xf1	-15
61	0xf6	-10
62	0xfd	-3
63	0xbd	-67
64	0xda	-38
65	0xfc	-4
66	0xe0	-32
67	0xf6	-10
68	0xfe	-2
69	0xd9	-39
70	0x33	51
71	0xfb	-5
72	0x00	0
73	0xd5	-43
74	0x36	54
75	0xf4	-12
76	0xdf	-33
77	0x02	2
78	0x1d	29
79	0x32	50
80	0xec	-20
81	0xfa	-6
82	0x06	6
83	0x11	17
84	0x22	34
85	0x13	19
86	0xf9	-7
87	0xc3	-61
88	0xa8	-88
89	0x04	4
90	0xe3	-29
91	0xee	-18
92	0xc9	-55
93	0x0b	11
94	0x2b	43
95	0xc7	-57
96	0xff	-1
97	0xed	-19
98	0x0b	11
99	0x1f	31
100	0xf8	-8
101	0x10	16
102	0x19	25
103	0x0f	15
104	0x0c	12
105	0x06	6
106	0x02	2
107	0xfa	-6
108	0xf3	-13
109	0x08	8
110	0x15	21
111	0xd7	-41
112	0xea	-22
113	0x01	1
114	0xe7	-25
115	0x1e	30
116	0xf0	-16
117	0xe2	-30
118	0x15	21
119	0x17	23
120	0x09	9
121	0x10	16
122	0xf9	-7
123	0xff	-1
124	0x30	48
125	0x02	2
126	0x08	8
127	0xde	-34
128	0xf5	-11
129	0x01	1
130	0xfa	-6
131	0xe2	-30
132	0x18	24
133	0xc0	-64
134	0xfe	-2
135	0xfa	-6
136	0xff	-1
137	0xef	-17
138	0xd6	-42
139	0x2b	43
140	0x00	0
141	0x0b	11
142	0x2d	45
143	0x09	9
144	0xf2	-14
145	0x0e	14
146	0xe2	-30
147	0xfe	-2
148	0x05	5
149	0x02	2
150	0xca	-54
151	0xea	-22
152	0xe7	-25
153	0xf3	-13
154	0xdd	-35
155	0xe2	-30
156	0xda	-38
157	0xf3	-13
158	0x0c	12
159	0x0d	13
160	0x0d	13
161	0xff	-1
162	0xe8	-24
163	0x0d	13
164	0xea	-22
165	0xef	-17
166	0x19	25
167	0xbc	-68
168	0x1a	26
169	0x0b	11
170	0xfb	-5
171	0xf2	-14
172	0xe5	-27
173	0xeb	-21
174	0x52	82
175	0xd7	-41
176	0xe4	-28
177	0xfd	-3
178	0xe6	-26
179	0xcf	-49
180	0xf9	-7
181	0x02	2
182	0xd3	-45
183	0x1f	31
184	0xe0	-32
185	0x07	7
186	0xce	-50
187	0xa2	-94
188	0xfb	-5
189	0xe8	-24
190	0x06	6
191	0xe7	-25
192	0xe0	-32
193	0xc3	-61
194	0xe8	-24
195	0xe3	-29
196	0x04	4
197	0x21	33
198	0x89	-119
199	0xeb	-21
200	0x14	20
201	0xa8	-88
202	0x22	34
203	0xe6	-26
204	0x09	9
205	0x1e	30
206	0x53	83
207	0x06	6
208	0x0b	11
209	0x1c	28
210	0x08	8
211	0x10	16
212	0x99	-103
213	0xe3	-29
214	0x0a	10
215	0x39	57
216	0x08	8
217	0x2e	46
218	0xc7	-57
219	0x07	7
220	0x17	23
221	0xf1	-15
222	0x0e	14
223	0xfa	-6
224	0xd6	-42
225	0x04	4
226	0xd8	-40
227	0xce	-50
228	0xf9	-7
229	0xe3	-29
230	0x3e	62
231	0xf4	-12
232	0x16	22
233	0x0d	13
234	0x47	71
235	0x0d	13
236	0x01	1
237	0xf8	-8
238	0x53	83
239	0xfe	-2
240	0xf8	-8
241	0x36	54
242	0x13	19
243	0xe6	-26
244	0x20	32
245	0x13	19
246	0xfe	-2
247	0xd6	-42
248	0xf5	-11
249	0x1f	31
250	0xc8	-56
251	0xde	-34
252	0xb5	-75
253	0xe3	-29
254	0x1f	31
255	0x08	8

model/quant_conv2d_2/Conv2D;model/quant_conv2d_2/LastValueQuant/FakeQuantWithMinMaxVarsPerChannel i1 [96, 3, 3, 64]
0	0x45	69
1	0xea	-22
2	0xe6	-26
3	0x31	49
4	0xf9	-7
5	0x46	70
6	0xa8	-88
7	0x96	-106
8	0xf2	-14
9	0xc5	-59
10	0xab	-85
11	0xb3	-77
12	0xee	-18
13	0x30	48
14	0xe4	-28
15	0xc8	-56
16	0xd2	-46
17	0xc8	-56
18	0xad	-83
19	0x1a	26
20	0xfb	-5
21	0xc6	-58
22	0x1e	30
23	0x01	1
24	0xdd	-35
25	0xa6	-90
26	0x87	-121
27	0xb4	-76
28	0xee	-18
29	0x21	33
30	0xd0	-48
31	0xa7	-89
32	0x50	80
33	0xc1	-63
34	0x13	19
35	0xbb	-69
36	0xf1	-15
37	0xca	-54
38	0xc9	-55
39	0x9e	-98
40	0xa0	-96
41	0xec	-20
42	0xcf	-49
43	0x25	37
44	0xd7	-41
45	0xeb	-21
46	0xc0	-64
47	0x85	-123
48	0x93	-109
49	0x3e	62
50	0xdd	-35
51	0xd6	-42
52	0x47	71
53	0xb0	-80
54	0xee	-18
55	0xe7	-25
56	0x17	23
57	0xf7	-9
58	0x95	-107
59	0x48	72
60	0x1f	31
61	0x11	17
62	0x1f	31
63	0xe8	-24
64	0x33	51
65	0xb1	-79
66	0xd1	-47
67	0xc5	-59
68	0xc1	-63
69	0xae	-82
70	0xad	-83
71	0xab	-85
72	0x33	51
73	0xb3	-77
74	0xfc	-4
75	0xd0	-48
76	0xbd	-67
77	0xf1	-15
78	0x48	72
79	0x13	19
80	0x04	4
81	0x50	80
82	0x00	0
83	0xe0	-32
84	0xe6	-26
85	0xfb	-5
86	0xfb	-5
87	0xdf	-33
88	0x0e	14
89	0xda	-38
90	0xe3	-29
91	0x1d	29
92	0xc1	-63
93	0xfb	-5
94	0xd1	-47
95	0xba	-70
96	0xd2	-46
97	0xec	-20
98	0xbf	-65
99	0x1f	31
100	0xf2	-14
101	0xcf	-49
102	0x8e	-114
103	0xa3	-93
104	0x97	-105
105	0xc4	-60
106	0x39	57
107	0xe5	-27
108	0x94	-108
109	0xbd	-67
110	0xed	-19
111	0xc5	-59
112	0xe1	-31
113	0x91	-111
114	0xd6	-42
115	0xc7	-57
116	0xe8	-24
117	0x0b	11
118	0xd4	-44
119	0xda	-38
120	0xaf	-81
121	0x97	-105
122	0xbc	-68
123	0x39	57
124	0x0f	15
125	0x8a	-118
126	0xf3	-13
127	0xb6	-74
128	0xfe	-2
129	0x1b	27
130	0xd1	-47
131	0xa7	-89
132	0x41	65
133	0xb9	-71
134	0xe2	-30
135	0x1f	31
136	0xac	-84
137	0x38	56
138	0xff	-1
139	0xd6	-42
140	0xe5	-27
141	0x3c	60
142	0xcd	-51
143	0xe3	-29
144	0xc8	-56
145	0x18	24
146	0xe7	-25
147	0x11	17
148	0x0f	15
149	0x31	49
150	0xa6	-90
151	0xd5	-43
152	0xbc	-68
153	0x12	18
154	0xb6	-74
155	0xbb	-69
156	0xc7	-57
157	0xe7	-25
158	0x25	37
159	0xe0	-32
160	0x1c	28
161	0x8c	-116
162	0xbe	-66
163	0xcc	-52
164	0x1f	31
165	0x2b	43
166	0xa4	-92
167	0x08	8
168	0xdb	-37
169	0x0e	14
170	0x01	1
171	0xbf	-65
172	0xf4	-12
173	0x23	35
174	0x2b	43
175	0xd4	-44
176	0xf5	-11
177	0xa0	-96
178	0x9f	-97
179	0xc5	-59
180	0xca	-54
181	0x9d	-99
182	0x9e	-98
183	0xe8	-24
184	0x18	24
185	0x34	52
186	0xec	-20
187	0xa7	-89
188	0xb5	-75
189	0xfd	-3
190	0x40	64
191	0xb7	-73
192	0x02	2
193	0x9d	-99
194	0x2f	47
195	0x33	51
196	0xfa	-6
197	0xf2	-14
198	0xa7	-89
199	0x29	41
200	0x9e	-98
201	0x1d	29
202	0x1e	30
203	0xe8	-24
204	0xb9	-71
205	0xde	-34
206	0x3a	58
207	0xbb	-69
208	0x08	8
209	0x08	8
210	0x28	40
211	0x0b	11
212	0x3c	60
213	0xc0	-64
214	0xb9	-71
215	0x4a	74
216	0xc8	-56
217	0xfd	-3
218	0x18	24
219	0x9e	-98
220	0x15	21
221	0x2f	47
222	0x2f	47
223	0x9d	-99
224	0x2f	47
225	0x20	32
226	0x2c	44
227	0x15	21
228	0x94	-108
229	0xcd	-51
230	0xf0	-16
231	0xc0	-64
232	0xf0	-16
233	0xd7	-41
234	0xdf	-33
235	0xf9	-7
236	0x9a	-102
237	0x04	4
238	0x1e	30
239	0x96	-106
240	0xf0	-16
241	0xcd	-51
242	0x05	5
243	0x0e	14
244	0xe0	-32
245	0xa7	-89
246	0x27	39
247	0x3a	58
248	0x21	33
249	0xba	-70
250	0xe2	-30
251	0xfc	-4
252	0x1e	30
253	0x37	55
254	0xf3	-13
255	0x29	41

model/quant_dense_last/MatMul;model/quant_dense_last/LastValueQuant/FakeQuantWithMinMaxVars i1 [10, 96] scale=0.010847441 zero_point=0
0	0x04	0.043389764
1	0x00	0.0
2	0xfb	-0.054237206
3	0x06	0.06508464
4	0xfb	-0.054237206
5	0xf7	-0.09762697
6	0xed	-0.20610137
7	0x14	0.21694882
8	0xef	-0.18440649
9	0xf8	-0.08677953
10	0xff	-0.010847441
11	0xfb	-0.054237206
12	0xe4	-0.30372834
13	0xf4	-0.13016929
14	0xfa	-0.06508464
15	0x0b	0.11932185
16	0x0d	0.14101674
17	0x05	0.054237206
18	0xdb	-0.40135533
19	0xf5	-0.11932185
20	0xe9	-0.24949114
21	0xef	-0.18440649
22	0x09	0.09762697
23	0x06	0.06508464
24	0xff	-0.010847441
25	0xe6	-0.28203347
26	0x13	0.20610137
27	0x0e	0.15186417
28	0xd1	-0.5098297
29	0xea	-0.2386437
30	0x14	0.21694882
31	0xd2	-0.49898228
32	0x13	0.20610137
33	0x0b	0.11932185
34	0x0b	0.11932185
35	0xfd	-0.03254232
36	0x0b	0.11932185
37	0xf9	-0.075932086
38	0x00	0.0
39	0x11	0.18440649
40	0xf7	-0.09762697
41	0x0c	0.13016929
42	0xfe	-0.021694882
43	0x0c	0.13016929
44	0x06	0.06508464
45	0xf6	-0.10847441
46	0x0c	0.13016929
47	0x1b	0.2928809
48	0x04	0.043389764
49	0xfe	-0.021694882
50	0xfb	-0.054237206
51	0xfb	-0.054237206
52	0xf4	-0.13016929
53	0x0c	0.13016929
54	0xe4	-0.30372834
55	0xe9	-0.24949114
56	0xf8	-0.08677953
57	0x06	0.06508464
58	0x12	0.19525394
59	0x05	0.054237206
60	0xed	-0.20610137
61	0xe7	-0.27118602
62	0x1e	0.32542324
63	0x0f	0.16271162
64	0xde	-0.36881298
65	0xf5	-0.11932185
66	0x00	0.0
67	0x1f	0.33627066
68	0xf9	-0.075932086
69	0xe8	-0.26033857
70	0x09	0.09762697
71	0x15	0.22779626
72	0x0d	0.14101674
73	0x0f	0.16271162
74	0xf5	-0.11932185
75	0x07	0.075932086
76	0xeb	-0.22779626
77	0xe8	-0.26033857
78	0xf1	-0.16271162
79	0x11	0.18440649
80	0x06	0.06508464
81	0x1a	0.28203347
82	0x19	0.27118602
83	0x0c	0.13016929
84	0x07	0.075932086
85	0x22	0.36881298
86	0x06	0.06508464
87	0xe6	-0.28203347
88	0xea	-0.2386437
89	0xf2	-0.15186417
90	0xd8	-0.43389764
91	0xf2	-0.15186417
92	0xfe	-0.021694882
93	0x06	0.06508464
94	0xef	-0.18440649
95	0x0b	0.11932185
96	0xf9	-0.075932086
97	0xf4	-0.13016929
98	0x19	0.27118602
99	0x1a	0.28203347
100	0xf0	-0.17355905
101	0xbd	-0.72677857
102	0xb6	-0.80271065
103	0xf3	-0.14101674
104	0x0e	0.15186417
105	0xc7	-0.61830413
106	0x16	0.2386437
107	0x15	0.22779626
108	0xe1	-0.33627066
109	0xf1	-0.16271162
110	0x1c	0.30372834
111	0xe9	-0.24949114
112	0x2b	0.46643996
113	0xe5	-0.2928809
114	0x23	0.37966043
115	0xeb	-0.22779626
116	0xcb	-0.5749144
117	0xe9	-0.24949114
118	0x04	0.043389764
119	0xb4	-0.8244055
120	0xe9	-0.24949114
121	0xeb	-0.22779626
122	0xd7	-0.44474506
123	0x14	0.21694882
124	0x05	0.054237206
125	0xf1	-0.16271162
126	0xfa	-0.06508464
127	0x1e	0.32542324
128	0xe5	-0.2928809
129	0xc4	-0.6508465
130	0x0e	0.15186417
131	0x25	0.40135533
132	0x0f	0.16271162
133	0xd8	-0.43389764
134	0xbf	-0.70508367
135	0xf9	-0.075932086
136	0x09	0.09762697
137	0xe7	-0.27118602
138	0xfe	-0.021694882
139	0xf6	-0.10847441
140	0xe1	-0.33627066
141	0xea	-0.2386437
142	0xfc	-0.043389764
143	0xeb	-0.22779626
144	0x0b	0.11932185
145	0x1a	0.28203347
146	0xfa	-0.06508464
147	0xca	-0.5857618
148	0x18	0.26033857
149	0x11	0.18440649
150	0xf9	-0.075932086
151	0x0b	0.11932185
152	0x0b	0.11932185
153	0x24	0.39050788
154	0x2a	0.4555925
155	0x01	0.010847441
156	0xdf	-0.35796556
157	0xe4	-0.30372834
158	0x06	0.06508464
159	0xf2	-0.15186417
160	0xfc	-0.043389764
161	0xda	-0.41220275
162	0x09	0.09762697
163	0xec	-0.21694882
164	0x04	0.043389764
165	0x0e	0.15186417
166	0xf7	-0.09762697
167	0xee	-0.19525394
168	0x0d	0.14101674
169	0xd4	-0.4772874
170	0x0b	0.11932185
171	0xef	-0.18440649
172	0xce	-0.54237205
173	0x1f	0.33627066
174	0x1d	0.3145758
175	0xed	-0.20610137
176	0x03	0.03254232
177	0xe7	-0.27118602
178	0xfe	-0.021694882
179	0x11	0.18440649
180	0xce	-0.54237205
181	0x0a	0.10847441
182	0xd1	-0.5098297
183	0xdf	-0.35796556
184	0x0e	0.15186417
185	0xeb	-0.22779626
186	0xec	-0.21694882
187	0xe3	-0.3145758
188	0x19	0.27118602
189	0xfd	-0.03254232
190	0xf0	-0.17355905
191	0xc5	-0.63999903
192	0x08	0.08677953
193	0x01	0.010847441
194	0xed	-0.20610137
195	0xf7	-0.09762697
196	0x1b	0.2928809
197	0x0b	0.11932185
198	0x05	0.054237206
199	0xea	-0.2386437
200	0x0d	0.14101674
201	0xfe	-0.021694882
202	0x01	0.010847441
203	0xf1	-0.16271162
204	0xe3	-0.3145758
205	0xeb	-0.22779626
206	0xd5	-0.46643996
207	0xe4	-0.30372834
208	0xe9	-0.24949114
209	0x12	0.19525394
210	0x13	0.20610137
211	0xd9	-0.4230502
212	0x14	0.21694882
213	0xfa	-0.06508464
214	0xf1	-0.16271162
215	0x0b	0.11932185
216	0xe1	-0.33627066
217	0x07	0.075932086
218	0x04	0.043389764
219	0x08	0.08677953
220	0x11	0.18440649
221	0xfe	-0.021694882
222	0x1f	0.33627066
223	0x0a	0.10847441
224	0xfd	-0.03254232
225	0xf7	-0.09762697
226	0x13	0.20610137
227	0xf8	-0.08677953
228	0xec	-0.21694882
229	0x13	0.20610137
230	0xd7	-0.44474506
231	0xfd	-0.03254232
232	0xf7	-0.09762697
233	0x19	0.27118602
234	0x1b	0.2928809
235	0xec	-0.21694882
236	0x12	0.19525394
237	0x07	0.075932086
238	0xe1	-0.33627066
239	0xf0	-0.17355905
240	0x00	0.0
241	0x05	0.054237206
242	0xf7	-0.09762697
243	0x0d	0.14101674
244	0xec	-0.21694882
245	0x12	0.19525394
246	0x1d	0.3145758
247	0xee	-0.19525394
248	0xe1	-0.33627066
249	0x09	0.09762697
250	0x03	0.03254232
251	0x20	0.3471181
252	0x10	0.17355905
253	0x1b	0.2928809
254	0xef	-0.18440649
255	0xfb	-0.054237206
