model/tflite_ep5_2023-07-02_16-50-58.tflite (tflite, 118768 bytes, 4 tensors)

model/quant_conv2d/Conv2D;model/quant_conv2d/LastValueQuant/FakeQuantWithMinMaxVarsPerChannel i1 [32, 5, 5, 1]
00000000: e008 29bf 81b9 0636 14ba 0823 edee 2332
00000010: ee00 eb01 2a0f f406 09e6 81cf 5826 098e
00000020: 0e3a 313a 0123 dc14 28f4 2bf0 cc0e ff01
00000030: e6d6 414b f432 1e34 06e6 1fe9 092d e3f6
00000040: 0130 26bf 26fb 0d3a 10d6 81f7 4633 b581
00000050: f167 3c00 8408 5fd6 13e9 4dfe ed11 0935
00000060: feea e3ce 15ef 39e9 11dd 15ef 052d 10c9
00000070: d12e 2bb3 a234 7ff0 9af3 2a3b fcde fe29
00000080: 9a1e 0981 fb08 2b20 2758 b3c6 560b 85ab
00000090: 4557 2534 ba5a 0e30 4f90 fbf3 087f a2de
000000a0: f9e9 39a5 3410 155a a8ef d505 4cf1 ebba
000000b0: ab47 2d43 d199 3b22 3420 8140 f130 bca6
000000c0: 2b13 7001 aba0 d4f6 fefb 5042 6c1b 3e44
000000d0: 1418 1834 15c7 e00c e30d bec4 ecdc a281
000000e0: e2c6 1927 0809 d116 27e5 d3dc 6ef1 1812
000000f0: 9176 dcee f881 6b0e 0610 ee9c e0f6 10aa
-32 8 41 -65 -127 -71 6 54
20 -70 8 35 -19 -18 35 50
-18 0 -21 1 42 15 -12 6
9 -26 -127 -49 88 38 9 -114
14 58 49 58 1 35 -36 20
40 -12 43 -16 -52 14 -1 1
-26 -42 65 75 -12 50 30 52
6 -26 31 -23 9 45 -29 -10
1 48 38 -65 38 -5 13 58
16 -42 -127 -9 70 51 -75 -127
-15 103 60 0 -124 8 95 -42
19 -23 77 -2 -19 17 9 53
-2 -22 -29 -50 21 -17 57 -23
17 -35 21 -17 5 45 16 -55
-47 46 43 -77 -94 52 127 -16
-102 -13 42 59 -4 -34 -2 41
-102 30 9 -127 -5 8 43 32
39 88 -77 -58 86 11 -123 -85
69 87 37 52 -70 90 14 48
79 -112 -5 -13 8 127 -94 -34
-7 -23 57 -91 52 16 21 90
-88 -17 -43 5 76 -15 -21 -70
-85 71 45 67 -47 -103 59 34
52 32 -127 64 -15 48 -68 -90
43 19 112 1 -85 -96 -44 -10
-2 -5 80 66 108 27 62 68
20 24 24 52 21 -57 -32 12
-29 13 -66 -60 -20 -36 -94 -127
-30 -58 25 39 8 9 -47 22
39 -27 -45 -36 110 -15 24 18
-111 118 -36 -18 -8 -127 107 14
6 16 -18 -100 -32 -10 16 -86

model/quant_conv2d_1/Conv2D;model/quant_conv2d_1/LastValueQuant/FakeQuantWithMinMaxVarsPerChannel i1 [64, 5, 5, 32]
00000000: 04e3 eb07 e9fc 15c7 1213 0ec4 f5ea 42e7
00000010: d70e f6c6 fcf3 d318 f9f3 e8b1 01d5 f7fd
00000020: e5d9 f8b8 dafb 9dff 03c8 22c7 f814 59e7
00000030: f00f e514 cece 27f0 d331 e5fa eff3 fec9
00000040: ebf7 e1fb fedf 36fa fdd7 39f6 e102 1837
00000050: f0ff 0a14 241f 06c8 aa09 e5f0 c509 2bcb
00000060: 0bfb 061f fd15 1615 0d05 0503 f30a 11d6
00000070: e902 eb25 fce0 1b1b 0912 f804 3106 06df
00000080: fb05 f4e0 1eb4 fdfd fff9 d42e 0109 2808
00000090: f512 e4fd 1605 cef2 ecf7 e6e2 daf3 0f0c
000000a0: 0ffd e405 eef6 1dbd 1610 feed e5ea 4ada
000000b0: e7fb ead3 f705 d822 e909 cdac fae5 03e5
000000c0: e4cd e7d8 0320 81f0 11b0 21eb 091d 4e0d
000000d0: 0918 0810 a2ee 0b2e 092f ca0b 14ed 0cf9
000000e0: da02 d3d5 f8e8 40f4 150d 4a11 02fc 4f06
000000f0: f838 13ec 2217 06d7 f41f c8de b8e4 1f0b
4 -29 -21 7 -23 -4 21 -57
18 19 14 -60 -11 -22 66 -25
-41 14 -10 -58 -4 -13 -45 24
-7 -13 -24 -79 1 -43 -9 -3
-27 -39 -8 -72 -38 -5 -99 -1
3 -56 34 -57 -8 20 89 -25
-16 15 -27 20 -50 -50 39 -16
-45 49 -27 -6 -17 -13 -2 -55
-21 -9 -31 -5 -2 -33 54 -6
-3 -41 57 -10 -31 2 24 55
-16 -1 10 20 36 31 6 -56
-86 9 -27 -16 -59 9 43 -53
11 -5 6 31 -3 21 22 21
13 5 5 3 -13 10 17 -42
-23 2 -21 37 -4 -32 27 27
9 18 -8 4 49 6 6 -33
-5 5 -12 -32 30 -76 -3 -3
-1 -7 -44 46 1 9 40 8
-11 18 -28 -3 22 5 -50 -14
-20 -9 -26 -30 -38 -13 15 12
15 -3 -28 5 -18 -10 29 -67
22 16 -2 -19 -27 -22 74 -38
-25 -5 -22 -45 -9 5 -40 34
-23 9 -51 -84 -6 -27 3 -27
-28 -51 -25 -40 3 32 -127 -16
17 -80 33 -21 9 29 78 13
9 24 8 16 -94 -18 11 46
9 47 -54 11 20 -19 12 -7
-38 2 -45 -43 -8 -24 64 -12
21 13 74 17 2 -4 79 6
-8 56 19 -20 34 23 6 -41
-12 31 -56 -34 -72 -28 31 11

model/quant_conv2d_2/Conv2D;model/quant_conv2d_2/LastValueQuant/FakeQuantWithMinMaxVarsPerChannel i1 [96, 3, 3, 64]
00000000: 45ea e631 f946 a896 f2c5 abb3 ee30 e4c8
00000010: d2c8 ad1a fbc6 1e01 dda6 87b4 ee21 d0a7
00000020: 50c1 13bb f1ca c99e a0ec cf25 d7eb c085
00000030: 933e ddd6 47b0 eee7 17f7 9548 1f11 1fe8
00000040: 33b1 d1c5 c1ae adab 33b3 fcd0 bdf1 4813
00000050: 0450 00e0 e6fb fbdf 0eda e31d c1fb d1ba
00000060: d2ec bf1f f2cf 8ea3 97c4 39e5 94bd edc5
00000070: e191 d6c7 e80b d4da af97 bc39 0f8a f3b6
00000080: fe1b d1a7 41b9 e21f ac38 ffd6 e53c cde3
00000090: c818 e711 0f31 a6d5 bc12 b6bb c7e7 25e0
000000a0: 1c8c becc 1f2b a408 db0e 01bf f423 2bd4
000000b0: f5a0 9fc5 ca9d 9ee8 1834 eca7 b5fd 40b7
000000c0: 029d 2f33 faf2 a729 9e1d 1ee8 b9de 3abb
000000d0: 0808 280b 3cc0 b94a c8fd 189e 152f 2f9d
000000e0: 2f20 2c15 94cd f0c0 f0d7 dff9 9a04 1e96
000000f0: f0cd 050e e0a7 273a 21ba e2fc 1e37 f329
69 -22 -26 49 -7 70 -88 -106
-14 -59 -85 -77 -18 48 -28 -56
-46 -56 -83 26 -5 -58 30 1
-35 -90 -121 -76 -18 33 -48 -89
80 -63 19 -69 -15 -54 -55 -98
-96 -20 -49 37 -41 -21 -64 -123
-109 62 -35 -42 71 -80 -18 -25
23 -9 -107 72 31 17 31 -24
51 -79 -47 -59 -63 -82 -83 -85
51 -77 -4 -48 -67 -15 72 19
4 80 0 -32 -26 -5 -5 -33
14 -38 -29 29 -63 -5 -47 -70
-46 -20 -65 31 -14 -49 -114 -93
-105 -60 57 -27 -108 -67 -19 -59
-31 -111 -42 -57 -24 11 -44 -38
-81 -105 -68 57 15 -118 -13 -74
-2 27 -47 -89 65 -71 -30 31
-84 56 -1 -42 -27 60 -51 -29
-56 24 -25 17 15 49 -90 -43
-68 18 -74 -69 -57 -25 37 -32
28 -116 -66 -52 31 43 -92 8
-37 14 1 -65 -12 35 43 -44
-11 -96 -97 -59 -54 -99 -98 -24
24 52 -20 -89 -75 -3 64 -73
2 -99 47 51 -6 -14 -89 41
-98 29 30 -24 -71 -34 58 -69
8 8 40 11 60 -64 -71 74
-56 -3 24 -98 21 47 47 -99
47 32 44 21 -108 -51 -16 -64
-16 -41 -33 -7 -102 4 30 -106
-16 -51 5 14 -32 -89 39 58
33 -70 -30 -4 30 55 -13 41

model/quant_dense_last/MatMul;model/quant_dense_last/LastValueQuant/FakeQuantWithMinMaxVars i1 [10, 96] scale=0.010739091 zero_point=0
00000000: 0400 fb07 f9f6 ea15 eff8 fefd e3f4 fc0c
00000010: 0f06 d6f4 e7ef 0b07 02e4 160e c6e8 16cc
00000020: 130b 0bfa 0df7 0011 fa0c fe0d 06f6 0c1e
00000030: 04ff f9fa f30d e4e7 f807 1207 ece6 210f
00000040: d9f5 0021 f9e2 0b16 0e0d f407 ebe2 f115
00000050: 061d 1a0c 0826 07e4 e6ef d1ee fd04 ed0a
00000060: f8e9 1b1b f2b6 b3f2 0ec2 1717 ddf1 1fe6
00000070: 2de1 26ec c8e8 03b2 e9eb d914 03f0 fa21
00000080: e8c5 0e27 11d5 c0f9 0ee5 fcf6 dfea fbed
00000090: 0c1b fbc8 1711 f70c 0c29 2f02 dde4 05f0
000000a0: fbd0 09e8 0410 f6f0 0ed3 0bee c61f 1fea
000000b0: 03e6 fc11 c80d cdde 0dea ebe6 1afd f2c1
000000c0: 0802 f0f5 1d0b 0be9 0d01 01f3 e1ea d0e1
000000d0: e913 15d8 15fa f00b e009 0408 12fe 200b
000000e0: f7f6 15f6 ec15 d2fd fa19 1dec 1207 deef
000000f0: fd06 f70e e813 1eed de0c 0427 131e effb
0.042956363 0.0 -0.053695455 0.07517364 -0.07517364 -0.10739091 -0.23626 0.22552091
-0.18256454 -0.08591273 -0.021478182 -0.03221727 -0.31143364 -0.12886909 -0.042956363 0.12886909
0.16108637 0.06443454 -0.45104182 -0.12886909 -0.26847726 -0.18256454 0.11813 0.07517364
0.021478182 -0.30069456 0.23626 0.15034728 -0.6228673 -0.25773817 0.23626 -0.5584327
0.20404273 0.11813 0.11813 -0.06443454 0.13960817 -0.096651815 0.0 0.18256454
-0.06443454 0.12886909 -0.021478182 0.13960817 0.06443454 -0.10739091 0.12886909 0.32217273
0.042956363 -0.010739091 -0.07517364 -0.06443454 -0.13960817 0.13960817 -0.30069456 -0.26847726
-0.08591273 0.07517364 0.19330363 0.07517364 -0.21478182 -0.27921635 0.35439 0.16108637
-0.41882455 -0.11813 0.0 0.35439 -0.07517364 -0.32217273 0.11813 0.23626
0.15034728 0.13960817 -0.12886909 0.07517364 -0.22552091 -0.32217273 -0.16108637 0.22552091
0.06443454 0.31143364 0.27921635 0.12886909 0.08591273 0.40808547 0.07517364 -0.30069456
-0.27921635 -0.18256454 -0.50473726 -0.19330363 -0.03221727 0.042956363 -0.20404273 0.10739091
-0.08591273 -0.24699908 0.28995547 0.28995547 -0.15034728 -0.7946927 -0.82691 -0.15034728
0.15034728 -0.66582364 0.24699908 0.24699908 -0.37586817 -0.16108637 0.33291182 -0.27921635
0.48325908 -0.33291182 0.40808547 -0.21478182 -0.6013891 -0.25773817 0.03221727 -0.8376491
-0.24699908 -0.22552091 -0.41882455 0.21478182 0.03221727 -0.17182545 -0.06443454 0.35439
-0.25773817 -0.6336064 0.15034728 0.41882455 0.18256454 -0.4617809 -0.6873018 -0.07517364
0.15034728 -0.28995547 -0.042956363 -0.10739091 -0.35439 -0.23626 -0.053695455 -0.20404273
0.12886909 0.28995547 -0.053695455 -0.6013891 0.24699908 0.18256454 -0.096651815 0.12886909
0.12886909 0.44030273 0.50473726 0.021478182 -0.37586817 -0.30069456 0.053695455 -0.17182545
-0.053695455 -0.51547635 0.096651815 -0.25773817 0.042956363 0.17182545 -0.10739091 -0.17182545
0.15034728 -0.48325908 0.11813 -0.19330363 -0.6228673 0.33291182 0.33291182 -0.23626
0.03221727 -0.27921635 -0.042956363 0.18256454 -0.6013891 0.13960817 -0.5476936 -0.36512908
0.13960817 -0.23626 -0.22552091 -0.27921635 0.27921635 -0.03221727 -0.15034728 -0.6765627
0.08591273 0.021478182 -0.17182545 -0.11813 0.31143364 0.11813 0.11813 -0.24699908
0.13960817 0.010739091 0.010739091 -0.13960817 -0.33291182 -0.23626 -0.51547635 -0.33291182
-0.24699908 0.20404273 0.22552091 -0.42956364 0.22552091 -0.06443454 -0.17182545 0.11813
-0.3436509 0.096651815 0.042956363 0.08591273 0.19330363 -0.021478182 0.3436509 0.11813
-0.096651815 -0.10739091 0.22552091 -0.10739091 -0.21478182 0.22552091 -0.49399817 -0.03221727
-0.06443454 0.26847726 0.31143364 -0.21478182 0.19330363 0.07517364 -0.36512908 -0.18256454
-0.03221727 0.06443454 -0.096651815 0.15034728 -0.25773817 0.20404273 0.32217273 -0.20404273
-0.36512908 0.12886909 0.042956363 0.41882455 0.20404273 0.32217273 -0.18256454 -0.053695455
