model/tflite_final_02.tflite (tflite, 118768 bytes, 4 tensors)

model/quant_conv2d/Conv2D;model/quant_conv2d/LastValueQuant/FakeQuantWithMinMaxVarsPerChannel i1 [32, 5, 5, 1]
00000000: 3683 88b1 8102 cf3e 1dd6 6107 3b59 6840
00000010: bee4 e44b 33aa ee37 1f3f a1eb 1a01 6181
00000020: acc1 fe12 239d f9f4 2d41 5f0a fd3c 0632
00000030: 3e0a 2c0c 02fb 201b e93c 0e1a 03ab fae4
00000040: 8168 ddb3 cb09 522b 6035 2604 fe04 c86f
00000050: f6f2 e2a3 7f1c 1ee7 8666 212a f597 7ce8
00000060: d6cc ad74 e2ee 2be8 2d0a b5e0 3a23 fed8
00000070: e65b 2340 3a64 0b9e 2d03 dc81 8ee5 8e81
00000080: e4eb 0cf2 eafe 0500 010e 1307 ff00 010e
00000090: 0701 fafe fbfa fd06 363d 3330 1063 14e4
000000a0: f92b 2903 e317 d0ba 0419 d1c2 81d1 02fd
000000b0: 2ab8 74ae 24f6 e17f 90e1 061d 49b7 faf2
000000c0: 2407 ebf1 461b f8b5 f003 d5c6 1305 e5a8
000000d0: 81ce 0bfa decb e6ff 1108 fafc 0c0c 0a00
000000e0: fffe 7f48 3258 1855 0019 2121 30cd cfcc
000000f0: ec12 81b1 ffec f99a ffc6 fc58 2cf3 b710
54 -125 -120 -79 -127 2 -49 62
29 -42 97 7 59 89 104 64
-66 -28 -28 75 51 -86 -18 55
31 63 -95 -21 26 1 97 -127
-84 -63 -2 18 35 -99 -7 -12
45 65 95 10 -3 60 6 50
62 10 44 12 2 -5 32 27
-23 60 14 26 3 -85 -6 -28
-127 104 -35 -77 -53 9 82 43
96 53 38 4 -2 4 -56 111
-10 -14 -30 -93 127 28 30 -25
-122 102 33 42 -11 -105 124 -24
-42 -52 -83 116 -30 -18 43 -24
45 10 -75 -32 58 35 -2 -40
-26 91 35 64 58 100 11 -98
45 3 -36 -127 -114 -27 -114 -127
-28 -21 12 -14 -22 -2 5 0
1 14 19 7 -1 0 1 14
7 1 -6 -2 -5 -6 -3 6
54 61 51 48 16 99 20 -28
-7 43 41 3 -29 23 -48 -70
4 25 -47 -62 -127 -47 2 -3
42 -72 116 -82 36 -10 -31 127
-112 -31 6 29 73 -73 -6 -14
36 7 -21 -15 70 27 -8 -75
-16 3 -43 -58 19 5 -27 -88
-127 -50 11 -6 -34 -53 -26 -1
17 8 -6 -4 12 12 10 0
-1 -2 127 72 50 88 24 85
0 25 33 33 48 -51 -49 -52
-20 18 -127 -79 -1 -20 -7 -102
-1 -58 -4 88 44 -13 -73 16

model/quant_conv2d_1/Conv2D;model/quant_conv2d_1/LastValueQuant/FakeQuantWithMinMaxVarsPerChannel i1 [64, 5, 5, 32]
00000000: 22f5 fb0e f03f f939 4dc9 4021 16fd e100
00000010: 01fc 2616 0701 f22a 0cd1 d0ff 1217 14e7
00000020: 0cfe 0419 d636 2d1b 230a 0e09 e31a e104
00000030: ff19 f21c fbef 4813 0c2c f7f2 252b fae2
00000040: 04fb fc86 ff01 15d7 12f9 fdf5 3908 0de4
00000050: 14fb dd01 e0e0 0714 1626 e1e8 fd0a edf2
00000060: f3f9 0a19 efe9 cff9 0704 d80e 05c2 11ec
00000070: dcfa d8d6 cfd6 0c11 f104 e9e0 1af9 fbe8
00000080: daf1 0f1b 0aae 2b00 e825 b8d6 1ee8 39e3
00000090: ddc1 eaff e81f c018 9106 e4d1 ebfa f302
000000a0: 18de f8ef ff4d 054a 11e5 0202 c70a f0f9
000000b0: fb0b f115 1722 e545 10d7 f5e5 0dff 10dc
000000c0: 1c02 1021 f91b fadd f4ff d306 0510 ec02
000000d0: f1f3 0800 01df 1a0b 0014 0512 130c e6e9
000000e0: 0b05 0bdb eef3 d6e5 11c1 efec 1610 2c17
000000f0: 0e10 fe3a fbfb f0ec 2e12 0508 0b0b f4ed
34 -11 -5 14 -16 63 -7 57
77 -55 64 33 22 -3 -31 0
1 -4 38 22 7 1 -14 42
12 -47 -48 -1 18 23 20 -25
12 -2 4 25 -42 54 45 27
35 10 14 9 -29 26 -31 4
-1 25 -14 28 -5 -17 72 19
12 44 -9 -14 37 43 -6 -30
4 -5 -4 -122 -1 1 21 -41
18 -7 -3 -11 57 8 13 -28
20 -5 -35 1 -32 -32 7 20
22 38 -31 -24 -3 10 -19 -14
-13 -7 10 25 -17 -23 -49 -7
7 4 -40 14 5 -62 17 -20
-36 -6 -40 -42 -49 -42 12 17
-15 4 -23 -32 26 -7 -5 -24
-38 -15 15 27 10 -82 43 0
-24 37 -72 -42 30 -24 57 -29
-35 -63 -22 -1 -24 31 -64 24
-111 6 -28 -47 -21 -6 -13 2
24 -34 -8 -17 -1 77 5 74
17 -27 2 2 -57 10 -16 -7
-5 11 -15 21 23 34 -27 69
16 -41 -11 -27 13 -1 16 -36
28 2 16 33 -7 27 -6 -35
-12 -1 -45 6 5 16 -20 2
-15 -13 8 0 1 -33 26 11
0 20 5 18 19 12 -26 -23
11 5 11 -37 -18 -13 -42 -27
17 -63 -17 -20 22 16 44 23
14 16 -2 58 -5 -5 -16 -20
46 18 5 8 11 11 -12 -19

model/quant_conv2d_2/Conv2D;model/quant_conv2d_2/LastValueQuant/FakeQuantWithMinMaxVarsPerChannel i1 [96, 3, 3, 64]
00000000: d1fa 1a12 edb3 02fd edef 1a03 ec26 e824
00000010: 05e2 fd1d 092e 06da 0cf6 acbb 0be7 c1f2
00000020: 06d0 06e6 10b7 23cb fef7 f0d0 0cf9 022c
00000030: f902 b1e2 15d9 0b01 050c f3dc c429 f3ef
00000040: 3535 0b51 dffa 07e9 17c4 1eef d00f ee12
00000050: 21e3 1e2c 0503 0ee3 2513 bb14 f8d6 3ccf
00000060: 1e2a 0df9 ed04 f008 2901 07e9 cd03 eefd
00000070: fb13 e706 d615 d212 e10e 0f27 021a 020c
00000080: 0334 eaf4 cc07 f500 1d01 d808 fd14 2a02
00000090: fbfa cff7 f712 f44d 1216 c908 d4be e11f
000000a0: 107d 0ad6 2ef7 f818 f4f4 0ac3 cf06 14ae
000000b0: 0827 faef e926 bd4b b9f4 16f6 19f4 f2de
000000c0: 144d 3d2c 0338 1111 3e40 e614 f7e8 3603
000000d0: 1d04 0320 fc0c 1a52 fbea 2023 1117 f916
000000e0: 10ed 02db 19f6 21f8 1317 08cf fd41 131e
000000f0: 3922 e80f 10bc cfd9 12fc c8dd 0006 dd14
-47 -6 26 18 -19 -77 2 -3
-19 -17 26 3 -20 38 -24 36
5 -30 -3 29 9 46 6 -38
12 -10 -84 -69 11 -25 -63 -14
6 -48 6 -26 16 -73 35 -53
-2 -9 -16 -48 12 -7 2 44
-7 2 -79 -30 21 -39 11 1
5 12 -13 -36 -60 41 -13 -17
53 53 11 81 -33 -6 7 -23
23 -60 30 -17 -48 15 -18 18
33 -29 30 44 5 3 14 -29
37 19 -69 20 -8 -42 60 -49
30 42 13 -7 -19 4 -16 8
41 1 7 -23 -51 3 -18 -3
-5 19 -25 6 -42 21 -46 18
-31 14 15 39 2 26 2 12
3 52 -22 -12 -52 7 -11 0
29 1 -40 8 -3 20 42 2
-5 -6 -49 -9 -9 18 -12 77
18 22 -55 8 -44 -66 -31 31
16 125 10 -42 46 -9 -8 24
-12 -12 10 -61 -49 6 20 -82
8 39 -6 -17 -23 38 -67 75
-71 -12 22 -10 25 -12 -14 -34
20 77 61 44 3 56 17 17
62 64 -26 20 -9 -24 54 3
29 4 3 32 -4 12 26 82
-5 -22 32 35 17 23 -7 22
16 -19 2 -37 25 -10 33 -8
19 23 8 -49 -3 65 19 30
57 34 -24 15 16 -68 -49 -39
18 -4 -56 -35 0 6 -35 20

model/quant_dense_last/MatMul;model/quant_dense_last/LastValueQuant/FakeQuantWithMinMaxVars i1 [10, 96] scale=0.008418763 zero_point=0
00000000: 0902 f0d5 1c2a dcfe 03fc d703 12df e9cd
00000010: 151c ea21 021d 13f7 e2ff fd17 0a0f 060e
00000020: f5fa d9dc 0bfd 1d14 0205 15f0 1ef5 e70f
00000030: f608 16f2 0bef e4f4 d5f2 0e11 eeec f8ca
00000040: 1024 fff2 0319 efcf 121a dd13 e7fe e5fe
00000050: 0204 ebed 1028 e8fd fbcd 11ce 08f0 d9e2
00000060: cbdb 051f f4fc e40d f417 12f9 e831 0206
00000070: acf6 0bf5 dec6 0ec4 190d ba1d 19ff e719
00000080: 20ed 1aea e9c6 0cc2 0fc9 c1fa 1201 0cde
00000090: 2ffe 1cf1 f5d9 0d00 d9ef 0630 e51c 2105
000000a0: c71a e331 08fc 02d5 060e fbd3 f1d3 0225
000000b0: e6f3 08c4 04cc d204 1302 ceed c6f5 0bdd
000000c0: 0718 d7eb f322 05e2 e7fa 0bfe e0e1 de1a
000000d0: 0d05 10eb e00d e3f6 e11e fefd f923 14ca
000000e0: d6f2 e101 0f27 dc11 ceec 23ef 240d 04e5
000000f0: 040e 0718 f819 1b06 dff9 d911 f5e2 190a
0.075768866 0.016837526 -0.13470021 -0.3620068 0.23572537 0.35358804 -0.30307546 -0.016837526
0.02525629 -0.033675052 -0.34516928 0.02525629 0.15153773 -0.2778192 -0.19363154 -0.4293569
0.17679402 0.23572537 -0.18521279 0.2778192 0.016837526 0.24414413 0.1599565 -0.075768866
-0.25256288 -0.008418763 -0.02525629 0.19363154 0.08418763 0.12628144 0.05051258 0.11786269
-0.092606395 -0.05051258 -0.32833177 -0.30307546 0.092606395 -0.02525629 0.24414413 0.16837525
0.016837526 0.042093813 0.17679402 -0.13470021 0.25256288 -0.092606395 -0.21046908 0.12628144
-0.08418763 0.067350104 0.18521279 -0.11786269 0.092606395 -0.14311898 -0.23572537 -0.10102516
-0.3620068 -0.11786269 0.11786269 0.14311898 -0.15153773 -0.16837525 -0.067350104 -0.4546132
0.13470021 0.30307546 -0.008418763 -0.11786269 0.02525629 0.21046908 -0.14311898 -0.4125194
0.15153773 0.21888784 -0.2946567 0.1599565 -0.21046908 -0.016837526 -0.2273066 -0.016837526
0.016837526 0.033675052 -0.17679402 -0.1599565 0.13470021 0.3367505 -0.20205031 -0.02525629
-0.042093813 -0.4293569 0.14311898 -0.42093816 0.067350104 -0.13470021 -0.32833177 -0.25256288
-0.44619444 -0.31149423 0.042093813 0.26098165 -0.10102516 -0.033675052 -0.23572537 0.10944392
-0.10102516 0.19363154 0.15153773 -0.058931343 -0.20205031 0.4125194 0.016837526 0.05051258
-0.7071761 -0.08418763 0.092606395 -0.092606395 -0.28623796 -0.48828825 0.11786269 -0.50512576
0.21046908 0.10944392 -0.5893134 0.24414413 0.21046908 -0.008418763 -0.21046908 0.21046908
0.26940042 -0.1599565 0.21888784 -0.18521279 -0.19363154 -0.48828825 0.10102516 -0.5219633
0.12628144 -0.46303198 -0.5303821 -0.05051258 0.15153773 0.008418763 0.10102516 -0.28623796
0.39568186 -0.016837526 0.23572537 -0.12628144 -0.092606395 -0.32833177 0.10944392 0.0
-0.32833177 -0.14311898 0.05051258 0.40410063 -0.2273066 0.23572537 0.2778192 0.042093813
-0.47986948 0.21888784 -0.24414413 0.4125194 0.067350104 -0.033675052 0.016837526 -0.3620068
0.05051258 0.11786269 -0.042093813 -0.37884435 -0.12628144 -0.37884435 0.016837526 0.31149423
-0.21888784 -0.10944392 0.067350104 -0.50512576 0.033675052 -0.43777567 -0.3872631 0.033675052
0.1599565 0.016837526 -0.42093816 -0.1599565 -0.48828825 -0.092606395 0.092606395 -0.2946567
0.058931343 0.20205031 -0.34516928 -0.17679402 -0.10944392 0.28623796 0.042093813 -0.25256288
-0.21046908 -0.05051258 0.092606395 -0.016837526 -0.26940042 -0.26098165 -0.28623796 0.21888784
0.10944392 0.042093813 0.13470021 -0.17679402 -0.26940042 0.10944392 -0.24414413 -0.08418763
-0.26098165 0.25256288 -0.016837526 -0.02525629 -0.058931343 0.2946567 0.16837525 -0.4546132
-0.35358804 -0.11786269 -0.26098165 0.008418763 0.12628144 0.32833177 -0.30307546 0.14311898
-0.42093816 -0.16837525 0.2946567 -0.14311898 0.30307546 0.10944392 0.033675052 -0.2273066
0.033675052 0.11786269 0.058931343 0.20205031 -0.067350104 0.21046908 0.2273066 0.05051258
-0.2778192 -0.058931343 -0.32833177 0.14311898 -0.092606395 -0.25256288 0.21046908 0.08418763
