model/tflite_ep3_2023-07-02_14-45-44.tflite (tflite, 118768 bytes, 4 tensors)

model/quant_conv2d/Conv2D;model/quant_conv2d/LastValueQuant/FakeQuantWithMinMaxVarsPerChannel i1 [32, 5, 5, 1]
000000 e0 0a 29 c2 81 b9 05 33 16 ba 0a 27 ea ee 23 32
       -32 10 41 -62 -127 -71 5 51 22 -70 10 39 -22 -18 35 50
000010 eb 00 e8 03 2a 0e f0 03 0a e7 81 d1 5b 26 0b 8c
       -21 0 -24 3 42 14 -16 3 10 -25 -127 -47 91 38 11 -116
000020 10 3c 35 3e 04 26 d7 13 2d f3 2a eb cc 0f fe 04
       16 60 53 62 4 38 -41 19 45 -13 42 -21 -52 15 -2 4
000030 e7 d8 3e 4b ee 2d 20 35 05 e9 1e eb 06 2f e4 f2
       -25 -40 62 75 -18 45 32 53 5 -23 30 -21 6 47 -28 -14
000040 fe 2e 26 be 26 fc 0a 39 11 d6 81 f8 44 34 b5 81
       -2 46 38 -66 38 -4 10 57 17 -42 -127 -8 68 52 -75 -127
000050 f4 64 3e 01 88 09 5d d8 0f e7 4f f8 ee 10 0a 39
       -12 100 62 1 -120 9 93 -40 15 -25 79 -8 -18 16 10 57
000060 ff eb e4 d0 17 f0 39 e3 11 d8 16 eb 03 2b 13 cb
       -1 -21 -28 -48 23 -16 57 -29 17 -40 22 -21 3 43 19 -53
000070 d1 2f 2a b1 a4 35 7f ed 98 f7 2b 3d fa da fb 27
       -47 47 42 -79 -92 53 127 -19 -104 -9 43 61 -6 -38 -5 39
000080 97 18 05 85 fa 05 2b 18 26 58 b5 c2 54 0f 81 a0
       -105 24 5 -123 -6 5 43 24 38 88 -75 -62 84 15 -127 -96
000090 42 57 2a 33 bf 61 0d 30 4f 95 fb f0 08 7f a4 dc
       66 87 42 51 -65 97 13 48 79 -107 -5 -16 8 127 -92 -36
0000a0 fa ea 35 a7 31 0d 15 57 a9 ed d1 03 49 f3 eb b4
       -6 -22 53 -89 49 13 21 87 -87 -19 -47 3 73 -13 -21 -76
0000b0 a8 49 2a 49 cc 97 46 25 35 25 81 4a f8 39 ba a0
       -88 73 42 73 -52 -105 70 37 53 37 -127 74 -8 57 -70 -96
0000c0 2d 11 75 08 ab a0 d2 f4 fb fc 50 45 6f 1c 3c 45
       45 17 117 8 -85 -96 -46 -12 -5 -4 80 69 111 28 60 69
0000d0 17 1c 19 32 17 c8 e1 0d e1 0f c1 c4 eb d9 a4 81
       23 28 25 50 23 -56 -31 13 -31 15 -63 -60 -21 -39 -92 -127
0000e0 e3 c7 1c 28 09 0b d3 19 29 e2 d0 de 6d f0 18 14
       -29 -57 28 40 9 11 -45 25 41 -30 -48 -34 109 -16 24 20
0000f0 8f 70 da eb f3 81 6b 0e 05 12 f1 a0 e0 f6 10 ab
       -113 112 -38 -21 -13 -127 107 14 5 18 -15 -96 -32 -10 16 -85

model/quant_conv2d_1/Conv2D;model/quant_conv2d_1/LastValueQuant/FakeQuantWithMinMaxVarsPerChannel i1 [64, 5, 5, 32]
000000 f5 e5 eb 03 e5 03 0d ca 10 0a 08 ca f3 ef 42 ee
       -11 -27 -21 3 -27 3 13 -54 16 10 8 -54 -13 -17 66 -18
000010 da 06 f5 ca fd f9 cb 0e e8 f1 e8 b3 fd da f4 f9
       -38 6 -11 -54 -3 -7 -53 14 -24 -15 -24 -77 -3 -38 -12 -7
000020 db dd fe c4 de ff ae 00 06 c4 1f c5 f2 12 5a ed
       -37 -35 -2 -60 -34 -1 -82 0 6 -60 31 -59 -14 18 90 -19
000030 e9 0d e5 16 d0 d0 29 ec d3 2d e4 fa f3 f6 fd c4
       -23 13 -27 22 -48 -48 41 -20 -45 45 -28 -6 -13 -10 -3 -60
000040 de f9 e1 f6 00 d4 31 fd ff df 31 f5 dd 02 1b 2e
       -34 -7 -31 -10 0 -44 49 -3 -1 -33 49 -11 -35 2 27 46
000050 ee fb 06 0e 21 16 f7 c2 b3 09 e5 f0 cc 07 26 cf
       -18 -5 6 14 33 22 -9 -62 -77 9 -27 -16 -52 7 38 -49
000060 fd f2 04 1d f8 12 15 0e 0a 05 03 ff f6 0a 12 cd
       -3 -14 4 29 -8 18 21 14 10 5 3 -1 -10 10 18 -51
000070 ef 04 e9 1a f2 dc 14 15 05 0f f9 01 2c 03 06 e4
       -17 4 -23 26 -14 -36 20 21 5 15 -7 1 44 3 6 -28
000080 fc ff f6 e3 16 bb ff fb 00 f7 d7 26 03 0d 2a 0c
       -4 -1 -10 -29 22 -69 -1 -5 0 -9 -41 38 3 13 42 12
000090 f8 0f e4 fe 0c 04 cc eb ec f7 e0 e5 d8 fa 09 0f
       -8 15 -28 -2 12 4 -52 -21 -20 -9 -32 -27 -40 -6 9 15
0000a0 0f fb e6 07 ee f3 17 c0 17 08 fd f4 e9 ea 4b dc
       15 -5 -26 7 -18 -13 23 -64 23 8 -3 -12 -23 -22 75 -36
0000b0 eb 00 eb d1 f9 00 d5 1a e7 09 ce ad f8 ed 07 eb
       -21 0 -21 -47 -7 0 -43 26 -25 9 -50 -83 -8 -19 7 -21
0000c0 ec cb ed e4 06 1d 8d ef 12 b6 20 ea 02 19 4e 05
       -20 -53 -19 -28 6 29 -115 -17 18 -74 32 -22 2 25 78 5
0000d0 0d 1e 09 12 a6 e9 09 2e 0d 30 c9 07 14 f3 0b 01
       13 30 9 18 -90 -23 9 46 13 48 -55 7 20 -13 11 1
0000e0 d2 05 d4 d0 fc e3 39 f6 16 10 40 0d f8 f6 4b 00
       -46 5 -44 -48 -4 -29 57 -10 22 16 64 13 -8 -10 75 0
0000f0 f9 36 0f e3 21 16 fe d4 f6 1e cd e1 ba e3 1e 06
       -7 54 15 -29 33 22 -2 -44 -10 30 -51 -31 -70 -29 30 6

model/quant_conv2d_2/Conv2D;model/quant_conv2d_2/LastValueQuant/FakeQuantWithMinMaxVarsPerChannel i1 [96, 3, 3, 64]
000000 45 ea e6 31 f9 46 a8 96 f2 c5 ab b3 ee 30 e4 c8
       69 -22 -26 49 -7 70 -88 -106 -14 -59 -85 -77 -18 48 -28 -56
000010 d2 c8 ad 1a fb c6 1e 01 dd a6 87 b4 ee 21 d0 a7
       -46 -56 -83 26 -5 -58 30 1 -35 -90 -121 -76 -18 33 -48 -89
000020 50 c1 13 bb f1 ca c9 9e a0 ec cf 25 d7 eb c0 85
       80 -63 19 -69 -15 -54 -55 -98 -96 -20 -49 37 -41 -21 -64 -123
000030 93 3e dd d6 47 b0 ee e7 17 f7 95 48 1f 11 1f e8
       -109 62 -35 -42 71 -80 -18 -25 23 -9 -107 72 31 17 31 -24
000040 33 b1 d1 c5 c1 ae ad ab 33 b3 fc d0 bd f1 48 13
       51 -79 -47 -59 -63 -82 -83 -85 51 -77 -4 -48 -67 -15 72 19
000050 04 50 00 e0 e6 fb fb df 0e da e3 1d c1 fb d1 ba
       4 80 0 -32 -26 -5 -5 -33 14 -38 -29 29 -63 -5 -47 -70
000060 d2 ec bf 1f f2 cf 8e a3 97 c4 39 e5 94 bd ed c5
       -46 -20 -65 31 -14 -49 -114 -93 -105 -60 57 -27 -108 -67 -19 -59
000070 e1 91 d6 c7 e8 0b d4 da af 97 bc 39 0f 8a f3 b6
       -31 -111 -42 -57 -24 11 -44 -38 -81 -105 -68 57 15 -118 -13 -74
000080 fe 1b d1 a7 41 b9 e2 1f ac 38 ff d6 e5 3c cd e3
       -2 27 -47 -89 65 -71 -30 31 -84 56 -1 -42 -27 60 -51 -29
000090 c8 18 e7 11 0f 31 a6 d5 bc 12 b6 bb c7 e7 25 e0
       -56 24 -25 17 15 49 -90 -43 -68 18 -74 -69 -57 -25 37 -32
0000a0 1c 8c be cc 1f 2b a4 08 db 0e 01 bf f4 23 2b d4
       28 -116 -66 -52 31 43 -92 8 -37 14 1 -65 -12 35 43 -44
0000b0 f5 a0 9f c5 ca 9d 9e e8 18 34 ec a7 b5 fd 40 b7
       -11 -96 -97 -59 -54 -99 -98 -24 24 52 -20 -89 -75 -3 64 -73
0000c0 02 9d 2f 33 fa f2 a7 29 9e 1d 1e e8 b9 de 3a bb
       2 -99 47 51 -6 -14 -89 41 -98 29 30 -24 -71 -34 58 -69
0000d0 08 08 28 0b 3c c0 b9 4a c8 fd 18 9e 15 2f 2f 9d
       8 8 40 11 60 -64 -71 74 -56 -3 24 -98 21 47 47 -99
0000e0 2f 20 2c 15 94 cd f0 c0 f0 d7 df f9 9a 04 1e 96
       47 32 44 21 -108 -51 -16 -64 -16 -41 -33 -7 -102 4 30 -106
0000f0 f0 cd 05 0e e0 a7 27 3a 21 ba e2 fc 1e 37 f3 29
       -16 -51 5 14 -32 -89 39 58 33 -70 -30 -4 30 55 -13 41

model/quant_dense_last/MatMul;model/quant_dense_last/LastValueQuant/FakeQuantWithMinMaxVars i1 [10, 96] scale=0.010593886 zero_point=0
000000 04 01 fc 07 fb f6 ea 15 ee f9 ff fc e2 f4 fb 0b
       0.042375542 0.010593886 -0.042375542 0.0741572 -0.052969426 -0.10593885 -0.23306549 0.2224716 -0.19068994 -0.0741572 -0.010593886 -0.042375542 -0.31781656 -0.12712663 -0.052969426 0.11653274
000010 0f 05 d9 f5 e8 ef 0b 07 00 e4 14 0f cc e8 15 d0
       0.15890828 0.052969426 -0.41316155 -0.11653274 -0.25425327 -0.18009606 0.11653274 0.0741572 0.0 -0.2966288 0.2118777 0.15890828 -0.55088204 -0.25425327 0.2224716 -0.50850654
000020 12 0b 0b fd 0c f8 ff 12 fa 0c fe 0d 06 f6 0c 1d
       0.19068994 0.11653274 0.11653274 -0.03178166 0.12712663 -0.084751084 -0.010593886 0.19068994 -0.06356332 0.12712663 -0.021187771 0.13772051 0.06356332 -0.10593885 0.12712663 0.3072227
000030 05 fe fa fa f6 0d e2 e7 f8 06 12 06 ec e5 20 0f
       0.052969426 -0.021187771 -0.06356332 -0.06356332 -0.10593885 0.13772051 -0.31781656 -0.26484713 -0.084751084 0.06356332 0.19068994 0.06356332 -0.2118777 -0.2860349 0.33900434 0.15890828
000040 db f5 00 20 f9 e3 0a 16 0e 0f f5 07 e9 e5 f0 13
       -0.39197376 -0.11653274 0.0 0.33900434 -0.0741572 -0.3072227 0.10593885 0.23306549 0.1483144 0.15890828 -0.11653274 0.0741572 -0.24365936 -0.2860349 -0.16950217 0.20128383
000050 06 1c 1a 0c 06 24 06 e5 e9 f1 d5 f0 fe 05 ed 09
       0.06356332 0.2966288 0.27544102 0.12712663 0.06356332 0.38137987 0.06356332 -0.2860349 -0.24365936 -0.15890828 -0.45553708 -0.16950217 -0.021187771 0.052969426 -0.20128383 0.09534497
000060 f8 f4 19 1b ee b8 b4 f2 0f c2 16 17 df f1 1e e8
       -0.084751084 -0.12712663 0.26484713 0.2860349 -0.19068994 -0.76275975 -0.8051353 -0.1483144 0.15890828 -0.6568209 0.23306549 0.24365936 -0.34959823 -0.15890828 0.31781656 -0.25425327
000070 2d e2 24 e8 ca e8 04 b0 e9 eb d6 15 06 f3 f9 1e
       0.47672486 -0.31781656 0.38137987 -0.25425327 -0.5720698 -0.25425327 0.042375542 -0.8475108 -0.24365936 -0.2224716 -0.4449432 0.2224716 0.06356332 -0.13772051 -0.0741572 0.31781656
000080 e8 c2 0f 28 11 d7 be f9 0e e5 fc f6 de ea fc ed
       -0.25425327 -0.6568209 0.15890828 0.4237554 0.18009606 -0.4343493 -0.69919646 -0.0741572 0.1483144 -0.2860349 -0.042375542 -0.10593885 -0.36019212 -0.23306549 -0.042375542 -0.20128383
000090 0d 1a fb c6 17 11 f8 0b 0a 28 2d 02 df e3 04 f0
       0.13772051 0.27544102 -0.052969426 -0.6144454 0.24365936 0.18009606 -0.084751084 0.11653274 0.10593885 0.4237554 0.47672486 0.021187771 -0.34959823 -0.3072227 0.042375542 -0.16950217
0000a0 fc d2 09 e9 04 0e f5 f0 0d d3 0b ee c4 20 1f eb
       -0.042375542 -0.48731872 0.09534497 -0.24365936 0.042375542 0.1483144 -0.11653274 -0.16950217 0.13772051 -0.47672486 0.11653274 -0.19068994 -0.6356331 0.33900434 0.32841045 -0.2224716
0000b0 03 e5 fd 0f c8 0b cf db 0e e9 eb e2 1b fe ee c3
       0.03178166 -0.2860349 -0.03178166 0.15890828 -0.5932576 0.11653274 -0.51910037 -0.39197376 0.1483144 -0.24365936 -0.2224716 -0.31781656 0.2860349 -0.021187771 -0.19068994 -0.646227
0000c0 08 05 ef f6 1b 0b 08 e8 0e 00 01 f1 e2 ea d4 e3
       0.084751084 0.052969426 -0.18009606 -0.10593885 0.2860349 0.11653274 0.084751084 -0.25425327 0.1483144 0.0 0.010593886 -0.15890828 -0.31781656 -0.23306549 -0.46613097 -0.3072227
0000d0 e8 11 15 da 15 fa f0 0b e1 08 05 08 13 fe 1f 0b
       -0.25425327 0.18009606 0.2224716 -0.40256765 0.2224716 -0.06356332 -0.16950217 0.11653274 -0.32841045 0.084751084 0.052969426 0.084751084 0.20128383 -0.021187771 0.32841045 0.11653274
0000e0 fa f7 14 f8 ec 14 d4 fd fa 1a 1c ec 12 07 e0 ef
       -0.06356332 -0.09534497 0.2118777 -0.084751084 -0.2118777 0.2118777 -0.46613097 -0.03178166 -0.06356332 0.27544102 0.2966288 -0.2118777 0.19068994 0.0741572 -0.33900434 -0.18009606
0000f0 ff 05 f8 0c e9 13 1d ed e1 09 03 23 12 1d ef fa
       -0.010593886 0.052969426 -0.084751084 0.12712663 -0.24365936 0.20128383 0.3072227 -0.20128383 -0.32841045 0.09534497 0.03178166 0.37078598 0.19068994 0.3072227 -0.18009606 -0.06356332
