logs/quant_model_q2.tflite (tflite, 118816 bytes, 4 tensors)

sequential_3/quant_conv2d_9/Conv2D i1 [32, 5, 5, 1]
00000000: fa04 bb33 1c02 4481 3614 285d 97fb 0acc
00000010: 3a3b 0adc 08e3 a170 05fa e044 be3a d501
00000020: 2cb5 57be e875 cd1b c6ef 7ff7 e309 f43c
00000030: 0eaf 277d 6e43 7fce 1010 3235 1c39 d0dc
00000040: 941f 1997 9daf d6e5 b0b7 09fa f3b1 81bf
00000050: 0eff 0ae1 dbf3 fb17 090a 0a19 344c 33f6
00000060: fefd 4815 c5d8 44fc 2c8f 14b9 a7f7 5743
00000070: 87da 0a0a ba0c 6ee7 8132 5311 11f5 4627
00000080: a581 2afd 6911 bd07 da45 d824 e309 28e6
00000090: f0c9 1831 fbe7 fe02 fd04 fe14 0df6 08fc
000000a0: fce7 f20c 06cb 8df7 1b0c 9981 ee00 f6da
000000b0: 8179 4cec a402 6540 c925 17d2 e514 ee1f
000000c0: 3cca ed46 2c15 a8d4 f72c f01c 483d 2e9c
000000d0: 9f15 3bfb c681 036a 2638 ee42 26f4 e6ab
000000e0: dbf7 9e6d 57c5 afa8 5550 24eb b56c 0104
000000f0: a195 4874 15a4 813d 5039 2112 f203 4476
-6 4 -69 51 28 2 68 -127
54 20 40 93 -105 -5 10 -52
58 59 10 -36 8 -29 -95 112
5 -6 -32 68 -66 58 -43 1
44 -75 87 -66 -24 117 -51 27
-58 -17 127 -9 -29 9 -12 60
14 -81 39 125 110 67 127 -50
16 16 50 53 28 57 -48 -36
-108 31 25 -105 -99 -81 -42 -27
-80 -73 9 -6 -13 -79 -127 -65
14 -1 10 -31 -37 -13 -5 23
9 10 10 25 52 76 51 -10
-2 -3 72 21 -59 -40 68 -4
44 -113 20 -71 -89 -9 87 67
-121 -38 10 10 -70 12 110 -25
-127 50 83 17 17 -11 70 39
-91 -127 42 -3 105 17 -67 7
-38 69 -40 36 -29 9 40 -26
-16 -55 24 49 -5 -25 -2 2
-3 4 -2 20 13 -10 8 -4
-4 -25 -14 12 6 -53 -115 -9
27 12 -103 -127 -18 0 -10 -38
-127 121 76 -20 -92 2 101 64
-55 37 23 -46 -27 20 -18 31
60 -54 -19 70 44 21 -88 -44
-9 44 -16 28 72 61 46 -100
-97 21 59 -5 -58 -127 3 106
38 56 -18 66 38 -12 -26 -85
-37 -9 -98 109 87 -59 -81 -88
85 80 36 -21 -75 108 1 4
-95 -107 72 116 21 -92 -127 61
80 57 33 18 -14 3 68 118

sequential_3/quant_conv2d_10/Conv2D i1 [64, 5, 5, 32]
00000000: f922 21eb 03da 1913 ff1d fef6 0512 a002
00000010: 14f2 042a 02ef 0ef4 a70f 0616 0905 b902
00000020: f009 1de1 07fe 113e ea09 f8f3 02ef 1ce7
00000030: fbfb 06e2 e4e3 f6f0 df03 120d 0e00 e5f0
00000040: fbf0 edf8 08fb c3d3 01df 0d1c 01f9 34f1
00000050: 1a26 0bee ed25 fdfa f404 01f0 d9e4 2afe
00000060: 26dc 0903 d7dc 8d14 fce9 01fc efe2 f0f9
00000070: f2ed f71d e425 ed01 f814 e7fe 0219 1e19
00000080: 01c4 c5ef f0df db03 06ca f0d0 f2d2 eedb
00000090: f7ed f71b ea0a d5fe d7e9 0ef4 0304 10f7
000000a0: f310 cee7 0bd7 1811 0b09 fdd6 0af9 d3fa
000000b0: eafd e2fc 2615 05e9 1ee0 ecfe 1601 a8f3
000000c0: 171d e4f3 1be7 1028 0bfd 1ad3 fadd f6f1
000000d0: f1e4 f207 0eb8 dbe2 e7e2 c2dc 18c4 e6eb
000000e0: 07ff e4f9 fc25 e002 ebf2 f601 fff8 2837
000000f0: 3212 feff dbf0 e3fe 0bda e4ea e3e0 1125
-7 34 33 -21 3 -38 25 19
-1 29 -2 -10 5 18 -96 2
20 -14 4 42 2 -17 14 -12
-89 15 6 22 9 5 -71 2
-16 9 29 -31 7 -2 17 62
-22 9 -8 -13 2 -17 28 -25
-5 -5 6 -30 -28 -29 -10 -16
-33 3 18 13 14 0 -27 -16
-5 -16 -19 -8 8 -5 -61 -45
1 -33 13 28 1 -7 52 -15
26 38 11 -18 -19 37 -3 -6
-12 4 1 -16 -39 -28 42 -2
38 -36 9 3 -41 -36 -115 20
-4 -23 1 -4 -17 -30 -16 -7
-14 -19 -9 29 -28 37 -19 1
-8 20 -25 -2 2 25 30 25
1 -60 -59 -17 -16 -33 -37 3
6 -54 -16 -48 -14 -46 -18 -37
-9 -19 -9 27 -22 10 -43 -2
-41 -23 14 -12 3 4 16 -9
-13 16 -50 -25 11 -41 24 17
11 9 -3 -42 10 -7 -45 -6
-22 -3 -30 -4 38 21 5 -23
30 -32 -20 -2 22 1 -88 -13
23 29 -28 -13 27 -25 16 40
11 -3 26 -45 -6 -35 -10 -15
-15 -28 -14 7 14 -72 -37 -30
-25 -30 -62 -36 24 -60 -26 -21
7 -1 -28 -7 -4 37 -32 2
-21 -14 -10 1 -1 -8 40 55
50 18 -2 -1 -37 -16 -29 -2
11 -38 -28 -22 -29 -32 17 37

sequential_3/quant_conv2d_11/Conv2D i1 [96, 3, 3, 64]
00000000: f685 f9d9 fa10 05e6 ee11 fffd 1203 a4f4
00000010: 1fec c507 fc16 c00d c1fb f8ff fbdc ffe1
00000020: fae1 3212 dbff e5fa 0509 e24c e0f3 ebec
00000030: b623 e1e6 ed01 ebfb 04f1 f9fc d10a dd09
00000040: febf f5ea fb0e f0d0 3922 dddd 0814 d3f9
00000050: 20ff e5f2 fa03 0711 21f5 f3db ecfd 26b4
00000060: bc0d 5728 fdfb fceb 1001 043f fbff d8eb
00000070: 2931 0017 0ce7 09fa fed4 15be 330a 2b32
00000080: fb1f 0637 03fe 1b10 1220 1cc2 0802 d5fa
00000090: 1820 15bd de2f 3101 f5eb f3c9 f7fc f9f3
000000a0: 0320 282f e9f5 15da 12ec 221e 0aef 0d01
000000b0: f6e6 1ce7 07d4 f0c8 e5f1 fbdd 2259 040a
000000c0: 04e5 06a1 033a 2eaa 1a02 e72d 2c0b c81e
000000d0: c9eb cf39 41ef 130e be06 3cc2 f5ed d423
000000e0: 531c 6bff fdff ca0e ef09 bc2f fdb4 1bf3
000000f0: d940 d8fc 30dd da1a 0e2a f817 01f3 ac0a
-10 -123 -7 -39 -6 16 5 -26
-18 17 -1 -3 18 3 -92 -12
31 -20 -59 7 -4 22 -64 13
-63 -5 -8 -1 -5 -36 -1 -31
-6 -31 50 18 -37 -1 -27 -6
5 9 -30 76 -32 -13 -21 -20
-74 35 -31 -26 -19 1 -21 -5
4 -15 -7 -4 -47 10 -35 9
-2 -65 -11 -22 -5 14 -16 -48
57 34 -35 -35 8 20 -45 -7
32 -1 -27 -14 -6 3 7 17
33 -11 -13 -37 -20 -3 38 -76
-68 13 87 40 -3 -5 -4 -21
16 1 4 63 -5 -1 -40 -21
41 49 0 23 12 -25 9 -6
-2 -44 21 -66 51 10 43 50
-5 31 6 55 3 -2 27 16
18 32 28 -62 8 2 -43 -6
24 32 21 -67 -34 47 49 1
-11 -21 -13 -55 -9 -4 -7 -13
3 32 40 47 -23 -11 21 -38
18 -20 34 30 10 -17 13 1
-10 -26 28 -25 7 -44 -16 -56
-27 -15 -5 -35 34 89 4 10
4 -27 6 -95 3 58 46 -86
26 2 -25 45 44 11 -56 30
-55 -21 -49 57 65 -17 19 14
-66 6 60 -62 -11 -19 -44 35
83 28 107 -1 -3 -1 -54 14
-17 9 -68 47 -3 -76 27 -13
-39 64 -40 -4 48 -35 -38 26
14 42 -8 23 1 -13 -84 10

sequential_3/quant_dense_3/MatMul;sequential_3/quant_dense_3/LastValueQuant/FakeQuantWithMinMaxVars i1 [10, 96] scale=0.0061338493 zero_point=0
00000000: 3121 a727 f0e1 1522 f8dd d11e d714 f8cd
00000010: 18d4 12e4 f6fb 2521 eee1 fb1c ce17 ea16
00000020: f920 00ea df29 ec3b 2408 101c e701 e038
00000030: 0cd7 f7cb 0d11 24ef ed1e e0e6 0def d9b6
00000040: 28aa eee5 f1fe 1d20 f5e2 161c faa1 0ee0
00000050: 0714 1ae5 f80c 1afb 18f5 1af7 d91e 09f1
00000060: a2f9 0a08 f64c f4f6 02dd 08e8 1305 1881
00000070: b8b3 f942 01f5 d910 bb40 d507 e2e8 e901
00000080: 2fd7 4cf8 1c09 a536 e0db e0bf 3000 ff0b
00000090: 9848 f50f 1414 0209 d9f3 1010 1054 bed6
000000a0: 0d12 1d00 0aa6 faba 0228 0d03 db15 f911
000000b0: cda2 95a2 c80f fceb c9a2 33fc fa00 9200
000000c0: de1f e80a 2be6 e3e1 e92c 3111 09fa f3fd
000000d0: d8e5 1701 2411 2ba8 35e6 ffec c41f 1517
000000e0: cbf1 08e6 35d2 c533 0f07 e2ea e7f9 e906
000000f0: 16f2 15de e4f8 e3f3 d6ff 10ef f5fa e0ed
0.30055863 0.20241703 -0.54591256 0.23922013 -0.09814159 -0.19014932 0.12881084 0.20855087
-0.049070794 -0.21468472 -0.28829092 0.18401548 -0.25148782 0.12267698 -0.049070794 -0.3128263
0.14721239 -0.26988935 0.11040929 -0.17174777 -0.06133849 -0.030669246 0.22695242 0.20241703
-0.11040929 -0.19014932 -0.030669246 0.17174777 -0.30669245 0.14107853 -0.13494468 0.13494468
-0.042936943 0.19628318 0.0 -0.13494468 -0.20241703 0.25148782 -0.12267698 0.3618971
0.22081858 0.049070794 0.09814159 0.17174777 -0.15334623 0.0061338493 -0.19628318 0.34349555
0.07360619 -0.25148782 -0.055204645 -0.325094 0.07974004 0.104275435 0.22081858 -0.104275435
-0.11654314 0.18401548 -0.19628318 -0.15948008 0.07974004 -0.104275435 -0.23922013 -0.45390484
0.24535397 -0.52751106 -0.11040929 -0.16561393 -0.09200774 -0.0122676985 0.17788163 0.19628318
-0.06747234 -0.18401548 0.13494468 0.17174777 -0.036803097 -0.5827157 0.08587389 -0.19628318
0.042936943 0.12267698 0.15948008 -0.16561393 -0.049070794 0.07360619 0.15948008 -0.030669246
0.14721239 -0.06747234 0.15948008 -0.055204645 -0.23922013 0.18401548 0.055204645 -0.09200774
-0.57658184 -0.042936943 0.06133849 0.049070794 -0.06133849 0.46617255 -0.07360619 -0.06133849
0.0122676985 -0.21468472 0.049070794 -0.14721239 0.11654314 0.030669246 0.14721239 -0.77899885
-0.44163716 -0.4723064 -0.042936943 0.40483406 0.0061338493 -0.06747234 -0.23922013 0.09814159
-0.4232356 0.39256635 -0.26375553 0.042936943 -0.18401548 -0.14721239 -0.14107853 0.0061338493
0.28829092 -0.25148782 0.46617255 -0.049070794 0.17174777 0.055204645 -0.5581803 0.33122787
-0.19628318 -0.22695242 -0.19628318 -0.3987002 0.29442477 0.0 -0.0061338493 0.06747234
-0.6379203 0.44163716 -0.06747234 0.09200774 0.12267698 0.12267698 0.0122676985 0.055204645
-0.23922013 -0.07974004 0.09814159 0.09814159 0.09814159 0.51524335 -0.40483406 -0.25762168
0.07974004 0.11040929 0.17788163 0.0 0.06133849 -0.5520464 -0.036803097 -0.42936945
0.0122676985 0.24535397 0.07974004 0.018401548 -0.22695242 0.12881084 -0.042936943 0.104275435
-0.3128263 -0.57658184 -0.6563219 -0.57658184 -0.34349555 0.09200774 -0.024535397 -0.12881084
-0.33736172 -0.57658184 0.3128263 -0.024535397 -0.036803097 0.0 -0.67472345 0.0
-0.20855087 0.19014932 -0.14721239 0.06133849 0.26375553 -0.15948008 -0.17788163 -0.19014932
-0.14107853 0.26988935 0.30055863 0.104275435 0.055204645 -0.036803097 -0.07974004 -0.018401548
-0.24535397 -0.16561393 0.14107853 0.0061338493 0.22081858 0.104275435 0.26375553 -0.5397787
0.325094 -0.15948008 -0.0061338493 -0.12267698 -0.36803097 0.19014932 0.12881084 0.14107853
-0.325094 -0.09200774 0.049070794 -0.15948008 0.325094 -0.28215706 -0.3618971 0.3128263
0.09200774 0.042936943 -0.18401548 -0.13494468 -0.15334623 -0.042936943 -0.14107853 0.036803097
0.13494468 -0.08587389 0.12881084 -0.20855087 -0.17174777 -0.049070794 -0.17788163 -0.07974004
-0.25762168 -0.0061338493 0.09814159 -0.104275435 -0.06747234 -0.036803097 -0.19628318 -0.11654314
