logs/quant_model.tflite (tflite, 118696 bytes, 4 tensors)

sequential/quant_conv2d/Conv2D i1 [32, 5, 5, 1]
-67 -88 -40 82 73 -6 28 91
90 62 49 46 50 -22 -15 24
19 -1 -29 -30 -17 -40 -62 -127
-86 -8 -10 -26 42 57 6 -112
-60 127 28 13 -30 -34 42 -40
57 89 -14 10 -104 -60 13 27
19 0 -127 64 14 52 25 -27
-52 63 31 -4 2 -4 -44 -5
-12 34 32 -59 -22 33 14 60
-60 -36 -37 -71 -63 -9 -5 3
-127 -123 -29 14 20 -54 -49 5
8 11 -7 -3 -3 -3 14 3
-4 -1 6 14 -103 97 3 -61
12 -104 79 -30 -11 -27 -31 22
58 -24 -40 -62 -95 127 22 1
52 -92 -110 79 41 -12 -28 -113
101 93 -81 -7 -36 96 18 -30
43 20 46 -79 38 14 30 9
-101 -1 -61 -19 127 -55 -65 113
13 -25 -42 -77 107 90 -74 -91
10 -41 104 50 -67 -58 -30 1
127 -10 -40 -68 -10 117 -35 -127
-73 -25 29 -2 5 -78 -21 9
-28 48 88 92 31 18 -29 60
80 -67 13 -30 27 -36 -105 -109
-21 47 -62 14 60 3 -20 -127
82 94 84 -54 -115 93 7 -70
11 19 10 107 -80 -78 -50 60
74 -4 1 55 99 -118 -21 -7
36 114 -127 11 34 47 47 -119
67 -29 -25 92 -102 -32 -24 51
85 -76 -81 -75 127 23 13 -75
00000000: bda8 d852 49fa 1c5b 5a3e 312e 32ea f118
00000010: 13ff e3e2 efd8 c281 aaf8 f6e6 2a39 0690
00000020: c47f 1c0d e2de 2ad8 3959 f20a 98c4 0d1b
00000030: 1300 8140 0e34 19e5 cc3f 1ffc 02fc d4fb
00000040: f422 20c5 ea21 0e3c c4dc dbb9 c1f7 fb03
00000050: 8185 e30e 14ca cf05 080b f9fd fdfd 0e03
00000060: fcff 060e 9961 03c3 0c98 4fe2 f5e5 e116
00000070: 3ae8 d8c2 a17f 1601 34a4 924f 29f4 e48f
00000080: 655d aff9 dc60 12e2 2b14 2eb1 260e 1e09
00000090: 9bff c3ed 7fc9 bf71 0de7 d6b3 6b5a b6a5
000000a0: 0ad7 6832 bdc6 e201 7ff6 d8bc f675 dd81
000000b0: b7e7 1dfe 05b2 eb09 e430 585c 1f12 e33c
000000c0: 50bd 0de2 1bdc 9793 eb2f c20e 3c03 ec81
000000d0: 525e 54ca 8d5d 07ba 0b13 0a6b b0b2 ce3c
000000e0: 4afc 0137 638a ebf9 2472 810b 222f 2f89
000000f0: 43e3 e75c 9ae0 e833 55b4 afb5 7f17 0db5

sequential/quant_conv2d_1/Conv2D i1 [64, 5, 5, 32]
23 17 2 -4 13 7 -18 8
12 -20 -1 27 10 23 -64 26
-11 11 -4 -19 -31 -58 32 -54
77 -7 14 -2 -10 14 33 -10
-22 -3 -2 -98 6 -27 19 36
-68 -33 11 -12 6 -10 -16 -7
-68 -47 30 -33 -49 4 11 32
30 -78 -28 -17 -3 29 8 -25
-27 -46 -2 -45 -1 -64 -31 39
-20 -62 -127 -37 -4 -20 40 -8
-24 -75 -28 28 -91 64 20 64
2 -32 -23 -36 -31 4 9 -8
-30 -49 -27 -16 -14 -58 -40 82
-44 -34 -73 54 -21 10 -6 -10
13 -47 -51 47 -40 3 -3 32
47 11 -6 25 -3 -38 -12 -4
27 -9 -2 24 -36 1 -63 55
-19 -21 -49 -15 -15 5 -14 8
-3 -26 -12 6 -48 -19 -1 -30
8 40 -30 -18 21 18 0 -51
11 52 13 -47 -9 20 2 -7
19 14 -23 8 43 31 32 4
-6 8 -2 33 -2 -3 16 8
14 -27 42 31 1 17 15 8
3 8 10 -58 -24 19 33 -11
4 -8 39 17 17 -7 4 13
-5 -31 42 1 -7 0 22 28
30 -54 11 -15 54 26 17 15
-1 19 -25 -14 9 -4 -12 16
-11 1 -4 29 -8 -15 21 -21
17 -10 3 24 -26 38 -7 44
-15 -5 8 -28 -1 15 0 15
00000000: 1711 02fc 0d07 ee08 0cec ff1b 0a17 c01a
00000010: f50b fced e1c6 20ca 4df9 0efe f60e 21f6
00000020: eafd fe9e 06e5 1324 bcdf 0bf4 06f6 f0f9
00000030: bcd1 1edf cf04 0b20 1eb2 e4ef fd1d 08e7
00000040: e5d2 fed3 ffc0 e127 ecc2 81db fcec 28f8
00000050: e8b5 e41c a540 1440 02e0 e9dc e104 09f8
00000060: e2cf e5f0 f2c6 d852 d4de b736 eb0a faf6
00000070: 0dd1 cd2f d803 fd20 2f0b fa19 fdda f4fc
00000080: 1bf7 fe18 dc01 c137 edeb cff1 f105 f208
00000090: fde6 f406 d0ed ffe2 0828 e2ee 1512 00cd
000000a0: 0b34 0dd1 f714 02f9 130e e908 2b1f 2004
000000b0: fa08 fe21 fefd 1008 0ee5 2a1f 0111 0f08
000000c0: 0308 0ac6 e813 21f5 04f8 2711 11f9 040d
000000d0: fbe1 2a01 f900 161c 1eca 0bf1 361a 110f
000000e0: ff13 e7f2 09fc f410 f501 fc1d f8f1 15eb
000000f0: 11f6 0318 e626 f92c f1fb 08e4 ff0f 000f

sequential/quant_conv2d_2/Conv2D i1 [96, 3, 3, 64]
-13 -3 20 4 -28 -5 -43 8
10 -4 -29 -19 -9 6 -6 -44
-8 -40 1 30 5 -16 -10 -5
11 -25 18 16 18 -41 -31 -6
-3 10 -18 28 9 29 0 -6
-52 11 24 6 9 -12 2 12
-11 -13 44 -13 -30 2 -8 -4
-5 -8 -32 -14 17 8 0 7
1 19 15 6 19 0 0 -2
35 -11 9 5 -17 26 1 34
10 -1 -25 -1 -4 13 -3 4
-47 11 18 3 -3 12 11 19
-6 -34 44 -33 -3 -21 1 21
7 42 -22 0 26 -16 12 -16
-37 -21 23 2 7 -5 6 -3
1 -7 18 -31 15 -11 43 -40
-18 40 -8 24 -24 -25 2 -10
20 9 18 53 -26 51 -13 4
-10 12 38 -2 -4 -16 5 5
-27 -4 15 36 10 6 -1 19
37 12 -4 73 4 0 -7 -1
-14 -6 23 23 -6 -9 -9 -8
3 2 -18 -37 -11 -2 35 4
9 3 6 14 -62 -3 19 30
-11 10 -17 -7 -10 -11 -15 18
16 -12 17 -8 -19 -14 2 -3
24 -17 11 -39 -3 -29 7 10
4 -4 -2 -5 7 -21 -17 -36
-6 17 -21 -1 3 27 12 -4
-15 -3 19 -23 -32 6 4 15
-20 -8 -53 4 -10 1 6 -31
13 -13 -25 0 27 11 -6 15
00000000: f3fd 1404 e4fb d508 0afc e3ed f706 fad4
00000010: f8d8 011e 05f0 f6fb 0be7 1210 12d7 e1fa
00000020: fd0a ee1c 091d 00fa cc0b 1806 09f4 020c
00000030: f5f3 2cf3 e202 f8fc fbf8 e0f2 1108 0007
00000040: 0113 0f06 1300 00fe 23f5 0905 ef1a 0122
00000050: 0aff e7ff fc0d fd04 d10b 1203 fd0c 0b13
00000060: fade 2cdf fdeb 0115 072a ea00 1af0 0cf0
00000070: dbeb 1702 07fb 06fd 01f9 12e1 0ff5 2bd8
00000080: ee28 f818 e8e7 02f6 1409 1235 e633 f304
00000090: f60c 26fe fcf0 0505 e5fc 0f24 0a06 ff13
000000a0: 250c fc49 0400 f9ff f2fa 1717 faf7 f7f8
000000b0: 0302 eedb f5fe 2304 0903 060e c2fd 131e
000000c0: f50a eff9 f6f5 f112 10f4 11f8 edf2 02fd
000000d0: 18ef 0bd9 fde3 070a 04fc fefb 07eb efdc
000000e0: fa11 ebff 031b 0cfc f1fd 13e9 e006 040f
000000f0: ecf8 cb04 f601 06e1 0df3 e700 1b0b fa0f

sequential/quant_dense/MatMul;sequential/quant_dense/LastValueQuant/FakeQuantWithMinMaxVars i1 [10, 96] scale=0.006175766 zero_point=0
0.25938216 -0.104988016 -0.17292145 0.1976245 -0.5249401 0.067933425 -0.20380028 0.049406126
-0.13586685 0.024703063 0.1790972 0.16674568 0.19144873 0.024703063 -0.3026125 0.14821838
-0.38289747 -0.24085486 0.067933425 0.12969108 0.09881225 0.104988016 -0.14821838 -0.37054595
0.24085486 -0.3087883 -0.05558189 0.061757658 -0.08028495 -0.1420426 -0.19144873 0.20997603
-0.15439415 0.2346791 -0.31496406 0.16674568 0.05558189 0.22850333 0.24085486 -0.123515315
-0.086460724 0.3211398 -0.2161518 -0.043230362 -0.018527297 -0.049406126 0.19144873 0.086460724
-0.043230362 0.20997603 0.20380028 -0.024703063 0.043230362 0.2161518 -0.006175766 -0.15439415
-0.067933425 -0.11116378 0.19144873 0.14821838 0.1790972 0.0 -0.37054595 0.2532064
-0.09263649 -0.11116378 -0.2717337 -0.3273156 0.12969108 0.2717337 -0.067933425 0.33349136
-0.19144873 0.1790972 -0.18527298 0.22850333 0.11116378 0.067933425 -0.3087883 -0.123515315
0.1420426 -0.2346791 0.33349136 0.09263649 -0.20997603 0.024703063 -0.2346791 -0.14821838
-0.29643676 -0.3273156 -0.27790946 0.24703063 -0.11733955 0.030878829 0.22850333 0.030878829
0.12969108 0.50023705 -0.1790972 -0.2532064 0.2532064 -0.061757658 -0.44465512 0.1605699
0.35201865 0.0 -0.1790972 -0.049406126 -0.53111583 -0.1790972 0.3026125 -0.5064128
0.043230362 -0.20997603 0.043230362 0.35201865 -0.049406126 -0.37054595 -0.22232756 0.33349136
-0.3273156 0.16674568 -0.71021307 0.09263649 0.13586685 -0.2346791 0.037054595 0.20997603
-0.08028495 0.05558189 0.22232756 -0.38289747 -0.20380028 -0.2717337 0.012351532 0.2717337
-0.13586685 -0.104988016 0.15439415 -0.11116378 0.20380028 0.2840852 -0.44465512 -0.22850333
0.15439415 0.17292145 0.11733955 0.018527297 0.43847936 -0.123515315 -0.45700666 -0.104988016
-0.030878829 -0.3087883 0.07410919 -0.1976245 0.19144873 -0.024703063 -0.4137763 0.08028495
0.33349136 -0.24703063 -0.22232756 0.3087883 -0.067933425 0.13586685 0.043230362 -0.24703063
0.1790972 -0.18527298 -0.40142477 -0.22232756 -0.26555791 -0.030878829 -0.006175766 0.1790972
-0.31496406 -0.030878829 -0.35201865 0.17292145 0.07410919 0.037054595 -0.067933425 -0.38907325
0.12969108 -0.54964316 0.2532064 -0.40760055 0.0 -0.2717337 -0.18527298 0.44465512
-0.29643676 -0.17292145 0.061757658 0.40142477 -0.40760055 -0.067933425 -0.17292145 -0.2717337
0.3581944 0.067933425 -0.043230362 -0.24703063 -0.3087883 0.018527297 0.104988016 0.030878829
-0.15439415 0.104988016 -0.41995206 0.09263649 0.12969108 0.2346791 0.067933425 0.018527297
-0.037054595 0.012351532 0.104988016 -0.19144873 0.030878829 0.18527298 -0.2161518 0.049406126
0.11733955 0.08028495 0.2840852 0.2532064 -0.07410919 0.2161518 0.11733955 0.11116378
0.043230362 0.4137763 0.018527297 -0.006175766 0.22850333 -0.17292145 0.030878829 0.0
-0.14821838 0.20380028 0.1790972 0.012351532 -0.12969108 0.1605699 0.1605699 -0.061757658
-0.24703063 0.18527298 -0.09881225 -0.58669776 -0.09881225 0.4323036 0.25938216 -0.09881225
00000000: 2aef e420 ab0b df08 ea04 1d1b 1f04 cf18
00000010: c2d9 0b15 1011 e8c4 27ce f70a f3e9 e122
00000020: e726 cd1b 0925 27ec f234 ddf9 fdf8 1f0e
00000030: f922 21fc 0723 ffe7 f5ee 1f18 1d00 c429
00000040: f1ee d4cb 152c f536 e11d e225 120b ceec
00000050: 17da 360f de04 dae8 d0cb d328 ed05 2505
00000060: 1551 e3d7 29f6 b81a 3900 e3f8 aae3 31ae
00000070: 07de 0739 f8c4 dc36 cb1b 8d0f 16da 0622
00000080: f309 24c2 dfd4 022c eaef 19ee 212e b8db
00000090: 191c 1303 47ec b6ef fbce 0ce0 1ffc bd0d
000000a0: 36d8 dc32 f516 07d8 1de2 bfdc d5fb ff1d
000000b0: cdfb c71c 0c06 f5c1 15a7 29be 00d4 e248
000000c0: d0e4 0a41 bef5 e4d4 3a0b f9d8 ce03 1105
000000d0: e711 bc0f 1526 0b03 fa02 11e1 051e dd08
000000e0: 130d 2e29 f423 1312 0743 03ff 25e4 0500
000000f0: e821 1d02 eb1a 1af6 d81e f0a1 f046 2af0
