logs/quant_model_q_official_1.tflite (tflite, 118880 bytes, 4 tensors)

model_3/quant_conv2d_9/Conv2D;model_3/quant_conv2d_9/LastValueQuant/FakeQuantWithMinMaxVarsPerChannel i1 [32, 5, 5, 1]
00000000: ec43 267f 1a16 01b4 4399 27f9 9f33 cad6
00000010: 093b e6d8 17a7 f15e 0417 44ea df1a d604
00000020: 2304 134c fd23 e6b8 32cb 24de d790 81e5
00000030: 2822 f607 1625 cfea 0044 0dcc c1ec 7e32
00000040: a1ca dd7f 0fcd 9d18 64ef f56b afeb 2c0b
00000050: 5b91 da5c fc25 aae1 3110 46e0 b718 0d59
00000060: 3081 f6fa e30b 2822 ca06 2ddc fe81 d51a
00000070: c5e7 d6e8 1a10 2afd c060 024a 1383 c302
00000080: 6541 1b3d 6f7c 2b18 1ce4 e409 1fdf e2a8
00000090: af1c 04de 81e0 f7af e481 9222 2c60 1fe0
000000a0: 00f5 1163 ebf5 ebd1 2cf8 27fc e628 40f5
000000b0: 343f 2ab2 326b f2bf 8116 e907 bcb0 3323
000000c0: 0e01 cf2e 3943 2914 5271 faa0 8150 6206
000000d0: 1ac6 d732 f710 1dae ee3f 1f16 99e0 f90f
000000e0: 2fd2 e106 60e7 fe81 3266 f9ab ad6a 51f4
000000f0: 98b8 3950 1dfa ee0c 0cfb 047f 7e58 481f
-20 67 38 127 26 22 1 -76
67 -103 39 -7 -97 51 -54 -42
9 59 -26 -40 23 -89 -15 94
4 23 68 -22 -33 26 -42 4
35 4 19 76 -3 35 -26 -72
50 -53 36 -34 -41 -112 -127 -27
40 34 -10 7 22 37 -49 -22
0 68 13 -52 -63 -20 126 50
-95 -54 -35 127 15 -51 -99 24
100 -17 -11 107 -81 -21 44 11
91 -111 -38 92 -4 37 -86 -31
49 16 70 -32 -73 24 13 89
48 -127 -10 -6 -29 11 40 34
-54 6 45 -36 -2 -127 -43 26
-59 -25 -42 -24 26 16 42 -3
-64 96 2 74 19 -125 -61 2
101 65 27 61 111 124 43 24
28 -28 -28 9 31 -33 -30 -88
-81 28 4 -34 -127 -32 -9 -81
-28 -127 -110 34 44 96 31 -32
0 -11 17 99 -21 -11 -21 -47
44 -8 39 -4 -26 40 64 -11
52 63 42 -78 50 107 -14 -65
-127 22 -23 7 -68 -80 51 35
14 1 -49 46 57 67 41 20
82 113 -6 -96 -127 80 98 6
26 -58 -41 50 -9 16 29 -82
-18 63 31 22 -103 -32 -7 15
47 -46 -31 6 96 -25 -2 -127
50 102 -7 -85 -83 106 81 -12
-104 -72 57 80 29 -6 -18 12
12 -5 4 127 126 88 72 31

model_3/quant_conv2d_10/Conv2D;model_3/quant_conv2d_10/LastValueQuant/FakeQuantWithMinMaxVarsPerChannel i1 [64, 5, 5, 32]
00000000: f4f4 eb0e ef22 3cf8 4ce3 fbf4 1c01 5e09
00000010: 02f0 2a26 30d6 f4ef f2f9 fe40 03eb 0909
00000020: 04ff de02 cf70 2dfa dfe5 0e1e affd b3f3
00000030: da18 09e5 fafa d9f4 2ce3 111b 0206 45c9
00000040: 1914 f7f4 3301 200e 060c 0fe7 ee23 e1dd
00000050: 1cf6 c5e8 e31e 2ff3 03d3 0bff 0a0d 0ef3
00000060: 05ee cb07 0e15 de1d 15c6 ebfd 04e2 daff
00000070: d6e1 14e5 d6db 080b 0706 f504 f3f3 110e
00000080: c207 1401 ed14 f6fd 02e0 eb20 f5be f908
00000090: 08da 27ea 1611 def9 2fe7 14e2 1bf1 faf8
000000a0: f315 d7e7 ff2f e9cc 1dd7 ec27 dfdb e0fb
000000b0: f2e9 3eeb bae6 f000 0603 fff6 1fe0 0404
000000c0: 0835 ceec 0a09 26d3 0beb ff07 93f5 00d6
000000d0: d4e9 1bb8 ffde df29 45b8 ed1f 0410 05fa
000000e0: f507 ee05 07cf ebef effa f801 0bfe 0aea
000000f0: 10e5 23f4 eef3 0ae8 41cc f311 0425 0fe9
-12 -12 -21 14 -17 34 60 -8
76 -29 -5 -12 28 1 94 9
2 -16 42 38 48 -42 -12 -17
-14 -7 -2 64 3 -21 9 9
4 -1 -34 2 -49 112 45 -6
-33 -27 14 30 -81 -3 -77 -13
-38 24 9 -27 -6 -6 -39 -12
44 -29 17 27 2 6 69 -55
25 20 -9 -12 51 1 32 14
6 12 15 -25 -18 35 -31 -35
28 -10 -59 -24 -29 30 47 -13
3 -45 11 -1 10 13 14 -13
5 -18 -53 7 14 21 -34 29
21 -58 -21 -3 4 -30 -38 -1
-42 -31 20 -27 -42 -37 8 11
7 6 -11 4 -13 -13 17 14
-62 7 20 1 -19 20 -10 -3
2 -32 -21 32 -11 -66 -7 8
8 -38 39 -22 22 17 -34 -7
47 -25 20 -30 27 -15 -6 -8
-13 21 -41 -25 -1 47 -23 -52
29 -41 -20 39 -33 -37 -32 -5
-14 -23 62 -21 -70 -26 -16 0
6 3 -1 -10 31 -32 4 4
8 53 -50 -20 10 9 38 -45
11 -21 -1 7 -109 -11 0 -42
-44 -23 27 -72 -1 -34 -33 41
69 -72 -19 31 4 16 5 -6
-11 7 -18 5 7 -49 -21 -17
-17 -6 -8 1 11 -2 10 -22
16 -27 35 -12 -18 -13 10 -24
65 -52 -13 17 4 37 15 -23

model_3/quant_conv2d_11/Conv2D;model_3/quant_conv2d_11/LastValueQuant/FakeQuantWithMinMaxVarsPerChannel i1 [96, 3, 3, 64]
00000000: 1def dfd2 eeec d727 f01e 361f 2aea fcf2
00000010: e6df 1946 dd20 3339 3fe2 08cc 0df5 251e
00000020: c8cb cd03 dc2d eb1d 0fbb 26f8 5526 1b21
00000030: 0828 f408 2bfe ed1d 2f0e 3f3b f1f2 030a
00000040: d3f1 3dfb eb3f 1bd5 eddb f0af fa1a 07f6
00000050: f716 e22a b12d d031 e2e7 de2b f9cc d22d
00000060: c514 081e 30f2 fefb 0612 53d8 21f6 feab
00000070: ec09 f9ca fcdc cc0e cef6 3a0a 09f3 d918
00000080: 2f02 17de 13d7 c5d9 104d 0dcc 50d3 12ef
00000090: 02f6 ec0d 91fb d4fa 18e7 e5ce ddf3 cffd
000000a0: d926 f4fd 20ef f8e9 dbe7 00cd f20f c912
000000b0: 0034 f034 092a eb3e 209b 0a07 7116 fc19
000000c0: fd0d 18e6 1223 2b09 f9ff 1df2 0b02 f323
000000d0: 33d5 dfdf dbef db27 011b 14f7 f0e9 09d6
000000e0: 19dd f714 e307 e808 ed02 0809 f118 0ad0
000000f0: e2f7 0818 0df8 db0a 15fc eb01 ddff dcf4
29 -17 -33 -46 -18 -20 -41 39
-16 30 54 31 42 -22 -4 -14
-26 -33 25 70 -35 32 51 57
63 -30 8 -52 13 -11 37 30
-56 -53 -51 3 -36 45 -21 29
15 -69 38 -8 85 38 27 33
8 40 -12 8 43 -2 -19 29
47 14 63 59 -15 -14 3 10
-45 -15 61 -5 -21 63 27 -43
-19 -37 -16 -81 -6 26 7 -10
-9 22 -30 42 -79 45 -48 49
-30 -25 -34 43 -7 -52 -46 45
-59 20 8 30 48 -14 -2 -5
6 18 83 -40 33 -10 -2 -85
-20 9 -7 -54 -4 -36 -52 14
-50 -10 58 10 9 -13 -39 24
47 2 23 -34 19 -41 -59 -39
16 77 13 -52 80 -45 18 -17
2 -10 -20 13 -111 -5 -44 -6
24 -25 -27 -50 -35 -13 -49 -3
-39 38 -12 -3 32 -17 -8 -23
-37 -25 0 -51 -14 15 -55 18
0 52 -16 52 9 42 -21 62
32 -101 10 7 113 22 -4 25
-3 13 24 -26 18 35 43 9
-7 -1 29 -14 11 2 -13 35
51 -43 -33 -33 -37 -17 -37 39
1 27 20 -9 -16 -23 9 -42
25 -35 -9 20 -29 7 -24 8
-19 2 8 9 -15 24 10 -48
-30 -9 8 24 13 -8 -37 10
21 -4 -21 1 -35 -1 -36 -12

model_3/quant_dense_last/MatMul;model_3/quant_dense_last/LastValueQuant/FakeQuantWithMinMaxVars i1 [10, 96] scale=0.0070273695 zero_point=0
00000000: eaf8 e7f9 17f2 04cc f5e4 0900 fe18 10dc
00000010: 28e8 291d e80a 0e1a ede9 01f2 fa20 27d9
00000020: ecd2 e5ec 21d3 e8fb d121 cce3 e4e6 e0e1
00000030: 06f9 0424 e904 f6df e317 04f2 1625 e0de
00000040: d001 e013 efdb f6c9 d8ed 19f3 f015 e005
00000050: f513 d002 1e01 1ae3 3222 15f8 1dfd 25e7
00000060: b910 e4e7 ef04 e2e4 bc18 04ce 07f1 f900
00000070: de19 210c fee1 f51e ac26 12fd c6b8 f700
00000080: f7e6 efb1 dc12 ed2b 3624 0f20 e0e0 3ef2
00000090: bcdf e7da fcef f0de 08c6 0108 0116 c4e5
000000a0: f0d4 fe12 07dc 1c1c d431 dfce fc1f ed18
000000b0: f62e ddf6 ebe9 dbc6 3524 1ee8 cb21 e72b
000000c0: 08e8 07df f6e1 e3f4 c9fe 040d 06e2 d227
000000d0: 14ef 02dd d70a f90c 291b d4dd e0d5 17f1
000000e0: f9e1 de14 1215 1f04 ef03 defb e9e2 061a
000000f0: f6c8 16f0 09fc 1cfe 1d1f fb26 10da 1902
-0.15460213 -0.056218956 -0.17568424 -0.049191587 0.1616295 -0.09838317 0.028109478 -0.3654232
-0.07730106 -0.19676635 0.063246325 0.0 -0.014054739 0.16865687 0.11243791 -0.2529853
0.2810948 -0.16865687 0.28812215 0.20379372 -0.16865687 0.0702737 0.09838317 0.1827116
-0.13352002 -0.1616295 0.0070273695 -0.09838317 -0.042164218 0.22487582 0.2740674 -0.2740674
-0.1405474 -0.323259 -0.18973897 -0.1405474 0.2319032 -0.31623164 -0.16865687 -0.03513685
-0.33028635 0.2319032 -0.3654232 -0.20379372 -0.19676635 -0.1827116 -0.22487582 -0.21784845
0.042164218 -0.049191587 0.028109478 0.2529853 -0.1616295 0.028109478 -0.0702737 -0.2319032
-0.20379372 0.1616295 0.028109478 -0.09838317 0.15460213 0.26001266 -0.22487582 -0.23893057
-0.33731374 0.0070273695 -0.22487582 0.13352002 -0.119465284 -0.26001266 -0.0702737 -0.3865053
-0.2810948 -0.13352002 0.17568424 -0.0913558 -0.11243791 0.14757475 -0.22487582 0.03513685
-0.07730106 0.13352002 -0.33731374 0.014054739 0.21082108 0.0070273695 0.1827116 -0.20379372
0.3513685 0.23893057 0.14757475 -0.056218956 0.20379372 -0.021082109 0.26001266 -0.17568424
-0.49894324 0.11243791 -0.19676635 -0.17568424 -0.119465284 0.028109478 -0.21082108 -0.19676635
-0.47786114 0.16865687 0.028109478 -0.3513685 0.049191587 -0.10541054 -0.049191587 0.0
-0.23893057 0.17568424 0.2319032 0.084328435 -0.014054739 -0.21784845 -0.07730106 0.21082108
-0.590299 0.26704004 0.12649265 -0.021082109 -0.40758744 -0.5059706 -0.063246325 0.0
-0.063246325 -0.1827116 -0.119465284 -0.5551622 -0.2529853 0.12649265 -0.13352002 0.3021769
0.37947795 0.2529853 0.10541054 0.22487582 -0.22487582 -0.22487582 0.4356969 -0.09838317
-0.47786114 -0.2319032 -0.17568424 -0.26704004 -0.028109478 -0.119465284 -0.11243791 -0.23893057
0.056218956 -0.40758744 0.0070273695 0.056218956 0.0070273695 0.15460213 -0.42164215 -0.18973897
-0.11243791 -0.30920425 -0.014054739 0.12649265 0.049191587 -0.2529853 0.19676635 0.19676635
-0.30920425 0.3443411 -0.2319032 -0.3513685 -0.028109478 0.21784845 -0.13352002 0.16865687
-0.0702737 0.323259 -0.24595793 -0.0702737 -0.14757475 -0.1616295 -0.26001266 -0.40758744
0.3724506 0.2529853 0.21082108 -0.16865687 -0.3724506 0.2319032 -0.17568424 0.3021769
0.056218956 -0.16865687 0.049191587 -0.2319032 -0.0702737 -0.21784845 -0.20379372 -0.084328435
-0.3865053 -0.014054739 0.028109478 0.0913558 0.042164218 -0.21082108 -0.323259 0.2740674
0.1405474 -0.119465284 0.014054739 -0.24595793 -0.28812215 0.0702737 -0.049191587 0.084328435
0.28812215 0.18973897 -0.30920425 -0.24595793 -0.22487582 -0.3021769 0.1616295 -0.10541054
-0.049191587 -0.21784845 -0.23893057 0.1405474 0.12649265 0.14757475 0.21784845 0.028109478
-0.119465284 0.021082109 -0.23893057 -0.03513685 -0.1616295 -0.21082108 0.042164218 0.1827116
-0.0702737 -0.3935327 0.15460213 -0.11243791 0.063246325 -0.028109478 0.19676635 -0.014054739
0.20379372 0.21784845 -0.03513685 0.26704004 0.11243791 -0.26704004 0.17568424 0.014054739
