logs/quant_model_q3.tflite (tflite, 118816 bytes, 4 tensors)

sequential_3/quant_conv2d_9/Conv2D i1 [32, 5, 5, 1]
000000 f9 05 be 31 18 04 46 81 33 14 2a 5e 98 f8 09 cd
       -7 5 -66 49 24 4 70 -127 51 20 42 94 -104 -8 9 -51
000010 3a 3b 08 db 09 e0 9d 6e 03 fa df 43 bc 3a d6 02
       58 59 8 -37 9 -32 -99 110 3 -6 -33 67 -68 58 -42 2
000020 2a b4 56 c0 ea 74 ca 1a c6 ef 7f f7 e3 09 f4 3d
       42 -76 86 -64 -22 116 -54 26 -58 -17 127 -9 -29 9 -12 61
000030 0d af 28 7c 71 43 7f d1 0f 12 34 36 1c 35 d1 dc
       13 -81 40 124 113 67 127 -47 15 18 52 54 28 53 -47 -36
000040 94 20 15 9b 9e b2 d9 e7 b4 b8 0a fb f3 b1 81 bf
       -108 32 21 -101 -98 -78 -39 -25 -76 -72 10 -5 -13 -79 -127 -65
000050 0f fe 0b e2 db f4 fa 17 08 09 0c 17 33 4c 33 f8
       15 -2 11 -30 -37 -12 -6 23 8 9 12 23 51 76 51 -8
000060 fc fd 46 14 d2 d6 4c ff 35 88 18 b8 a4 f9 68 4d
       -4 -3 70 20 -46 -42 76 -1 53 -120 24 -72 -92 -7 104 77
000070 83 e0 0e 19 b7 11 7e ee 81 36 5f 18 19 f7 4b 2b
       -125 -32 14 25 -73 17 126 -18 -127 54 95 24 25 -9 75 43
000080 a7 81 2d 00 71 16 be 08 dc 4c db 29 e3 0c 2c e8
       -89 -127 45 0 113 22 -66 8 -36 76 -37 41 -29 12 44 -24
000090 f1 c8 1a 36 fd ea fd 02 fc 04 fd 14 0d f5 08 fb
       -15 -56 26 54 -3 -22 -3 2 -4 4 -3 20 13 -11 8 -5
0000a0 fc e7 f1 0c 06 c7 8d f6 1b 0c 99 81 ee 00 f7 d7
       -4 -25 -15 12 6 -57 -115 -10 27 12 -103 -127 -18 0 -9 -41
0000b0 81 77 4c ed a3 03 64 40 c9 26 19 d1 e5 14 ed 22
       -127 119 76 -19 -93 3 100 64 -55 38 25 -47 -27 20 -19 34
0000c0 3d ca ed 46 2b 14 a7 d5 f2 26 ed 19 41 36 28 9a
       61 -54 -19 70 43 20 -89 -43 -14 38 -19 25 65 54 40 -102
0000d0 9d 0d 34 f6 c3 81 00 64 21 32 ea 3e 25 f3 e3 ab
       -99 13 52 -10 -61 -127 0 100 33 50 -22 62 37 -13 -29 -85
0000e0 dd f6 a0 69 52 c2 b2 aa 4e 4a 20 eb b4 64 ff 02
       -35 -10 -96 105 82 -62 -78 -86 78 74 32 -21 -76 100 -1 2
0000f0 a1 95 44 70 13 a5 81 3c 50 36 1f 10 f2 06 43 71
       -95 -107 68 112 19 -91 -127 60 80 54 31 16 -14 6 67 113

sequential_3/quant_conv2d_10/Conv2D i1 [64, 5, 5, 32]
000000 fc 1f 20 ea 03 d3 1c 10 f9 1d fe f6 0e 15 99 03
       -4 31 32 -22 3 -45 28 16 -7 29 -2 -10 14 21 -103 3
000010 14 f1 0b 27 fe ec 10 ef aa 0f 09 15 06 01 b3 00
       20 -15 11 39 -2 -20 16 -17 -86 15 9 21 6 1 -77 0
000020 ea 0a 1b de 09 fb 11 3d ee 09 f9 f0 01 e9 18 e6
       -22 10 27 -34 9 -5 17 61 -18 9 -7 -16 1 -23 24 -26
000030 f9 f6 08 e0 e0 e0 f6 eb d9 00 14 0f 0e fd e2 ec
       -7 -10 8 -32 -32 -32 -10 -21 -39 0 20 15 14 -3 -30 -20
000040 00 ef ed f5 07 f7 c3 d1 03 de 0c 1b fa fb 31 f3
       0 -17 -19 -11 7 -9 -61 -47 3 -34 12 27 -6 -5 49 -13
000050 17 29 0c ec e9 24 fe fa f2 04 fd ed d8 e3 2b 00
       23 41 12 -20 -23 36 -2 -6 -14 4 -3 -19 -40 -29 43 0
000060 21 d7 08 ff d8 da 88 15 f9 e8 03 f7 f4 e3 ed fc
       33 -41 8 -1 -40 -38 -120 21 -7 -24 3 -9 -12 -29 -19 -4
000070 f2 ee f9 19 de 22 eb ff f4 15 e7 ff 00 17 1b 17
       -14 -18 -7 25 -34 34 -21 -1 -12 21 -25 -1 0 23 27 23
000080 fc c0 c2 eb e9 dc e0 fe 03 c9 ef ca f8 d2 ed d9
       -4 -64 -62 -21 -23 -36 -32 -2 3 -55 -17 -54 -8 -46 -19 -39
000090 f6 f0 f8 19 e4 06 d6 fc d7 e5 0e f5 fd 01 0d f5
       -10 -16 -8 25 -28 6 -42 -4 -41 -27 14 -11 -3 1 13 -11
0000a0 f6 10 cc e6 0d ce 1c 0e 0c 0a ff d4 13 fc ce f7
       -10 16 -52 -26 13 -50 28 14 12 10 -1 -44 19 -4 -50 -9
0000b0 e9 fb e7 fd 27 10 07 e4 21 df ed fd 16 ff a5 f3
       -23 -5 -25 -3 39 16 7 -28 33 -33 -19 -3 22 -1 -91 -13
0000c0 12 1d e2 f3 1e e9 0c 28 0d fe 13 cc 03 d9 f5 f0
       18 29 -30 -13 30 -23 12 40 13 -2 19 -52 3 -39 -11 -16
0000d0 f0 e1 f1 03 0b b4 dd dc e3 e0 c0 df 16 c7 e5 e8
       -16 -31 -15 3 11 -76 -35 -36 -29 -32 -64 -33 22 -57 -27 -24
0000e0 0a 00 e3 f9 f6 25 df fe ea ef f8 00 06 f9 2b 3c
       10 0 -29 -7 -10 37 -33 -2 -22 -17 -8 0 6 -7 43 60
0000f0 32 14 00 fb d9 ef df f9 0f d7 e3 e6 df e1 14 25
       50 20 0 -5 -39 -17 -33 -7 15 -41 -29 -26 -33 -31 20 37

sequential_3/quant_conv2d_11/Conv2D i1 [96, 3, 3, 64]
000000 f4 81 f9 d3 f5 0b 05 e9 f1 18 fe 02 18 01 a8 f3
       -12 -127 -7 -45 -11 11 5 -23 -15 24 -2 2 24 1 -88 -13
000010 26 ea c4 04 01 13 c3 0d b9 03 f8 00 f8 d9 ff e3
       38 -22 -60 4 1 19 -61 13 -71 3 -8 0 -8 -39 -1 -29
000020 00 e6 31 13 d6 ff e2 fa 04 09 e5 53 da fa ed ec
       0 -26 49 19 -42 -1 -30 -6 4 9 -27 83 -38 -6 -19 -20
000030 b2 22 e3 e0 ee fc f0 fb 07 f4 f9 f8 ce 0e e3 0a
       -78 34 -29 -32 -18 -4 -16 -5 7 -12 -7 -8 -50 14 -29 10
000040 00 cd f5 ef fe 0e f1 d5 3e 2d de e0 09 14 d5 fa
       0 -51 -11 -17 -2 14 -15 -43 62 45 -34 -32 9 20 -43 -6
000050 20 04 e9 f1 01 02 07 12 1f f2 f9 dc eb 03 24 b6
       32 4 -23 -15 1 2 7 18 31 -14 -7 -36 -21 3 36 -74
000060 bd 0b 5a 27 f7 fb f9 e9 12 ff ff 43 fd ff df ec
       -67 11 90 39 -9 -5 -7 -23 18 -1 -1 67 -3 -1 -33 -20
000070 32 2a fd 1a 0e e3 0f fb 05 d0 15 b7 32 0b 2a 34
       50 42 -3 26 14 -29 15 -5 5 -48 21 -73 50 11 42 52
000080 f8 27 06 3b 05 00 1c 14 14 1c 1b c4 05 07 d5 f9
       -8 39 6 59 5 0 28 20 20 28 27 -60 5 7 -43 -7
000090 14 22 1c c3 e0 2d 33 01 ef ec f9 d0 f6 fe fe f9
       20 34 28 -61 -32 45 51 1 -17 -20 -7 -48 -10 -2 -2 -7
0000a0 03 20 25 2c ef f4 14 db 12 f2 1e 1d 15 f2 0f 00
       3 32 37 44 -17 -12 20 -37 18 -14 30 29 21 -14 15 0
0000b0 f8 e4 18 e4 07 d1 f2 c7 e5 f3 fb d7 25 5d 00 03
       -8 -28 24 -28 7 -47 -14 -57 -27 -13 -5 -41 37 93 0 3
0000c0 06 e2 06 a5 06 3e 2f a8 19 09 e4 2e 2f 0b bd 1f
       6 -30 6 -91 6 62 47 -88 25 9 -28 46 47 11 -67 31
0000d0 c9 ec c7 37 46 ee 16 0e bb 0c 38 bb eb f2 d4 20
       -55 -20 -57 55 70 -18 22 14 -69 12 56 -69 -21 -14 -44 32
0000e0 59 1c 71 fb fb ff c7 0e f0 07 bb 32 fd bb 17 eb
       89 28 113 -5 -5 -1 -57 14 -16 7 -69 50 -3 -69 23 -21
0000f0 d3 40 d0 f8 32 d9 d5 18 11 2c f8 0f 00 f1 ac 09
       -45 64 -48 -8 50 -39 -43 24 17 44 -8 15 0 -15 -84 9

sequential_3/quant_dense_3/MatMul;sequential_3/quant_dense_3/LastValueQuant/FakeQuantWithMinMaxVars i1 [10, 96] scale=0.006131189 zero_point=0
000000 2f 21 a9 27 f0 e0 15 22 f8 dc d2 1e d6 14 f8 cd
       0.28816587 0.20232923 -0.5334134 0.23911637 -0.09809902 -0.19619805 0.12875497 0.20846042 -0.04904951 -0.2207228 -0.2820347 0.18393567 -0.25750995 0.12262378 -0.04904951 -0.31269065
000010 18 d5 12 e5 f6 f8 25 1f ee e2 fb 1c cd 17 ea 16
       0.14714853 -0.26364112 0.1103614 -0.1655421 -0.06131189 -0.04904951 0.226854 0.19006686 -0.1103614 -0.18393567 -0.030655945 0.1716733 -0.31269065 0.14101735 -0.13488616 0.13488616
000020 f9 22 ff ea de 29 ec 3b 24 07 10 1b e7 01 e0 38
       -0.042918324 0.20846042 -0.006131189 -0.13488616 -0.20846042 0.25137874 -0.12262378 0.36174014 0.2207228 0.042918324 0.09809902 0.1655421 -0.15327972 0.006131189 -0.19619805 0.3433466
000030 0c d3 f8 ca 0d 11 24 ef ef 1e e0 e6 0d ee d7 b4
       0.07357427 -0.2759035 -0.04904951 -0.3310842 0.079705454 0.10423021 0.2207228 -0.10423021 -0.10423021 0.18393567 -0.19619805 -0.15941091 0.079705454 -0.1103614 -0.25137874 -0.46597037
000040 29 aa ed e5 f1 fe 1d 1f f5 e2 16 1c 00 a4 0d e0
       0.25137874 -0.52728224 -0.11649259 -0.1655421 -0.091967836 -0.012262378 0.17780448 0.19006686 -0.06744308 -0.18393567 0.13488616 0.1716733 0.0 -0.5640694 0.079705454 -0.19619805
000050 06 13 1a e4 f6 0c 1b fe 18 f7 19 f8 d9 1e 06 f1
       0.036787134 0.11649259 0.15941091 -0.1716733 -0.06131189 0.07357427 0.1655421 -0.012262378 0.14714853 -0.0551807 0.15327972 -0.04904951 -0.23911637 0.18393567 0.036787134 -0.091967836
000060 a2 f9 0b 08 f6 4c f4 f6 02 e0 07 e8 0f 05 18 81
       -0.57633173 -0.042918324 0.06744308 0.04904951 -0.06131189 0.46597037 -0.07357427 -0.06131189 0.012262378 -0.19619805 0.042918324 -0.14714853 0.091967836 0.030655945 0.14714853 -0.778661
000070 bb b5 f9 44 01 f5 da 12 bc 41 d2 07 e1 e8 e9 01
       -0.42305204 -0.45983917 -0.042918324 0.41692084 0.006131189 -0.06744308 -0.23298518 0.1103614 -0.41692084 0.3985273 -0.2820347 0.042918324 -0.19006686 -0.14714853 -0.14101735 0.006131189
000080 30 d7 4b f8 1b 0a a4 3b df df e0 c0 2f 00 00 08
       0.29429707 -0.25137874 0.45983917 -0.04904951 0.1655421 0.06131189 -0.5640694 0.36174014 -0.20232923 -0.20232923 -0.19619805 -0.3923961 0.28816587 0.0 0.0 0.04904951
000090 9b 47 f5 10 14 14 03 09 dd f3 10 10 10 53 ba d1
       -0.61925006 0.43531442 -0.06744308 0.09809902 0.12262378 0.12262378 0.018393567 0.0551807 -0.21459161 -0.079705454 0.09809902 0.09809902 0.09809902 0.50888866 -0.42918321 -0.28816587
0000a0 0d 12 1d 00 0a a4 fa bc 03 27 0e 03 df 13 f9 11
       0.079705454 0.1103614 0.17780448 0.0 0.06131189 -0.5640694 -0.036787134 -0.41692084 0.018393567 0.23911637 0.08583665 0.018393567 -0.20232923 0.11649259 -0.042918324 0.10423021
0000b0 cd a4 8f a3 c6 0f fc e6 c9 a2 33 fb fa 01 91 00
       -0.31269065 -0.5640694 -0.69282436 -0.57020056 -0.35560897 0.091967836 -0.024524756 -0.15941091 -0.3372154 -0.57633173 0.31269065 -0.030655945 -0.036787134 0.006131189 -0.68056196 0.0
0000c0 e1 1f e8 0a 2b e6 e3 e2 e9 2c 31 11 08 fa f3 fe
       -0.19006686 0.19006686 -0.14714853 0.06131189 0.26364112 -0.15941091 -0.17780448 -0.18393567 -0.14101735 0.26977232 0.30042827 0.10423021 0.04904951 -0.036787134 -0.079705454 -0.012262378
0000d0 d9 e5 17 02 24 0e 2a a6 33 e7 01 ec c5 1f 15 17
       -0.23911637 -0.1655421 0.14101735 0.012262378 0.2207228 0.08583665 0.25750995 -0.551807 0.31269065 -0.15327972 0.006131189 -0.12262378 -0.36174014 0.19006686 0.12875497 0.14101735
0000e0 c9 f0 07 e6 34 d0 c6 31 0f 07 e2 ea e7 f9 e9 07
       -0.3372154 -0.09809902 0.042918324 -0.15941091 0.31882182 -0.29429707 -0.35560897 0.30042827 0.091967836 0.042918324 -0.18393567 -0.13488616 -0.15327972 -0.042918324 -0.14101735 0.042918324
0000f0 15 f6 14 df e4 f8 e4 f2 d6 ff 10 ef f5 fa e0 ef
       0.12875497 -0.06131189 0.12262378 -0.20232923 -0.1716733 -0.04904951 -0.1716733 -0.08583665 -0.25750995 -0.006131189 0.09809902 -0.10423021 -0.06744308 -0.036787134 -0.19619805 -0.10423021
