logs/quant_model_q4_func.tflite (tflite, 118584 bytes, 4 tensors)

model_1/quant_conv2d_3/Conv2D;model_1/quant_conv2d_3/LastValueQuant/FakeQuantWithMinMaxVarsPerChannel i1 [32, 5, 5, 1]
0	0x79	121
1	0x7f	127
2	0x3b	59
3	0x44	68
4	0x09	9
5	0xf0	-16
6	0x35	53
7	0x49	73
8	0x25	37
9	0xe8	-24
10	0x10	16
11	0x17	23
12	0x04	4
13	0xe2	-30
14	0xa7	-89
15	0xbc	-68
16	0xeb	-21
17	0xf5	-11
18	0x00	0
19	0xf9	-7
20	0x90	-112
21	0x94	-108
22	0xdc	-36
23	0x16	22
24	0xcd	-51
25	0xe6	-26
26	0x29	41
27	0x52	82
28	0x83	-125
29	0xad	-83
30	0xdf	-33
31	0x15	21
32	0x67	103
33	0xc4	-60
34	0x93	-109
35	0x0a	10
36	0xd1	-47
37	0x62	98
38	0xcb	-53
39	0xed	-19
40	0x07	7
41	0xc1	-63
42	0x7f	127
43	0x1d	29
44	0xda	-38
45	0x37	55
46	0xed	-19
47	0x40	64
48	0x4b	75
49	0x10	16
50	0xda	-38
51	0x96	-106
52	0x07	7
53	0x7f	127
54	0x1c	28
55	0x14	20
56	0x40	64
57	0xbf	-65
58	0xe7	-25
59	0x0f	15
60	0xe6	-26
61	0x1d	29
62	0x0f	15
63	0xba	-70
64	0x06	6
65	0x18	24
66	0xdf	-33
67	0x27	39
68	0x00	0
69	0xba	-70
70	0xe6	-26
71	0x15	21
72	0x02	2
73	0xd0	-48
74	0x17	23
75	0x01	1
76	0xc8	-56
77	0xf9	-7
78	0xfc	-4
79	0x1e	30
80	0xc0	-64
81	0x81	-127
82	0xee	-18
83	0x18	24
84	0x12	18
85	0xb6	-74
86	0xd0	-48
87	0x15	21
88	0x13	19
89	0x18	24
90	0xe5	-27
91	0xe5	-27
92	0x18	24
93	0x0b	11
94	0x1c	28
95	0xe5	-27
96	0xe9	-23
97	0x0e	14
98	0x14	20
99	0x1c	28
100	0xc3	-61
101	0x05	5
102	0x3e	62
103	0x15	21
104	0xc9	-55
105	0xa1	-95
106	0xb9	-71
107	0x2b	43
108	0x11	17
109	0x15	21
110	0x28	40
111	0xb1	-79
112	0xe6	-26
113	0xb2	-78
114	0xbd	-67
115	0x3f	63
116	0xfe	-2
117	0xe9	-23
118	0x01	1
119	0x30	48
120	0x5b	91
121	0x7f	127
122	0x0a	10
123	0x1b	27
124	0xe8	-24
125	0x17	23
126	0x1e	30
127	0x18	24
128	0x05	5
129	0xee	-18
130	0x53	83
131	0x42	66
132	0x02	2
133	0xd4	-44
134	0x81	-127
135	0xf7	-9
136	0x3c	60
137	0x25	37
138	0xbe	-66
139	0xab	-85
140	0x24	36
141	0xf9	-7
142	0x18	24
143	0x25	37
144	0xfc	-4
145	0xe1	-31
146	0xe3	-29
147	0x08	8
148	0x06	6
149	0x09	9
150	0x46	70
151	0xf5	-11
152	0x81	-127
153	0xad	-83
154	0xc5	-59
155	0x33	51
156	0x33	51
157	0xed	-19
158	0xdd	-35
159	0x00	0
160	0x1f	31
161	0x2a	42
162	0xff	-1
163	0x0a	10
164	0x23	35
165	0x04	4
166	0xf9	-7
167	0xf3	-13
168	0xf0	-16
169	0x1f	31
170	0xff	-1
171	0xe4	-28
172	0x13	19
173	0xfd	-3
174	0x0f	15
175	0x4d	77
176	0x5c	92
177	0xff	-1
178	0x88	-120
179	0xcc	-52
180	0x33	51
181	0x1b	27
182	0x01	1
183	0xee	-18
184	0x02	2
185	0xd7	-41
186	0x11	17
187	0xe2	-30
188	0x03	3
189	0x1d	29
190	0x81	-127
191	0xda	-38
192	0x1a	26
193	0x42	66
194	0x06	6
195	0x84	-124
196	0x9a	-102
197	0x37	55
198	0x2c	44
199	0x1c	28
200	0x03	3
201	0x2e	46
202	0xc6	-58
203	0x18	24
204	0x5c	92
205	0x50	80
206	0x16	22
207	0xe1	-31
208	0xe9	-23
209	0x5a	90
210	0x62	98
211	0x30	48
212	0x81	-127
213	0xb8	-72
214	0x47	71
215	0x3d	61
216	0x10	16
217	0x84	-124
218	0xaa	-86
219	0x02	2
220	0x09	9
221	0x17	23
222	0x9e	-98
223	0x83	-125
224	0x36	54
225	0x04	4
226	0xda	-38
227	0x18	24
228	0xea	-22
229	0x11	17
230	0xf8	-8
231	0xe6	-26
232	0x5c	92
233	0xbb	-69
234	0xfa	-6
235	0x05	5
236	0xe8	-24
237	0x7f	127
238	0x98	-104
239	0x1e	30
240	0xc8	-56
241	0x20	32
242	0x6b	107
243	0x84	-124
244	0x1f	31
245	0xcf	-49
246	0x4e	78
247	0x64	100
248	0xaa	-86
249	0xcb	-53
250	0x61	97
251	0x23	35
252	0x60	96
253	0x47	71
254	0x29	41
255	0xf1	-15

model_1/quant_conv2d_4/Conv2D;model_1/quant_conv2d_4/LastValueQuant/FakeQuantWithMinMaxVarsPerChannel i1 [64, 5, 5, 32]
0	0xba	-70
1	0xf9	-7
2	0xfc	-4
3	0xf5	-11
4	0xf7	-9
5	0xf6	-10
6	0xe1	-31
7	0xd0	-48
8	0x58	88
9	0x3c	60
10	0x0d	13
11	0x1d	29
12	0x01	1
13	0x21	33
14	0xef	-17
15	0xfb	-5
16	0x1d	29
17	0xe1	-31
18	0x29	41
19	0x09	9
20	0x08	8
21	0x20	32
22	0x1d	29
23	0xf9	-7
24	0xfb	-5
25	0xc9	-55
26	0xed	-19
27	0x3a	58
28	0xd8	-40
29	0x0a	10
30	0xe7	-25
31	0xfe	-2
32	0x14	20
33	0xf5	-11
34	0xd9	-39
35	0xf7	-9
36	0xf3	-13
37	0xeb	-21
38	0xdd	-35
39	0x1a	26
40	0x0f	15
41	0x00	0
42	0x04	4
43	0x12	18
44	0x0f	15
45	0x19	25
46	0xf0	-16
47	0xe1	-31
48	0x20	32
49	0xfb	-5
50	0x50	80
51	0x02	2
52	0x21	33
53	0x04	4
54	0x15	21
55	0xbc	-68
56	0x0c	12
57	0xd2	-46
58	0xce	-50
59	0xe0	-32
60	0xed	-19
61	0x27	39
62	0xbf	-65
63	0x1b	27
64	0x11	17
65	0xf4	-12
66	0xd7	-41
67	0xd9	-39
68	0xcf	-49
69	0xd8	-40
70	0x1f	31
71	0xff	-1
72	0x5d	93
73	0x39	57
74	0x20	32
75	0x3f	63
76	0xe6	-26
77	0x3e	62
78	0xe9	-23
79	0x07	7
80	0x26	38
81	0xf7	-9
82	0x17	23
83	0xfb	-5
84	0x15	21
85	0x06	6
86	0x20	32
87	0x2a	42
88	0xf4	-12
89	0xf5	-11
90	0x1b	27
91	0xca	-54
92	0x29	41
93	0xee	-18
94	0xcf	-49
95	0x2f	47
96	0x01	1
97	0xfa	-6
98	0x42	66
99	0x16	22
100	0xdc	-36
101	0x06	6
102	0xfc	-4
103	0xf9	-7
104	0x2a	42
105	0x3b	59
106	0x30	48
107	0xd9	-39
108	0xf7	-9
109	0xff	-1
110	0xfe	-2
111	0xe2	-30
112	0xcb	-53
113	0x11	17
114	0x09	9
115	0x87	-121
116	0xf7	-9
117	0x09	9
118	0xec	-20
119	0x65	101
120	0xff	-1
121	0x10	16
122	0x08	8
123	0x28	40
124	0x0c	12
125	0x1d	29
126	0xc3	-61
127	0xea	-22
128	0x1d	29
129	0xf6	-10
130	0x07	7
131	0xf0	-16
132	0x06	6
133	0x0c	12
134	0xf9	-7
135	0xc8	-56
136	0x03	3
137	0xf5	-11
138	0x20	32
139	0xcc	-52
140	0xf2	-14
141	0xb8	-72
142	0xe6	-26
143	0x00	0
144	0xd0	-48
145	0x01	1
146	0x00	0
147	0xdf	-33
148	0x29	41
149	0x10	16
150	0xc1	-63
151	0xa2	-94
152	0xfe	-2
153	0x08	8
154	0xea	-22
155	0x20	32
156	0xec	-20
157	0x54	84
158	0xc1	-63
159	0xe8	-24
160	0xc3	-61
161	0x2d	45
162	0x2f	47
163	0xc7	-57
164	0xfe	-2
165	0x1c	28
166	0x3c	60
167	0xed	-19
168	0x35	53
169	0x14	20
170	0xd3	-45
171	0x0a	10
172	0xf3	-13
173	0x0c	12
174	0xf7	-9
175	0xf4	-12
176	0x18	24
177	0xf8	-8
178	0xf5	-11
179	0x27	39
180	0x3b	59
181	0x50	80
182	0x27	39
183	0x0c	12
184	0x03	3
185	0xf4	-12
186	0x27	39
187	0x25	37
188	0x1b	27
189	0x12	18
190	0x02	2
191	0xf1	-15
192	0xfa	-6
193	0xdf	-33
194	0x14	20
195	0xf4	-12
196	0x00	0
197	0x1e	30
198	0x13	19
199	0x00	0
200	0xf1	-15
201	0xdd	-35
202	0xf8	-8
203	0x26	38
204	0xff	-1
205	0x14	20
206	0xef	-17
207	0xe9	-23
208	0x16	22
209	0x0f	15
210	0x25	37
211	0x1d	29
212	0x2b	43
213	0xfd	-3
214	0x2a	42
215	0x21	33
216	0xee	-18
217	0xde	-34
218	0xf1	-15
219	0xf4	-12
220	0xce	-50
221	0x15	21
222	0xfd	-3
223	0xec	-20
224	0xf1	-15
225	0xeb	-21
226	0x15	21
227	0xd3	-45
228	0x02	2
229	0x1c	28
230	0x0f	15
231	0xf7	-9
232	0xfe	-2
233	0x14	20
234	0x33	51
235	0xfd	-3
236	0xe8	-24
237	0x04	4
238	0xfc	-4
239	0x03	3
240	0x1e	30
241	0xee	-18
242	0xf6	-10
243	0xdd	-35
244	0x17	23
245	0xfc	-4
246	0x1d	29
247	0x14	20
248	0x03	3
249	0xfb	-5
250	0x04	4
251	0x2c	44
252	0xf8	-8
253	0xda	-38
254	0xe6	-26
255	0x21	33

model_1/quant_conv2d_5/Conv2D;model_1/quant_conv2d_5/LastValueQuant/FakeQuantWithMinMaxVarsPerChannel i1 [96, 3, 3, 64]
0	0xff	-1
1	0x0f	15
2	0xf1	-15
3	0x39	57
4	0xee	-18
5	0xb9	-71
6	0xef	-17
7	0xed	-19
8	0x23	35
9	0x3d	61
10	0x28	40
11	0xb4	-76
12	0xf3	-13
13	0x1a	26
14	0x0a	10
15	0xeb	-21
16	0xce	-50
17	0xce	-50
18	0xf9	-7
19	0xe4	-28
20	0xdb	-37
21	0x21	33
22	0xd3	-45
23	0x45	69
24	0x0a	10
25	0x85	-123
26	0xb7	-73
27	0xbf	-65
28	0xbc	-68
29	0xa8	-88
30	0xbf	-65
31	0xf1	-15
32	0xc4	-60
33	0xd9	-39
34	0x25	37
35	0xc2	-62
36	0xa9	-87
37	0xd4	-44
38	0x0e	14
39	0x08	8
40	0xc1	-63
41	0xe4	-28
42	0xbc	-68
43	0x28	40
44	0x2c	44
45	0xc7	-57
46	0xc5	-59
47	0xfe	-2
48	0x1c	28
49	0x22	34
50	0xd2	-46
51	0xf3	-13
52	0x37	55
53	0x35	53
54	0xa4	-92
55	0xb2	-78
56	0xff	-1
57	0x0c	12
58	0xc1	-63
59	0x3f	63
60	0xc7	-57
61	0xf6	-10
62	0x04	4
63	0xb6	-74
64	0xe0	-32
65	0xe3	-29
66	0x24	36
67	0x26	38
68	0x9d	-99
69	0x38	56
70	0xba	-70
71	0xdd	-35
72	0xab	-85
73	0x06	6
74	0xd6	-42
75	0xca	-54
76	0x3d	61
77	0xe5	-27
78	0x1b	27
79	0x02	2
80	0xcc	-52
81	0x0e	14
82	0xcc	-52
83	0xc8	-56
84	0x3b	59
85	0xfc	-4
86	0x2b	43
87	0xf8	-8
88	0xe3	-29
89	0x02	2
90	0x23	35
91	0x9e	-98
92	0xbe	-66
93	0xc0	-64
94	0xd1	-47
95	0x87	-121
96	0xce	-50
97	0xff	-1
98	0xc7	-57
99	0x34	52
100	0xb1	-79
101	0xfb	-5
102	0xb2	-78
103	0xba	-70
104	0x0a	10
105	0xeb	-21
106	0x16	22
107	0xc0	-64
108	0x1d	29
109	0x24	36
110	0xd9	-39
111	0x2f	47
112	0xe4	-28
113	0xc4	-60
114	0x28	40
115	0xa8	-88
116	0xcf	-49
117	0xbf	-65
118	0xf1	-15
119	0xe5	-27
120	0xe1	-31
121	0xa6	-90
122	0x13	19
123	0x00	0
124	0x08	8
125	0xce	-50
126	0xc1	-63
127	0x31	49
128	0xea	-22
129	0xeb	-21
130	0x18	24
131	0xbb	-69
132	0x21	33
133	0xcb	-53
134	0xe4	-28
135	0xcd	-51
136	0xa6	-90
137	0xf3	-13
138	0xf9	-7
139	0x4b	75
140	0xe2	-30
141	0x12	18
142	0xeb	-21
143	0xc2	-62
144	0xc5	-59
145	0xd5	-43
146	0xbb	-69
147	0x05	5
148	0xa4	-92
149	0x30	48
150	0xf1	-15
151	0x36	54
152	0xcb	-53
153	0xf7	-9
154	0x1d	29
155	0x9e	-98
156	0xc1	-63
157	0x24	36
158	0xca	-54
159	0x03	3
160	0x12	18
161	0xbd	-67
162	0x2e	46
163	0xc3	-61
164	0x09	9
165	0x39	57
166	0x0b	11
167	0x0f	15
168	0xe6	-26
169	0xf8	-8
170	0x1b	27
171	0x22	34
172	0xb6	-74
173	0x01	1
174	0xbd	-67
175	0xda	-38
176	0x0e	14
177	0xc1	-63
178	0xe1	-31
179	0xd4	-44
180	0x00	0
181	0x15	21
182	0xa7	-89
183	0xf1	-15
184	0xe1	-31
185	0xfd	-3
186	0xdb	-37
187	0x0f	15
188	0x08	8
189	0x2c	44
190	0x09	9
191	0xc0	-64
192	0xf8	-8
193	0xfa	-6
194	0xd2	-46
195	0xc3	-61
196	0x00	0
197	0xe4	-28
198	0x23	35
199	0xcb	-53
200	0xff	-1
201	0xed	-19
202	0x0e	14
203	0xb3	-77
204	0xee	-18
205	0x1a	26
206	0xb9	-71
207	0xf1	-15
208	0xe1	-31
209	0xb0	-80
210	0x42	66
211	0x03	3
212	0xc7	-57
213	0xc8	-56
214	0xc1	-63
215	0x02	2
216	0xb9	-71
217	0xb4	-76
218	0x1c	28
219	0xd4	-44
220	0xf0	-16
221	0x1d	29
222	0x02	2
223	0xcb	-53
224	0x18	24
225	0x26	38
226	0xb5	-75
227	0xbe	-66
228	0xf8	-8
229	0xee	-18
230	0xfb	-5
231	0xdb	-37
232	0xed	-19
233	0xda	-38
234	0xa7	-89
235	0x0f	15
236	0x06	6
237	0xaf	-81
238	0xe8	-24
239	0x32	50
240	0xee	-18
241	0xed	-19
242	0x21	33
243	0xc2	-62
244	0xee	-18
245	0x1a	26
246	0x94	-108
247	0xf9	-7
248	0xcf	-49
249	0x14	20
250	0xb9	-71
251	0x22	34
252	0xa9	-87
253	0x19	25
254	0xb5	-75
255	0x02	2

model_1/quant_dense_last/MatMul;model_1/quant_dense_last/LastValueQuant/FakeQuantWithMinMaxVars i1 [10, 96] scale=0.0067715696 zero_point=0
0	0xea	-0.14897454
1	0x16	0.14897454
2	0x16	0.14897454
3	0xe4	-0.18960395
4	0x1e	0.20314708
5	0xe4	-0.18960395
6	0x45	0.4672383
7	0xd3	-0.30472064
8	0x17	0.1557461
9	0x04	0.027086278
10	0x16	0.14897454
11	0xee	-0.12188825
12	0xe2	-0.20314708
13	0xc7	-0.38597947
14	0xf7	-0.060944125
15	0xbe	-0.44692358
16	0xad	-0.56204027
17	0xf0	-0.10834511
18	0xef	-0.115116686
19	0xca	-0.36566475
20	0x16	0.14897454
21	0x20	0.21669023
22	0x39	0.38597947
23	0xcf	-0.3318069
24	0x04	0.027086278
25	0xf4	-0.08125883
26	0x1d	0.19637552
27	0xf7	-0.060944125
28	0xf8	-0.054172557
29	0xeb	-0.14220296
30	0x21	0.22346179
31	0x01	0.0067715696
32	0xd1	-0.31826377
33	0xf8	-0.054172557
34	0x03	0.020314708
35	0x12	0.12188825
36	0xee	-0.12188825
37	0x08	0.054172557
38	0x03	0.020314708
39	0x03	0.020314708
40	0xd6	-0.28440592
41	0xf7	-0.060944125
42	0x17	0.1557461
43	0xe9	-0.1557461
44	0x25	0.25054806
45	0x02	0.013543139
46	0xe8	-0.16251767
47	0x17	0.1557461
48	0xfd	-0.020314708
49	0x05	0.03385785
50	0x22	0.23023337
51	0x04	0.027086278
52	0x03	0.020314708
53	0x24	0.2437765
54	0xe1	-0.20991866
55	0xeb	-0.14220296
56	0x22	0.23023337
57	0xd7	-0.27763435
58	0xd5	-0.29117748
59	0x28	0.2708628
60	0xdb	-0.25054806
61	0x1d	0.19637552
62	0xe1	-0.20991866
63	0xed	-0.12865983
64	0x06	0.040629417
65	0xe8	-0.16251767
66	0x3d	0.41306573
67	0x0e	0.09480198
68	0x0d	0.088030405
69	0x22	0.23023337
70	0xd6	-0.28440592
71	0x06	0.040629417
72	0xf7	-0.060944125
73	0xd1	-0.31826377
74	0x1c	0.18960395
75	0x0c	0.08125883
76	0xe4	-0.18960395
77	0xec	-0.1354314
78	0x1a	0.17606081
79	0xfb	-0.03385785
80	0x0a	0.0677157
81	0xeb	-0.14220296
82	0x16	0.14897454
83	0xf1	-0.10157354
84	0xf6	-0.0677157
85	0x24	0.2437765
86	0x1d	0.19637552
87	0x30	0.32503533
88	0xdd	-0.23700494
89	0x00	0.0
90	0xba	-0.47400987
91	0xea	-0.14897454
92	0xd9	-0.26409122
93	0x01	0.0067715696
94	0x1e	0.20314708
95	0x0d	0.088030405
96	0xee	-0.12188825
97	0xf0	-0.10834511
98	0xef	-0.115116686
99	0xe8	-0.16251767
100	0x10	0.10834511
101	0x13	0.12865983
102	0xff	-0.0067715696
103	0xbc	-0.46046674
104	0xf8	-0.054172557
105	0xca	-0.36566475
106	0xeb	-0.14220296
107	0x16	0.14897454
108	0xb8	-0.487553
109	0xd0	-0.32503533
110	0xe0	-0.21669023
111	0x05	0.03385785
112	0xe5	-0.18283238
113	0x0a	0.0677157
114	0xf9	-0.04740099
115	0xe9	-0.1557461
116	0x1c	0.18960395
117	0x1e	0.20314708
118	0xf8	-0.054172557
119	0xbf	-0.44015202
120	0x26	0.25731966
121	0x0e	0.09480198
122	0xe6	-0.17606081
123	0xb4	-0.5146393
124	0xd5	-0.29117748
125	0xfa	-0.040629417
126	0xed	-0.12865983
127	0xbb	-0.4672383
128	0x1d	0.19637552
129	0xe6	-0.17606081
130	0x1d	0.19637552
131	0xd4	-0.29794908
132	0x01	0.0067715696
133	0xfb	-0.03385785
134	0xdf	-0.22346179
135	0xb0	-0.5417256
136	0x38	0.3792079
137	0x4e	0.52818245
138	0x25	0.25054806
139	0x45	0.4672383
140	0xb3	-0.5214109
141	0x1a	0.17606081
142	0xef	-0.115116686
143	0x33	0.34535006
144	0x13	0.12865983
145	0x2f	0.31826377
146	0xf9	-0.04740099
147	0xeb	-0.14220296
148	0xee	-0.12188825
149	0xea	-0.14897454
150	0x38	0.3792079
151	0x20	0.21669023
152	0x23	0.23700494
153	0xf8	-0.054172557
154	0x1e	0.20314708
155	0xf7	-0.060944125
156	0xd9	-0.26409122
157	0xb6	-0.5010961
158	0x0c	0.08125883
159	0x15	0.14220296
160	0xa9	-0.5891265
161	0x96	-0.7177864
162	0x1e	0.20314708
163	0xfb	-0.03385785
164	0x36	0.36566475
165	0xed	-0.12865983
166	0xe3	-0.19637552
167	0x22	0.23023337
168	0xcd	-0.34535006
169	0xc6	-0.39275104
170	0xce	-0.3385785
171	0x09	0.060944125
172	0x05	0.03385785
173	0x1e	0.20314708
174	0x24	0.2437765
175	0xec	-0.1354314
176	0xab	-0.5755834
177	0xff	-0.0067715696
178	0xfb	-0.03385785
179	0x8c	-0.7855021
180	0xe1	-0.20991866
181	0xcb	-0.3588932
182	0x20	0.21669023
183	0xfa	-0.040629417
184	0x34	0.35212162
185	0x29	0.27763435
186	0xdb	-0.25054806
187	0xee	-0.12188825
188	0xe0	-0.21669023
189	0xcd	-0.34535006
190	0xef	-0.115116686
191	0xa4	-0.6229844
192	0xf3	-0.088030405
193	0xf1	-0.10157354
194	0xfe	-0.013543139
195	0xfc	-0.027086278
196	0x20	0.21669023
197	0xfe	-0.013543139
198	0x30	0.32503533
199	0xe6	-0.17606081
200	0xe8	-0.16251767
201	0x17	0.1557461
202	0xde	-0.23023337
203	0x08	0.054172557
204	0x23	0.23700494
205	0x17	0.1557461
206	0x0a	0.0677157
207	0x03	0.020314708
208	0x14	0.1354314
209	0xeb	-0.14220296
210	0xe3	-0.19637552
211	0xff	-0.0067715696
212	0xcd	-0.34535006
213	0x26	0.25731966
214	0x22	0.23023337
215	0x04	0.027086278
216	0xe1	-0.20991866
217	0x12	0.12188825
218	0x00	0.0
219	0xf0	-0.10834511
220	0x19	0.16928925
221	0xd7	-0.27763435
222	0x0f	0.10157354
223	0xfe	-0.013543139
224	0xe6	-0.17606081
225	0xe9	-0.1557461
226	0x1b	0.18283238
227	0xfb	-0.03385785
228	0xc3	-0.41306573
229	0xef	-0.115116686
230	0xe6	-0.17606081
231	0x19	0.16928925
232	0xe4	-0.18960395
233	0x2a	0.28440592
234	0xfa	-0.040629417
235	0xf6	-0.0677157
236	0xdb	-0.25054806
237	0x21	0.22346179
238	0x0a	0.0677157
239	0xf0	-0.10834511
240	0x11	0.115116686
241	0xd3	-0.30472064
242	0xe7	-0.16928925
243	0xce	-0.3385785
244	0xd7	-0.27763435
245	0xbf	-0.44015202
246	0xce	-0.3385785
247	0x19	0.16928925
248	0xf3	-0.088030405
249	0xaa	-0.58235496
250	0x2b	0.29117748
251	0xcf	-0.3318069
252	0x08	0.054172557
253	0xf9	-0.04740099
254	0xe3	-0.19637552
255	0xcc	-0.35212162
